trained-models/best_lstm.pt (torch, 390606 bytes, 27 tensors)

lstm.weight_ih_l0 f4 [200, 4]
-0.044158064 -0.16373782 -0.04215454 -0.06973802 -0.13929845 -0.15123257 -0.2346479 0.01314183
-0.03264797 0.1445046 0.07740827 0.15291111 0.070074 0.11263279 -0.05654859 -0.061993342
-0.043035187 0.10272611 -0.051479876 -0.07397978 -0.053733252 -0.08959205 -0.14988339 0.09171653
0.05386848 0.099571034 0.053811323 0.09836044 -0.03153195 -0.12545611 0.08562618 -0.026255835
0.14026582 -0.04157138 0.09282936 0.12880446 -0.0054759993 -0.10767762 -0.014413095 0.09056887
0.08018924 0.117458716 -0.108966395 -0.0578889 -0.03615558 -0.021481823 0.024524549 0.06088265
0.14701931 0.068325676 0.09969965 -0.07696877 0.06879903 0.0024389718 0.1363057 0.053231884
0.07480918 0.076996274 0.14979522 -0.068550825 0.032550715 0.04824157 -0.09099641 0.10319929
-0.006132582 -0.06992129 -0.028699253 0.076483816 -0.018000789 0.03517161 0.0005582541 0.06359915
-0.02856382 0.14422597 -0.052484196 -0.005505757 -0.13661754 -0.16638541 0.0014282487 0.03563525
-0.018730318 -0.05150507 -0.07134987 -0.07234019 -0.027918614 -0.13896616 -0.03872252 0.08626396
-0.028872803 0.096326396 0.10845103 0.05925142 0.048873913 0.21476091 0.08322883 0.23031174
-0.07999247 -0.07496482 -0.037665002 -0.12210484 -0.036668967 -0.14147365 -0.036660254 0.011447491
-0.023718746 0.14648066 0.0150190685 -0.026123842 0.18090999 0.20956394 0.12896597 0.036155023
-0.087841325 0.10070556 -0.031441867 -0.12219867 -0.051189836 -0.16296183 -0.08607523 -0.13426295
-0.062167056 0.11732583 0.042713597 -0.041992243 -0.07081713 0.05777047 0.119190626 0.040349774
-0.01040909 0.07344634 -0.0018381595 0.15480115 0.08351989 -0.026304504 0.00536178 0.1169041
-0.20174904 -0.03231523 -0.08161362 -0.045891944 -0.051680963 0.023416245 -0.033241607 -0.053771693
-0.1279923 -0.087044664 0.07257874 0.12841733 -0.13596971 0.033726484 -0.15160766 -0.058046807
0.05162596 -0.0080359215 0.16616924 0.030633599 0.12450075 -0.020409156 0.043634392 -0.08742671
0.029754676 0.057919312 0.01465307 -0.17873901 -0.029852653 0.15595472 -0.09544291 -0.05830959
-0.08643232 -0.1701622 0.049741615 -0.13355966 0.16419347 0.15762663 0.13670535 0.16535397
-0.042017233 -0.034474466 -0.018507957 0.029946953 -0.023321442 -0.011481716 0.12301711 0.10167341
-0.04683429 -0.08856181 -0.048977394 -0.011400691 0.033081565 0.097591124 0.041239347 0.10883016
-0.034549236 0.02912434 0.043854393 0.086642936 0.04559204 0.07302454 -0.027137535 -0.09262469
-0.08682323 -0.1779796 0.033807926 -0.006299525 -0.10423402 -0.05394696 0.03633423 -0.16464908
-0.08777285 0.0025047958 0.06131953 0.1499912 0.05220417 -0.19031677 -0.0016828569 -0.00850443
-0.009226622 -0.08940804 0.014768722 -0.019143326 -0.013846414 -0.046410978 -0.13751456 -0.039373413
0.03419833 -0.022946669 0.049154617 -0.019705858 0.009330025 -0.117264 -0.09113345 -0.09573443
0.037727997 0.05263308 -0.002174749 -0.045981124 -0.07114767 0.04173523 -0.027776413 -0.14054254
0.08445629 0.1445849 0.14036818 -0.049399476 -0.049961388 0.09202329 0.11576634 -0.092022315
0.10862365 0.08440097 -0.11316196 0.031636834 0.023130927 -0.04168292 0.08408958 0.12838335
00000000: 16df 34bd e3aa 27be 3daa 2cbd cfd2 8ebd
00000010: 41a4 0ebe b6dc 1abe 8a47 70be d550 573c
00000020: e1b9 05bd 04f9 133e 3a88 9e3d bb94 1c3e
00000030: f582 8f3d 05ac e63d 7f9f 67bd bbec 7dbd
00000040: aa45 30bd 1162 d23d 90dc 52bd b682 97bd
00000050: 6617 5cbd 097c b7bd 087b 19be e0d5 bb3d
00000060: 32a5 5c3d e6eb cb3d 4369 5c3d 3371 c93d
00000070: a527 01bd 9177 00be c75c af3d 7a16 d7bc
00000080: d8a1 0f3e c046 2abd 521d be3d 51e5 033e
00000090: 0370 b3bb 1686 dcbd e724 6cbc 2c7c b93d
000000a0: 423a a43d 328e f03d c629 dfbd e91c 6dbd
000000b0: e017 14bd a6fa afbc b5e7 c83c 1660 793d
000000c0: 3b8c 163e 55ee 8b3d 552f cc3d cda1 9dbd
000000d0: 81e6 8c3d 28d7 1f3b b993 0b3e ad09 5a3d
000000e0: 8e35 993d 39b0 9d3d eb63 193e 6064 8cbd
000000f0: e653 053d f498 453d 535c babd 265a d33d
00000100: d4f3 c8bb e532 8fbd b21a ebbc 8ca3 9c3d
00000110: 6476 93bc 1b10 103d cc57 123a 4540 823d
00000120: acfe e9bc f9af 133e abf9 56bd a369 b4bb
00000130: 78e5 0bbe f060 2abe 1334 bb3a 45f6 113d
00000140: 5370 99bc fbf6 52bd e11f 92bd 1827 94bd
00000150: 94b5 e4bc 254d 0ebe 819b 1ebd 29ab b03d
00000160: a886 ecbc c646 c53d 931b de3d 9eb1 723d
00000170: 0330 483d 49ea 5b3e e073 aa3d d7d6 6b3e
00000180: 18d3 a3bd 2887 99bd 9e46 1abd 1a12 fabd
00000190: 3332 16bd 78de 10be 1029 16bd 428e 3b3c
000001a0: d14d c2bc 07ff 153e 8a12 763c ab01 d6bc
000001b0: 7840 393e ee97 563e a80f 043e 4a17 143d
000001c0: 27e6 b3bd b73e ce3d 30c9 00bd 4c43 fabd
000001d0: 6fac 51bd 77df 26be 3648 b0bd 3a7c 09be
000001e0: e2a2 7ebd 8648 f03d 74f4 2e3d 0f00 2cbd
000001f0: 9208 91bd baa0 6c3d 371a f43d ce45 253d
00000200: e38a 2abc 096b 963d 66ee f0ba 3184 1e3e
00000210: 7a0c ab3d 8b7c d7bc dfb1 af3b 6b6b ef3d
00000220: 4d97 4ebe fa5c 04bd 0b25 a7bd 31f9 3bbd
00000230: 6baf 53bd 6dd3 bf3c 5a28 08bd b53f 5cbd
00000240: 6a10 03be 7944 b2bd 2aa4 943d d57f 033e
00000250: a53b 0bbe c824 0a3d 0a3f 1bbe 7dc2 6dbd
00000260: be75 533d 19a9 03bc 4528 2a3e 50f3 fa3c
00000270: 40fa fe3d 1a31 a7bc fab9 323d c60c b3bd
00000280: 14c0 f33c cd3c 6d3d 6e13 703c 5c07 37be
00000290: 8d8d f4bc 98b2 1f3e 9377 c3bd 09d6 6ebd
000002a0: 6e03 b1bd 003f 2ebe ddbd 4b3d ddc3 08be
000002b0: 5522 283e e068 213e 7dfc 0b3e 8d52 293e
000002c0: 431a 2cbd 1935 0dbd 009e 97bc 5053 f53c
000002d0: 9c0c bfbc cf1d 3cbc 65f0 fb3d 263a d03d
000002e0: 50d5 3fbd e55f b5bd 859c 48bd f7c9 3abc
000002f0: 8980 073d dbdd c73d 97ea 283d 59e2 de3d
00000300: 8083 0dbd 2b96 ee3c aaa0 333d da71 b13d
00000310: b8be 3a3d e48d 953d 894f debc 03b2 bdbd
00000320: 61d0 b1bd 4940 36be 2e7a 0a3d 3f6c cebb
00000330: a578 d5bd 7df7 5cbd 34d3 143d c599 28be
00000340: 41c2 b3bd 8027 243b 302a 7b3d 4b97 193e
00000350: 0ad4 553d 66e2 42be 4f93 dcba 2a56 0bbc
00000360: 422b 17bc 901b b7bd 82f8 713c 77d2 9cbc
00000370: 12dc 62bc 7019 3ebd 9ed0 0cbe 0446 21bd
00000380: 8c13 0c3d a7fa bbbc 5a56 493d 2e6e a1bc
00000390: f6dc 183c 1c28 f0bd 2da4 babd 6a10 c4bd
000003a0: ac88 1a3d c995 573d 3c86 0ebb b456 3cbd
000003b0: dfb5 91bd 8ff2 2a3d 5c8b e3bc 62ea 0fbe
000003c0: 6bf7 ac3d 100e 143e adbc 0f3e 1b57 4abd
000003d0: 50a4 4cbd b576 bc3d e716 ed3d 3276 bcbd
000003e0: 1476 de3d 6ada ac3d 75c1 e7bd a095 013d
000003f0: 127d bd3c b6bb 2abd 2837 ac3d ed76 033e

lstm.weight_hh_l0 f4 [200, 50]
0.05706156 0.07858248 0.12477121 0.16169252 -0.09278243 0.17190214 -0.044845354 0.07928486
-0.070012294 0.12713976 -0.14918932 0.054123107 0.023079658 0.031237982 0.004662668 0.053464342
0.1685355 0.055770397 -0.07565383 0.002721738 -0.04757143 0.045955732 0.06026879 -0.07501575
0.0064756675 0.07231597 -0.11325408 -0.014906647 0.009678774 -0.17142774 -0.051994447 -0.02630342
0.19388583 0.21118762 -0.12459448 0.16547677 -0.10876409 0.12167522 0.2263027 -0.08814471
-0.013840324 -0.024080886 0.14146356 0.07856061 0.0126717 0.11759381 0.12262106 0.12262476
0.029248387 -0.15438287 -0.07048942 -0.0219173 -0.11550054 0.02379956 0.031023897 0.18481041
-0.030924413 -0.04906573 0.121152595 0.006787265 -0.16736667 -0.22159371 -0.044984333 -0.15830322
0.09123541 0.07798349 0.04195177 -0.14145477 0.06220549 0.004670689 -0.19127564 0.022434017
0.12870578 -0.09447055 0.014748604 0.19874321 0.007298905 -0.16577774 -0.1050462 -0.12250178
0.04993542 0.114250846 -0.062015317 0.0317401 0.019891448 0.014384456 0.14723067 0.17093334
0.003287348 0.06413602 0.011214297 0.20302643 0.10792342 0.14822358 -0.19260895 0.19988088
0.158122 -0.046689417 0.066748515 -0.17989545 0.1491322 -0.06986893 -0.11846012 -0.11142088
0.07154324 -0.115535356 0.1859925 -0.10871595 0.12731168 -0.15592985 0.12828393 0.11847438
0.06320328 0.05488919 -0.0986027 -0.17340578 0.09109166 -0.049505536 0.13875437 -0.040086053
0.07464339 -0.018300315 -0.08867065 -0.009406881 -0.068363085 -0.108165935 0.10476926 -0.10844204
0.07785017 0.17260128 -0.13980259 0.08740849 -0.10138998 -0.145151 0.1322906 -0.05259731
0.0058704475 0.08352133 -0.23492564 0.12624295 -0.07785651 -0.11937596 -0.009099172 0.19967675
0.045913607 -0.070124455 0.0379007 0.012218046 0.07839548 0.035932038 -0.16371891 0.15302315
-0.2287224 0.06753887 -0.029818878 0.094501644 -0.29563522 0.010518794 -0.18851586 0.17111507
0.024237268 0.21317151 -0.3328366 -0.09007797 0.13890465 0.052871574 -0.027413694 -0.094784275
0.005951943 0.041967325 -0.1354121 -0.03686415 0.17340834 -0.05913399 -0.15323815 0.1269949
-0.07413165 0.039060343 -0.016528836 -0.026145728 -0.21436416 0.031002529 -0.10327003 0.16940175
0.17200479 -0.051624965 0.13874698 0.1913829 0.4279271 -0.15018827 -0.19532539 0.019650232
0.086676374 -0.23345473 -0.08727297 0.20551108 0.24606618 -0.07745121 0.1541048 -0.140954
-0.0160189 0.22528689 0.11196967 0.11617139 0.09169628 0.21184863 0.013111766 0.08057968
-0.14540656 0.17689277 0.07357125 0.14414877 -0.010279148 0.03684514 0.02284821 0.10040085
0.2136915 -0.030140178 -0.15482178 -0.02173098 -0.14067489 -0.07162669 0.030928588 0.09541709
-0.25179857 0.032142807 -0.18078248 0.119148925 -0.2719115 -0.15779077 -0.072579846 0.122784555
0.1500589 -0.08151993 -0.18422656 0.15772115 0.15917574 0.07840905 0.10558147 -0.022426466
-0.16155587 0.107443124 0.19832854 0.036858704 -0.1731121 0.050112836 -0.077466495 -0.17424725
0.05594722 0.02846361 0.06003482 0.08127466 -0.010020534 0.12831028 0.055002235 0.10882897
00000000: 62b9 693d daef a03d 0c88 ff3d b992 253e
00000010: b704 bebd 1d07 303e c3af 37bd 1a60 a23d
00000020: 9b62 8fbd ed30 023e 16c5 18be 31b0 5d3d
00000030: 8d11 bd3c cce6 ff3c 4bc9 983b 6dfd 5a3d
00000040: 9294 2c3e 806f 643d 65f0 9abd 305f 323b
00000050: 43da 42bd 143c 3c3d 68dc 763d dca1 99bd
00000060: d631 d43b 651a 943d c1f1 e7bd 023b 74bc
00000070: b893 1e3c c18a 2fbe 21f8 54bd 457a d7bc
00000080: 028a 463e 9141 583e 642b ffbd be72 293e
00000090: b5bf debd dc30 f93d e5bb 673e 3785 b4bd
000000a0: 87c2 62bc 4745 c5bc d3db 103e 63e4 a03d
000000b0: f69c 4f3c 06d5 f03d c020 fb3d b122 fb3d
000000c0: 509a ef3c 8b16 1ebe c25c 90bd e98b b3bc
000000d0: 8c8b ecbd 4bf7 c23c d425 fe3c f13e 3d3e
000000e0: 3255 fdbc 26f9 48bd da1e f83d b567 de3b
000000f0: 2b62 2bbe 76e9 62be 7e41 38bd 3d1a 22be
00000100: a1d9 ba3d cfb5 9f3d 9fd5 2b3d 85d9 10be
00000110: 2fcb 7e3d 940c 993b c3dd 43be 8bc7 b73c
00000120: 73cb 033e c779 c1bd 21a4 713c 5783 4b3e
00000130: a72b ef3b a4c1 29be 7622 d7bd 37e2 fabd
00000140: 1589 4c3d 59fc e93d c603 7ebd e801 023d
00000150: 64f3 a23c c8ac 6b3c a3c3 163e 2609 2f3e
00000160: 8c70 573b bf59 833d 2cbc 373c 29e6 4f3e
00000170: f406 dd3d ecc7 173e 483b 45be 93ad 4c3e
00000180: bcea 213e 673d 3fbd 72b3 883d 8336 38be
00000190: 1db6 183e 7117 8fbd 389b f2bd a130 e4bd
000001a0: 4385 923d cd9d ecbd d174 3e3e 78a6 debd
000001b0: fe5d 023e 13ac 1fbe dd5c 033e b2a2 f23d
000001c0: b970 813d 7dd3 603d 36f0 c9bd 4991 31be
000001d0: 448e ba3d 51c6 4abd a015 0e3e 4631 24bd
000001e0: a2de 983d 8bea 95bc f598 b5bd 521f 1abc
000001f0: f201 8cbd 1a86 ddbd 4491 d63d dc16 debd
00000200: e96f 9f3d 64be 303e 6928 0fbe 3903 b33d
00000210: 8da5 cfbd 77a2 14be 3077 073e 4770 57bd
00000220: e25c c03b 3b0d ab3d 5990 70be d545 013e
00000230: 3c73 9fbd 627b f4bd b214 15bc 1078 4c3e
00000240: e80f 3c3d 699d 8fbd c43d 1b3d 332e 483c
00000250: cf8d a03d 792d 133d eea5 27be 1ab2 1c3e
00000260: 3436 6abe d251 8a3d b846 f4bc 148a c13d
00000270: 805d 97be 0557 2c3c 4d0a 41be ca38 2f3e
00000280: 3c8d c63c a249 5a3e 8f69 aabe cc7a b8bd
00000290: 053d 0e3e dd8f 583d af92 e0bc 421e c2bd
000002a0: 8408 c33b eee5 2b3d 78a9 0abe ddfe 16bd
000002b0: f591 313e 7c36 72bd 76ea 1cbe f30a 023e
000002c0: 56d2 97bd bdfd 1f3d 7b67 87bc 912f d6bc
000002d0: 4782 5bbe 04f9 fd3c 3d7f d3bd a777 2d3e
000002e0: 0622 303e b374 53bd b013 0e3e e1f9 433e
000002f0: 4319 db3e f4ca 19be 6103 48be 86f9 a03c
00000300: 6283 b13d c20e 6fbe 2cbc b2bd 7f71 523e
00000310: c6f8 7b3e bd9e 9ebd a6cd 1d3e 3f56 10be
00000320: 113a 83bc 9bb1 663e 5b50 e53d 44eb ed3d
00000330: 42cb bb3d d9ee 583e bcd2 563c f606 a53d
00000340: 75e5 14be 6123 353e 86ac 963d bc9b 133e
00000350: df69 28bc eeea 163d 2b2c bb3c f69e cd3d
00000360: f2d1 5a3e 89e8 f6bc 9a89 1ebe 2b05 b2bc
00000370: 140d 10be 04b1 92bd f35d fd3c 096a c33d
00000380: beeb 80be 2da8 033d 0b1f 39be 5a04 f43d
00000390: fc37 8bbe e793 21be bea4 94bd 7876 fb3d
000003a0: 0aa9 193e ecf3 a6bd e3a5 3cbe a781 213e
000003b0: f7fe 223e ed94 a03d 193b d83d b5b7 b7bc
000003c0: e76e 25be 240b dc3d a316 4b3e 27f9 163d
000003d0: 4c44 31be 1e43 4d3d c1a6 9ebd df6d 32be
000003e0: ea28 653d 842c e93c 12e7 753d 5473 a63d
000003f0: 2a2d 24bc c563 033e 064a 613d b9e1 de3d

lstm.bias_ih_l0 f4 [200]
0.116447896 0.0943732 -0.0948979 0.50026745 -0.0076954784 -0.024331316 0.065103546 0.21319436
0.24570951 0.5192605 0.11488398 0.022110889 0.034185704 0.006699298 0.024852687 0.41847458
0.16681424 -0.04676477 0.07125971 0.031609893 0.13107501 -0.056342684 0.0830026 -0.0060996576
-0.09671394 0.16215532 0.09757926 0.071001306 0.1357469 -0.007146666 0.09466364 0.07758132
0.15890262 0.023883585 -0.12314048 0.033821646 0.06540441 0.12242649 0.15518291 0.45482168
-0.11102326 0.025125664 0.042231895 0.13931966 0.42798775 0.40317243 0.21167932 0.70893383
-0.077537164 0.003956546 -0.18220016 -0.079126805 -0.09953086 -0.35088807 -0.06676427 -0.09540855
0.046289954 -0.09336097 0.058779836 -0.2527147 -0.1486197 -0.14483175 -0.0179951 -0.15135038
-0.25259805 -0.24938142 -0.16263828 -0.023651786 -0.21412128 -0.21081771 -0.2261306 -0.04658151
-0.16034503 -0.07197459 0.03285984 0.13557057 -0.16667269 -0.086089335 -0.053460322 -0.18714409
-0.08914605 -0.1730954 -0.16681054 -0.035951212 -0.09762921 -0.12814559 -0.036957704 0.027341723
-0.0085751405 -0.23309323 -0.058556795 -0.2002917 -0.21654913 -0.31383154 -0.23648529 -0.19836335
-0.13833708 -0.32788652 -0.09266963 -0.021460451 -0.039749335 0.102365516 -0.05560874 0.035534576
0.05172404 -0.0012005755 -0.014831108 -0.020732163 -0.12151126 0.05417868 0.06479671 0.11060942
-0.14560118 -0.041722775 0.108264565 0.05998533 0.15164134 0.03871375 -0.09094757 0.03972808
0.054128043 -0.023860833 0.086424306 0.037232816 -0.046552718 -0.013377938 -0.052433386 0.097231284
-0.036923252 -0.018117059 -0.014078097 -0.043449197 -0.1869924 0.006791189 0.14526643 -0.01356328
-0.11013657 0.07750923 0.07455151 0.013853594 -0.034302555 0.011356317 -0.04602302 -0.11623042
0.039618243 0.053184196 0.06956032 0.008706928 -0.078564666 -0.08292015 0.0066884775 -0.048613835
-0.12013154 0.4108883 -0.11689045 -0.08722017 0.08579687 0.1198748 0.30960864 0.49739397
-0.0019714271 0.07187616 -0.071033694 0.11090386 -0.009253486 0.2741156 0.026247008 -0.07151861
0.05687506 -0.08286284 -0.025473183 0.13878947 0.104553916 0.18628122 -0.028682072 0.11341834
0.18912873 0.089727394 0.088129 -0.025644762 0.30697015 0.13220952 0.013865213 -0.17051677
0.034228142 0.0708773 0.088719465 -0.056536403 0.24783953 0.2970124 -0.17299199 0.1243765
-0.09294964 0.1129399 0.35436687 0.32970172 0.10419264 0.6050646 0.15055746 0.19638751
00000000: 3c7c ee3d bc46 c13d d559 c2bd 8711 003f
00000010: 5a2a fcbb 7852 c7bc 0255 853d 9f4f 5a3e
00000020: 469b 7b3e 42ee 043f 4b48 eb3d e521 b53c
00000030: 4f06 0c3d c985 db3b dd97 cb3c 4d42 d63e
00000040: 5ad1 2a3e 6a8c 3fbd 9cf0 913d 6079 013d
00000050: 8738 063e 96c7 66bd 44fd a93d a3df c7bb
00000060: f511 c6bd 0b0c 263e a3d7 c73d 2269 913d
00000070: 3c01 0b3e 942e eabb 03df c13d f5e2 9e3d
00000080: 5eb7 223e 82a7 c33c 1331 fcbd 9188 0a3d
00000090: bff2 853d bdba fa3d 45e8 1e3e 63de e83e
000000a0: 2a60 e3bd 56d4 cd3c 5afb 2c3d d0a9 0e3e
000000b0: 3621 db3e 9e6c ce3e 77c2 583e b07c 353f
000000c0: cecb 9ebd eaa5 813b ae92 3abe 3c0d a2bd
000000d0: d6d6 cbbd 9aa7 b3be b5bb 88bd 8f65 c3bd
000000e0: 899a 3d3d 0934 bfbd 20c3 703d d263 81be
000000f0: c32f 18be c64e 14be 766a 93bc 98fb 1abe
00000100: 8854 81be d85d 7fbe a68a 26be 64c1 c1bc
00000110: 9c42 5bbe 99e0 57be c88e 67be 41cc 3ebd
00000120: 7d31 24be 6a67 93bd 0a98 063d 03d3 0a3e
00000130: 3fac 2abe 9b4f b0bd 36f9 5abd b3a2 3fbe
00000140: 3492 b6bd ec3f 31be 62d0 2abe 9441 13bd
00000150: d3f1 c7bd 9938 03be f660 17bd c0fb df3c
00000160: bf7e 0cbc feaf 6ebe 40d9 6fbd 4419 4dbe
00000170: 0ebf 5dbe 87ae a0be 3329 72be c31f 4bbe
00000180: 3ca8 0dbe bee0 a7be 93c9 bdbd d4cd afbc
00000190: 33d0 22bd 03a5 d13d fdc5 63bd b48c 113d
000001a0: 96dc 533d a15c 9dba 2dfe 72bc 7fd6 a9bc
000001b0: e5da f8bd 77ea 5d3d 23b4 843d 3187 e23d
000001c0: 7a18 15be 80e5 2abd d0b9 dd3d 2db3 753d
000001d0: de47 1b3e 4f92 1e3d b842 babd e9b9 223d
000001e0: 5eb5 5d3d cb77 c3bc 3aff b03d 7081 183d
000001f0: 10ae 3ebd 242f 5bbc 64c4 56bd 3221 c73d
00000200: d63c 17bd 3a6a 94bc d2a7 66bc c9f7 31bd
00000210: f07a 3fbe 9f88 de3b b9c0 143e 8538 5ebc
00000220: 488f e1bd 29bd 9e3d 76ae 983d 2ffa 623c
00000230: d680 0cbd d90f 3a3c a282 3cbd 370a eebd
00000240: bd46 223d acd7 593d a475 8e3d 81a7 0e3c
00000250: 83e6 a0bd 0ad2 a9bd 042b db3b 4d1f 47bd
00000260: 8607 f6bd f45f d23e 4364 efbd 7da0 b2bd
00000270: 45b6 af3d eb80 f53d 0685 9e3e 6caa fe3e
00000280: 0f33 01bb cf33 933d 1d7a 91bd 9021 e33d
00000290: ef9b 17bc e158 8c3e f703 d73c 5978 92bd
000002a0: d3f5 683d feb3 a9bd 23ad d0bc d41e 0e3e
000002b0: 5d20 d63d 81c0 3e3e aaf6 eabc e047 e83d
000002c0: f6aa 413e ffc2 b73d fa7c b43d f714 d2bc
000002d0: 312b 9d3e ef61 073e eb2a 633c f39b 2ebe
000002e0: cf32 0c3d 1e28 913d 8db2 b53d b792 67bd
000002f0: a5c9 7d3e 0212 983e d024 31be 1bb9 fe3d
00000300: 615c bebd 094d e73d 936f b53e aace a83e
00000310: f362 d53d 83e5 1a3f bc2b 1a3e cf19 493e

lstm.bias_hh_l0 f4 [200]
0.16931935 0.019933509 0.0067568095 0.3932366 0.118783645 0.1130468 -0.09779153 -0.03851471
0.109661445 0.46311617 0.18804832 -0.14745383 0.0379507 0.13887127 0.043069433 0.34021077
0.04088461 0.13565107 0.21344493 -0.0392162 -0.036336325 0.123825446 0.09059345 0.06369428
-0.12477321 0.13186862 0.24805629 0.10891569 0.35544127 0.050910126 0.12609011 -0.054780588
0.28320873 -0.060618106 -0.12922771 0.09437234 0.15502831 0.124392696 -0.0028883433 0.42718428
0.037675664 0.14424774 -0.1287407 0.0343899 0.43138888 0.32612967 0.23501052 0.6275126
0.07293318 -0.04945895 -0.18722229 -0.048941888 -0.2025991 -0.34221816 -0.027654903 -0.024781927
-0.108311296 -0.1971689 0.217299 -0.36774403 -0.1678665 -0.18797655 -0.130931 -0.17156689
-0.011780576 -0.26766932 -0.07961361 -0.038700223 -0.16454443 -0.08407618 -0.116538696 -0.106826
-0.20478407 -0.17652176 -0.036324892 0.15853044 -0.2595132 -0.23412211 -0.11197044 0.024319384
-0.101630114 -0.2258735 -0.14604546 -0.14997134 -0.09246313 -0.14691228 -0.056902215 -0.08820692
0.22355092 -0.15703584 -0.12471689 -0.1840499 -0.17778525 -0.31995472 -0.25383332 -0.2715158
-0.10737105 -0.47085246 0.007725963 -0.049868423 -0.046630453 0.09047252 -0.14144343 0.053275805
-0.11622835 -0.0014445296 0.054482058 0.06829121 -0.07278133 0.08030069 -0.14472991 -0.06731461
-0.13379355 0.019013919 -0.005949156 -0.029790733 -0.0865597 -0.095457666 0.020911176 0.053429723
-0.0504786 0.031918425 -0.0047777267 -0.1387983 0.040209487 0.10503788 0.04378084 -0.016326675
-0.041971825 0.02625047 -0.08244738 0.11868012 0.037793554 0.03140616 0.1411919 0.07100582
0.09638332 -0.048183862 -0.029001648 -0.114751145 0.022467038 -0.08524383 0.10600785 -0.06438837
-0.02739671 0.08971692 0.028128644 -0.082476124 0.07880857 -0.015089591 0.092928566 0.00920226
0.013445908 0.45162064 0.100471765 0.10308354 -0.10710373 0.057586662 0.09784524 0.33293787
0.0770307 -0.07991128 0.103552446 0.17965043 0.14787799 0.2770865 -0.060129177 0.10531596
0.076547585 0.010139011 0.025173552 0.0023106053 0.10914337 0.23302908 0.03389704 0.22830692
0.0061582006 0.16951506 0.07191812 0.05577854 0.053151503 0.16104937 0.062419567 -0.04285824
0.026849505 0.09172851 -0.029659785 0.07566011 0.014497579 0.50554615 -0.13023013 -0.03641118
-0.000996731 0.25443843 0.34419507 0.18149294 0.13679336 0.86851823 0.098116525 0.011549309
00000000: 0d62 2d3e 994b a33c 3a68 dd3b 4f56 c93e
00000010: d744 f33d 1585 e73d ed46 c8bd 9ac1 1dbd
00000020: 2e96 e03d 901d ed3e bd8f 403e 23fe 16be
00000030: 3172 1b3d 4534 0e3e 9369 303d 1b30 ae3e
00000040: 9f76 273d 1de8 0a3e 4f91 5a3e 2ba1 20bd
00000050: 66d5 14bd 3298 fd3d 0f89 b93d 2672 823d
00000060: 1989 ffbd 9108 073e 7802 7e3e 300f df3d
00000070: 66fc b53e 2387 503d c41d 013e 9c61 60bd
00000080: bc00 913e b14a 78bd 4554 04be 4946 c13d
00000090: bebf 1e3e 99c1 fe3d 5c4a 3dbb e6b7 da3e
000000a0: cc51 1a3d aeb5 133e 9ad4 03be 6cdc 0c3d
000000b0: 01df dc3e 78fa a63e 99a6 703e aaa4 203f
000000c0: fe5d 953d 7895 4abd 33b7 3fbe 4a77 48bd
000000d0: 2376 4fbe 3837 afbe 898c e2bc 7803 cbbc
000000e0: 50d2 ddbd a5e6 49be a183 5e3e f248 bcbe
000000f0: 32e5 2bbe ed7c 40be c712 06be 3baf 2fbe
00000100: 5103 41bc f40b 89be 760c a3bd 2084 1ebd
00000110: 567e 28be 2230 acbd d7ab eebd 97c7 dabd
00000120: eab2 51be 1fc2 34be 69c9 14bd ce55 223e
00000130: eade 84be b5bd 6fbe c250 e5bd 7239 c73c
00000140: 7323 d0bd 624b 67be f18c 15be 1692 19be
00000150: 4f5d bdbd 2c70 16be 4c12 69bd d4a5 b4bd
00000160: 88ea 643e 01ce 20be 926b ffbd 9477 3cbe
00000170: 560d 36be 1bd1 a3be 71f6 81be 1e04 8bbe
00000180: 5ae5 dbbd 9313 f1be 132a fd3b d542 4cbd
00000190: 93ff 3ebd a849 b93d 8cd6 10be bb37 5a3d
000001a0: 2109 eebd 5f56 bdba 9428 5f3d 43dc 8b3d
000001b0: 610e 95bd b074 a43d 1434 14be 3edc 89bd
000001c0: 2d01 09be 14c3 9b3c 23f1 c2bb b20b f4bc
000001d0: 3646 b1bd 4f7f c3bd ea4d ab3c 20d9 5a3d
000001e0: a6c2 4ebd e5bc 023d 7a8e 9cbb 2421 0ebe
000001f0: b4b2 243d 1a1e d73d 8a53 333d 85bf 85bc
00000200: a6ea 2bbd 3a0b d73c 2cda a8bd 900e f33d
00000210: 6acd 1a3d bfa3 003d 9c94 103e 806b 913d
00000220: 9e64 c53d 715c 45bd dd94 edbc a602 ebbd
00000230: cb0c b83c 5194 aebd a51a d93d 0dde 83bd
00000240: 116f e0bc 81bd b73d 0b6e e63c 3ee9 a8bd
00000250: 6366 a13d 553a 77bc 5551 be3d 13c5 163c
00000260: 3a4c 5c3c d23a e73e 24c4 cd3d 771d d33d
00000270: 3359 dbbd fedf 6b3d 1663 c83d d576 aa3e
00000280: 46c2 9d3d 86a8 a3bd 4e13 d43d 48f6 373e
00000290: 546d 173e 48de 8d3e 034a 76bd e5af d73d
000002a0: fbc4 9c3d 181e 263c c438 ce3c 866d 173b
000002b0: 8f86 df3d 2d9f 6e3e 9fd7 0a3d 4ac9 693e
000002c0: bbca c93b 5b95 2d3e cf49 933d 0a78 643d
000002d0: 64b5 593d 20ea 243e a9ab 7f3d 1f8c 2fbd
000002e0: 7ef3 db3c 28dc bb3d 14f9 f2bc b0f3 9a3d
000002f0: 4187 6d3c 796b 013f 0c5b 05be e423 15bd
00000300: bea4 82ba c145 823e 563a b03e 49d9 393e
00000310: 8f13 0c3e 3657 5e3f 51f1 c83d 5039 3d3c

lstm.weight_ih_l1 f4 [200, 50]
0.0707061 0.09830929 0.21643566 -0.13319288 0.15150313 -0.14188458 0.018986464 0.0610015
-0.00095554575 0.060951658 0.11541163 -0.08349894 0.25559145 -0.010612877 -0.15071794 -0.087933466
-0.10506663 0.06183007 -0.025942808 0.005151506 -0.137 -0.16073015 -0.09281573 0.04214758
0.026916249 0.0015583164 0.0019702045 -0.024023354 -0.01831254 0.10906379 0.13244563 -0.07873471
0.21968004 -0.019484803 -0.027532633 -0.046436686 0.011309967 -0.067800134 0.02028295 0.093096584
0.07411587 -0.08550783 0.067671575 0.3098404 0.11854055 -0.12593271 -0.016449526 0.060286283
0.057653278 0.16795312 -0.015996777 -0.07622351 0.0006323058 -0.13308033 -0.0025884055 -0.102475934
-0.007972523 0.025608612 -0.033346407 -0.04504375 -0.19103561 -0.06736519 -0.12580198 -0.03845587
0.13695526 0.0007134374 0.019672217 0.1211188 0.05743559 0.111443825 -0.110274374 -0.016946971
-0.038117263 -0.1054865 0.06792 0.045058966 0.004939476 -0.025612276 0.027320487 -0.18211186
-0.1518356 -0.09344266 -0.01010428 -0.050447505 0.08311098 0.06755793 0.07493676 -0.05313571
-0.09248766 -0.14758535 0.037730984 -0.03278604 0.05603094 -0.10391294 -0.056606445 -0.09563867
-0.01410195 0.08893319 -0.117583 -0.010707683 -0.11151908 0.079779774 0.13674821 -0.101251625
-0.046812575 -0.11064493 -0.07971808 -0.05281598 0.09244057 0.03135715 0.11631305 0.009337978
0.045385145 -0.08170384 -0.062012266 -0.19938941 0.08602444 0.12518775 0.060738888 -0.046346623
0.033415105 0.040365614 0.010148063 0.059867363 0.12706134 0.0323698 -0.0002886344 0.0806598
0.07773366 -0.08913668 0.089137696 -0.06493651 0.22141945 0.09429787 -0.074911356 0.06792661
-0.16015081 0.027650995 0.08335185 0.10341419 -0.08237465 -0.17172495 -0.0011149774 0.20089822
0.04920351 -0.031930506 -0.10282974 0.051239967 -0.08854462 0.08663327 -0.06672207 -0.12506011
0.24410662 -0.11081449 0.16999635 -0.02433526 -0.07465641 0.026961854 0.14335455 0.045070395
0.05317106 0.111856245 0.045335475 0.08000392 -0.15356232 -0.091997385 -0.1057056 0.052056123
0.14477216 -0.006686642 -0.05219459 0.022988439 -0.08616955 0.0520653 0.103636414 -0.18317877
0.11678494 -0.19306959 0.1019315 -0.11427659 0.03664477 -0.10572748 0.20488401 -0.030762682
0.021127762 -0.044100516 0.1200425 0.09983794 0.020714875 0.034492433 0.022191854 0.00032512113
-0.14191866 0.23637474 0.05491815 -0.10925707 -0.098481804 0.07798855 -0.18033525 -0.09776008
-0.14500833 -0.06908021 0.05149001 0.00789472 0.15307514 0.15391052 -0.033891205 0.08799616
-0.07310393 -0.112697296 0.106787115 -0.103209354 0.13181601 0.12303262 0.017697243 0.019311456
-0.04252111 0.0219137 -0.08601686 -0.04700543 -0.15557727 0.09511625 -0.06128722 0.15258019
0.06283462 -0.015210211 -0.03560844 -0.07243674 -0.1927879 -0.0974664 0.09033166 -0.07240682
-0.025581343 0.14060575 -0.20386107 0.12233089 -0.10449652 0.16814357 0.11893235 -0.098418936
0.010029134 0.060159083 -0.056550622 0.120716415 -0.048784595 -0.11084754 0.09272356 -0.039825343
0.06062856 -0.023841247 0.09511249 -0.12123882 0.058406655 0.07277951 -0.041022394 0.0729851
00000000: 5cce 903d 6256 c93d 4fa1 5d3e b763 08be
00000010: a323 1b3e 314a 11be 8089 9b3c b5dc 793d
00000020: 977d 7aba 72a8 793d ef5c ec3d 7e01 abbd
00000030: e2dc 823e a2e1 2dbc ce55 1abe 7616 b4bd
00000040: 2c2d d7bd 8741 7d3d 0386 d4bc f7cd a83b
00000050: ba49 0cbe 7296 24be 2c16 bebd f1a2 2c3d
00000060: 777f dc3c 6c40 cc3a 8c1e 013b a0cc c4bc
00000070: 2e04 96bc d65c df3d d49f 073e aa3f a1bd
00000080: cef3 603e 989e 9fbc 1e8c e1bc 6534 3ebd
00000090: 714d 393c ccda 8abd 6e28 a63c 6ca9 be3d
000000a0: 10ca 973d bb1e afbd 6597 8a3d 67a3 9e3e
000000b0: 63c5 f23d 81f4 00be 28c1 86bc c0ee 763d
000000c0: d825 6c3d e7fb 2b3e ac0b 83bc 121b 9cbd
000000d0: 53c1 253a 3646 08be 3da2 29bb e7de d1bd
000000e0: 2f9f 02bc 27c9 d13c 3e96 08bd cc7f 38bd
000000f0: d79e 43be c3f6 89bd 3cd2 00be e783 1dbd
00000100: 003e 0c3e f905 3b3a a127 a13c 220d f83d
00000110: 9541 6b3d a93c e43d 88d7 e1bd 60d4 8abc
00000120: d920 1cbd 4e09 d8bd a419 8b3d c08f 383d
00000130: 54db a13b d6d0 d1bc 37cf df3c 887b 3abe
00000140: cb7a 1bbe de5e bfbd 6c8c 25bc 0ba2 4ebd
00000150: 1736 aa3d d05b 8a3d 7278 993d d5a4 59bd
00000160: 2c6a bdbd 9d20 17be ce8b 1a3d a84a 06bd
00000170: b380 653d 4fd0 d4bd 29dc 67bd 35de c3bd
00000180: de0b 67bc 9b22 b63d 5bcf f0bd 476f 2fbc
00000190: 1e64 e4bd 9463 a33d b907 0c3e 035d cfbd
000001a0: 8bbe 3fbd cf99 e2bd 3c43 a3bd 9255 58bd
000001b0: 7b51 bd3d 5b70 003d 8935 ee3d 52fe 183c
000001c0: c6e5 393d 5854 a7bd 9300 7ebd bd2c 4cbe
000001d0: 952d b03d 3831 003e 57c9 783d f5d5 3dbd
000001e0: 47de 083d 6a56 253d 1044 263c 7b37 753d
000001f0: 5e1c 023e 3296 043d da53 97b9 f730 a53d
00000200: d332 9f3d 4b8d b6bd d38d b63d 6ffd 84bd
00000210: c8bb 623e 3e1f c13d 206b 99bd 1b1d 8b3d
00000220: 93fe 23be 5784 e23c 60b4 aa3d d2ca d33d
00000230: 0ab4 a8bd aad8 2fbe 6f24 92ba 43b8 4d3e
00000240: 9f89 493d 90c9 02bd 6698 d2bd 00e1 513d
00000250: e256 b5bd c96c b13d 95a5 88bd c20f 00be
00000260: 16f7 793e b5f2 e2bd 8613 2e3e bd5a c7bc
00000270: 76e5 98bd 1bdf dc3c 89cb 123e bc9b 383d
00000280: e6c9 593d e314 e53d b1b1 393d 18d9 a33d
00000290: 713f 1dbe 2069 bcbd 2d7c d8bd cd38 553d
000002a0: 273f 143e 9e1b dbbb ffc9 55bd 4052 bc3c
000002b0: a979 b0bd 6d42 553d 543f d43d 3793 3bbe
000002c0: f12c ef3d 09b4 45be 76c1 d03d d809 eabd
000002d0: d418 163d a687 d8bd 1dcd 513e 0502 fcbc
000002e0: 2114 ad3c bea2 34bd d8d8 f53d d577 cc3d
000002f0: 3eb2 a93c f047 0d3d b1cb b53c 0575 aa39
00000300: 2053 11be 380c 723e dbf1 603d 2cc2 dfbd
00000310: d4b0 c9bd 76b8 9f3d cea9 38be 7036 c8bd
00000320: 107d 14be ed79 8dbd 30e7 523d db58 013c
00000330: bbbf 1c3e b89a 1d3e 81d1 0abd 5537 b43d
00000340: 83b7 95bd d7cd e6bd 34b3 da3d 6d5f d3bd
00000350: c7fa 063e 87f8 fb3d cff9 903c 0f33 9e3c
00000360: 9e2a 2ebd 5c84 b33c 9c29 b0bd c488 40bd
00000370: a64f 1fbe 4fcc c23d 4f08 7bbd fb3d 1c3e
00000380: 70af 803d 4034 79bc 28da 11bd b759 94bd
00000390: 316a 45be 779c c7bd ceff b83d 074a 94bd
000003a0: f78f d1bc f4fa 0f3e f5c0 50be 9e88 fa3d
000003b0: 4502 d6bd d42d 2c3e ce92 f33d de8f c9bd
000003c0: 3d51 243c 5f69 763d a0a1 67bd 2b3a f73d
000003d0: 5bd2 47bd 0904 e3bd dae5 bd3d e61f 23bd
000003e0: a755 783d b84e c3bc 56ca c23d 0f4c f8bd
000003f0: d13b 6f3d 6c0d 953d 1907 28bd 3679 953d

lstm.weight_hh_l1 f4 [200, 50]
0.07438654 -0.15314564 0.057241708 0.019450046 0.12302497 -0.0077882456 -0.19667962 -0.17105691
0.03208904 0.024367198 -0.06145215 0.15127298 0.053865325 -0.02256227 -0.028940925 0.09040097
-0.07414183 -0.13197473 -0.03831702 -0.016926534 0.14647627 -0.057652894 0.06371862 -0.062451534
-0.019596202 0.02835702 0.06724992 -0.039819628 0.10732542 -0.04024972 -0.1770665 0.11210086
0.05069012 -0.042778354 0.0016387962 0.21253073 -0.062554955 -0.11322691 0.054617044 0.033772167
0.08215138 0.048870794 -0.07568656 0.08895117 -0.08533431 0.07442581 0.08754155 0.13780206
0.023878032 0.0011407534 0.1318038 0.02257262 0.061827444 0.1161368 -0.009884375 0.09554536
-0.035993412 0.0161977 0.18629102 0.0035181888 -0.012911844 -0.040715784 -0.055610288 -0.11927216
-0.0833775 -0.06055939 -0.050769325 0.043753594 -0.11836514 0.086568736 -0.09255408 -0.008871414
-0.0106469225 0.010011136 0.040358357 -0.2260129 0.10485047 0.06638519 0.021257995 0.016997863
-0.08110275 0.18966006 -0.10298793 -0.059760544 -0.004219578 0.11894637 0.08647383 0.12378787
-0.13769458 0.0026315867 0.095371276 -0.023702286 -0.04794213 -0.03653729 -0.053436905 0.1014592
-0.07979145 0.07964054 0.11470059 0.12332092 0.109936364 -0.018207258 -0.13783033 -0.15188284
-0.00924203 -0.09231833 -0.1303263 -0.11227949 -0.033742413 -0.028028574 0.013501744 0.083013564
-0.08861899 -0.16885388 0.062433276 -0.057541996 -0.09917809 -0.100348175 0.10290745 -0.07618541
0.086812824 -0.03747426 -0.12567855 -0.14114226 -0.0010337833 -0.0067210216 -0.057900038 -0.036987994
-0.04319023 0.0133100385 -0.12164677 0.032933336 0.09537945 -0.119958214 -0.015608441 0.20737866
-0.06521555 0.0007253112 -0.17581014 -0.15095793 -0.05437494 0.0056856284 0.12300513 0.15618858
0.13507172 -0.027179293 0.16611606 -0.06683723 0.09190556 0.20077342 -0.027323104 0.052316424
0.031661477 -0.14647487 0.15335974 -0.05081352 -0.11330713 -0.03485627 0.10449459 0.098003805
-0.113726795 0.13450411 0.1529768 0.07262621 0.0057940423 -0.06725086 0.033856004 -0.049795203
-0.008540074 0.118585266 0.08555352 -0.13051702 0.07136556 -0.10027888 0.04336345 -0.064309016
0.060739208 -0.1068987 0.010074001 -0.077558085 -0.059080567 -0.13307332 -0.04181455 -0.080684796
-0.023944357 -0.047235854 -0.08442513 -0.04640247 -0.113199644 -0.14622922 0.11508287 0.021915197
0.10599389 -0.084691964 0.01595516 0.12909366 0.14486516 -0.062020276 -0.03778508 -0.08893541
0.10081319 0.08872847 0.07919531 -0.045054372 0.005082006 0.13099298 -0.09900196 0.05575374
0.14064506 0.14615403 -0.15938643 0.12686372 -0.1343803 0.004728982 -0.025183406 -0.087458014
0.057903152 -0.08650991 -0.07410604 -0.010697536 -0.035241533 0.024254043 -0.035951123 -0.080641
0.13503943 0.022961868 -0.043932505 -0.08467878 0.042239107 0.001479268 0.099541746 0.051997416
0.07036793 0.013207681 -0.06343017 0.1489314 0.077860296 -0.16415481 -0.030308258 -0.060054615
0.09166693 -0.0041250456 -0.029740272 0.06131332 -0.03995904 -0.02522801 -0.053449776 -0.09447011
0.04664019 0.12695323 0.05481031 0.083747245 -0.15452826 0.08829714 -0.08826447 0.00013816256
00000000: f857 983d 36d2 1cbe 4876 6a3d b455 9f3c
00000010: 84f4 fb3d 8a34 ffbb 6266 49be 8b29 2fbe
00000020: cc6f 033d b89d c73c 40b5 7bbd 4ee7 1a3e
00000030: e3a1 5c3d 82d4 b8bc 8515 edbc 2524 b93d
00000040: acd7 97bd 6224 07be 4ff2 1cbd 84a9 8abc
00000050: e0fd 153e 7125 6cbd e87e 823d 2ecd 7fbd
00000060: 3788 a0bc fb4c e83c 53ba 893d e819 23bd
00000070: 6ecd db3d e4dc 24bd ec50 35be 2395 e53d
00000080: 71a0 4f3d 5b38 2fbd e0cc d63a a8a1 593e
00000090: d01c 80bd 83e3 e7bd 1fb6 5f3d af54 0a3d
000000a0: fc3e a83d be2c 483d 8e01 9bbd 082c b63d
000000b0: c1c3 aebd 8f6c 983d fc48 b33d fc1b 0d3e
000000c0: dd9b c33c 5585 953a 93f7 063e 37ea b83c
000000d0: c63e 7d3d 21d9 ed3d 13f2 21bc 49ad c33d
000000e0: d46d 13bd 0ab1 843c 13c3 3e3e 6a91 663b
000000f0: 338c 53bc 98c5 26bd 9dc7 63bd f644 f4bd
00000100: d3c1 aabd 1f0d 78bd 7ff3 4fbd f836 333d
00000110: 6c69 f2bd f34a b13d fe8c bdbd 6859 11bc
00000120: 6e70 2ebc bf05 243c ce4e 253d ed6f 67be
00000130: d8bb d63d f5f4 873d 3f25 ae3c 1a3f 8b3c
00000140: 3319 a6bd 3f36 423e 56eb d2bd 79c7 74bd
00000150: 6344 8abb 289a f33d 3119 b13d 7f84 fd3d
00000160: cfff 0cbe b376 2c3b 0452 c33d 4c2b c2bc
00000170: f85e 44bd 20a8 15bd a8e0 5abd d7c9 cf3d
00000180: b369 a3bd 941a a33d 25e8 ea3d ae8f fc3d
00000190: 5126 e13d 6327 95bc 6523 0dbe 2d87 1bbe
000001a0: e26b 17bc 6511 bdbd 4274 05be caf2 e5bd
000001b0: 7c35 0abd 2e9c e5bc 6b36 5d3c 0403 aa3d
000001c0: df7d b5bd 08e8 2cbe 09ba 7f3d 28b1 6bbd
000001d0: e21d cbbd 5883 cdbd 24c1 d23d 1907 9cbd
000001e0: ecca b13d 9c7e 19bd e1b1 00be 9987 10be
000001f0: 0380 87ba 043c dcbb 9728 6dbd b980 17bd
00000200: 3de8 30bd 5912 5a3c f121 f9bd 1be5 063d
00000210: 4d56 c33d a7ac f5bd 8cba 7fbc 125b 543e
00000220: bb8f 85bd d022 3e3a 9307 34be b794 1abe
00000230: 42b8 5ebd 824e ba3b 1dea fb3d e6ef 1f3e
00000240: 3e50 0a3e 1ca7 debc 541a 2a3e f5e1 88bd
00000250: fb38 bc3d 8c97 4d3e b4d4 dfbc bf49 563d
00000260: 77af 013d 82fd 15be 560a 1d3e d621 50bd
00000270: 920d e8bd 73c5 0ebd 4201 d63d 38b6 c83d
00000280: 98e9 e8bd 72bb 093e f3a5 1c3e 0dbd 943d
00000290: f3db bd3b d2ba 89bd 98ac 0a3d 0ef6 4bbd
000002a0: abeb 0bbc d5dc f23d af36 af3d 41a6 05be
000002b0: 1b28 923d 035f cdbd df9d 313d 72b4 83bd
000002c0: adc9 783d b5ed dabd 6c0d 253c c6d6 9ebd
000002d0: 77fe 71bd 5f44 08be bc45 2bbd 123e a5bd
000002e0: f526 c4bc 627a 41bd 15e7 acbd 8410 3ebd
000002f0: 37d5 e7bd 1dbd 15be 91b0 eb3d 8087 b33c
00000300: 5313 d93d fb72 adbd 65b4 823c 2131 043e
00000310: 8857 143e f908 7ebd 87c4 1abd c523 b6bd
00000320: 2577 ce3d 46b7 b53d 2731 a23d ef8a 38bd
00000330: f586 a63b 0623 063e 8ac1 cabd 095e 643d
00000340: 4205 103e 67a9 153e 3236 23be 90e8 013e
00000350: fd9a 09be 94f5 9a3b 6e4d cebc 301d b3bd
00000360: db2b 6d3d 1c2c b1bd e8c4 97bd b844 2fbc
00000370: 6d59 10bd 6ab0 c63c 7c41 13bd 1c27 a5bd
00000380: c747 0a3e 871a bc3c 92f2 33bd 116c adbd
00000390: ea02 2d3d ffe3 c13a 8bdc cb3d 3efb 543d
000003a0: 101d 903d 0765 583c ade7 81bd 7981 183e
000003b0: 3875 9f3d 3318 28be 0649 f8bc d4fb 75bd
000003c0: dfbb bb3d 642b 87bb dfa1 f3bc ad23 7b3d
000003d0: 17ac 23bd f9aa cebc 27ee 5abd 8c79 c1bd
000003e0: c909 3f3d 0700 023e c780 603d ad83 ab3d
000003f0: a83c 1ebe 22d5 b43d 01c4 b4bd bbdf 1039

lstm.bias_ih_l1 f4 [200]
0.0513794 -0.007532033 0.006058279 -0.08800911 -0.033708893 0.1026982 0.082745515 0.07613676
-0.094729185 -0.070176505 -0.012519669 -0.11998365 0.068660684 -0.10006639 0.110036984 0.02799258
0.040705066 0.041221824 -0.021698797 -0.098869346 0.13290176 0.0204203 0.09983603 0.054569114
0.07465661 -0.027735524 0.07989299 0.13790043 0.075706474 -0.00031290666 0.057194766 0.042121835
-0.06755697 0.05690758 -0.110108905 0.17935543 -0.1192896 0.09022452 -0.042332333 -0.1289307
0.04292868 -0.11201161 0.017074965 -0.071597464 0.017940244 -0.07993559 0.10837284 0.01502197
-0.03536751 0.10180231 0.05044769 -0.17115942 0.10708854 -0.060753334 0.16622673 0.07007377
0.08978625 0.02668509 0.052664403 -0.080988735 0.063748725 0.06193967 0.087865025 0.027152007
-0.076651566 0.14656454 -0.09942461 -0.05016242 -0.08113528 0.016897699 0.10180356 0.06763242
0.07417694 -0.023440188 -0.06713058 -0.0050818454 -0.03109736 0.11208352 -0.046558805 -0.12221989
0.036401723 -0.111382395 0.07758263 0.005174079 -0.1166918 -0.14832461 -0.0777634 -0.11140481
0.13382027 -0.021242518 0.053563904 0.081529446 0.056543883 0.08663159 -0.059029605 -0.09915866
0.040216107 -0.0122997025 -0.008717578 0.104122855 0.08794121 0.05686943 -0.114846125 -0.03936533
0.060614485 -0.09477331 0.056834206 0.0047079856 0.06908717 -0.07083108 -0.06447539 -0.08362448
0.046026256 -0.10684685 0.062017284 -0.05690514 -0.018948702 -0.10913888 0.038995363 0.08228712
-0.086410075 0.006770601 -0.039818954 -0.09566696 0.007739357 -0.07409652 -0.018128384 -0.039552264
-0.13435958 -0.089186266 -0.06651875 0.06863064 -0.08014791 -0.052882053 0.05182654 0.047710743
-0.12851755 0.037045233 0.07864654 -0.05349715 -0.0063309763 0.00089996285 0.08782646 0.024292089
-0.11125086 0.055446286 0.0017481456 0.025026796 0.0017177769 0.02478491 -0.10662032 0.091673635
0.044106077 -0.025887823 0.13556117 0.1100197 0.0706267 0.01812717 0.0023289 -0.049138837
-0.0631772 0.027819067 -0.03670055 -0.000883228 -0.026361048 0.07871603 0.062644616 -0.11558302
-0.13683975 -0.02743226 -0.12683868 -0.15683413 -0.15290068 0.13902713 -0.088883676 0.106887214
0.08891329 0.057994664 -0.09156823 -0.025641112 -0.14444895 0.030329404 -0.093490556 -0.13851942
-0.02649263 0.08884907 0.057632763 -0.012674867 -0.05479742 0.062200256 -0.0875559 0.005206818
-0.106249794 -0.07314385 0.008405634 0.06260816 0.11809715 -0.13637516 -0.069729045 -0.15341379
00000000: 3573 523d 46cf f6bb 8784 c63b 1f3e b4bd
00000010: 5612 0abd 6f53 d23d 7b76 a93d 97ed 9b3d
00000020: 6001 c2bd b3b8 8fbd 4c1f 4dbc fdb9 f5bd
00000030: f99d 8c3d 9cef ccbd 125b e13d b250 e53c
00000040: 5bba 263d 37d8 283d adc1 b1bc 037c cabd
00000050: 6617 083e 7948 a73c d576 cc3d dd83 5f3d
00000060: 91e5 983d 9c35 e3bc f09e a33d c535 0d3e
00000070: ff0b 9b3d 9f0d a4b9 0f45 6a3d f287 2c3d
00000080: 4f5b 8abd ec17 693d c780 e1bd f3a8 373e
00000090: 1b4e f4bd a2c7 b83d ab64 2dbd 6906 04be
000000a0: fcd5 2f3d 5866 e5bd cce0 8b3c b1a1 92bd
000000b0: 6bf7 923c 45b5 a3bd 94f2 dd3d b51e 763c
000000c0: 86dd 10bd bb7d d03d 3da2 4e3d 6a44 2fbe
000000d0: 3d51 db3d 7dd8 78bd 5737 2a3e d682 8f3d
000000e0: dae1 b73d b19a da3c a1b6 573d 6cdd a5bd
000000f0: b18e 823d 74b4 7d3d 94f2 b33d e36d de3c
00000100: 7ffb 9cbd 0415 163e 219f cbbd 1c77 4dbd
00000110: 412a a6bd 0b6d 8a3c 637e d03d de82 8a3d
00000120: 14ea 973d a305 c0bc c27b 89bd 9c85 a6bb
00000130: e4bf febc 0b8c e53d 72b4 3ebd 6c4e fabd
00000140: f919 153d 741c e4bd a4e3 9e3d 528b a93b
00000150: 1cfc eebd 68e2 17be 6b42 9fbd 3428 e4bd
00000160: 2e08 093e ca04 aebc d365 5b3d e9f8 a63d
00000170: 8f9a 673d e76b b13d 07c9 71bd b213 cbbd
00000180: a5b9 243d b184 49bc 2cd4 0ebc 5d3e d53d
00000190: 851a b43d ebef 683d 7234 ebbd 8a3d 21bd
000001a0: e546 783d 8218 c2bd fcca 683d 7245 9a3b
000001b0: 937d 8d3d e30f 91bd ac0b 84bd 5043 abbd
000001c0: 0786 3c3d 85d2 dabd d605 7e3d 5d15 69bd
000001d0: 4f3a 9bbc 3584 dfbd 9ab9 1f3d 2686 a83d
000001e0: c4f7 b0bd ebdb dd3b 3319 23bd 0aed c3bd
000001f0: 6f9a fd3b ebbf 97bd fa81 94bc 8e01 22bd
00000200: 8f95 09be 4aa7 b6bd fb3a 88bd 398e 8c3d
00000210: 9624 a4bd da9a 58bd 1148 543d 576c 433d
00000220: 1b9a 03be bebc 173d 7011 a13d d41f 5bbd
00000230: 1474 cfbb 7ceb 6b3a 5cde b33d 3400 c73c
00000240: 7ed7 e3bd a51b 633d 0822 e53a ff04 cd3c
00000250: 0727 e13a b909 cb3c c15b dabd 63bf bb3d
00000260: 93a8 343d b312 d4bc 8cd0 0a3e 0252 e13d
00000270: bba4 903d 6e7f 943c 75a0 183b ce45 49bd
00000280: 0c63 81bd d0e4 e33c 5153 16bd 6d88 67ba
00000290: 20f3 d7bc df35 a13d d24b 803d cab6 ecbd
000002a0: b81f 0cbe 9eb9 e0bc 00e2 01be 2099 20be
000002b0: ff91 1cbe 215d 0e3e a508 b6bd afe7 da3d
000002c0: 2c18 b63d d08b 6d3d 2088 bbbd 4f0d d2bc
000002d0: 6dea 13be 5f75 f83c fa77 bfbd 09d8 0dbe
000002e0: 1207 d9bc 80f6 b53d 5510 6c3d 3faa 4fbc
000002f0: 4273 60bd b2c5 7e3d 8250 b3bd f59d aa3b
00000300: 7e99 d9bd 71cc 95bd c9b7 093c b538 803d
00000310: ebdc f13d eea5 0bbe 1ace 8ebd 8118 1dbe

lstm.bias_hh_l1 f4 [200]
-0.06949522 0.16345258 -0.040041722 0.08913886 -0.021784155 0.072511315 -0.031578664 -0.001935449
0.10661503 0.16004454 0.08211635 0.097351044 0.1498724 0.03065829 0.10634814 -0.06530472
-0.11485042 -0.0728703 -0.13381006 0.1060065 0.16941199 -0.05477989 -0.04391741 -0.02865548
-0.0832595 0.10938062 0.07061754 -0.076417044 0.026179034 -0.012610188 0.16597144 0.009077998
0.15543492 0.06471843 -0.051505353 -0.016574796 -0.13432983 0.0674425 0.16927424 0.05826843
-0.10094254 0.05047686 0.10324421 0.018736355 0.15638953 -0.085905015 -0.03009022 0.02261643
-0.05730214 -0.124889486 -0.0001793419 -0.08251857 -0.15130696 -0.049545813 -0.03566249 -0.059996508
0.09462693 0.0047067576 -0.12885284 0.051205028 -0.0071013793 0.023988817 0.073218085 -0.010717541
-0.04190931 0.00956273 -0.05099405 -0.08431504 0.06549964 -0.17000738 0.09569455 0.03471494
-0.06838544 0.16828953 -0.072623245 -0.09334429 -0.066930115 0.016579803 -0.10241684 -0.013822969
-0.08488429 0.01009472 -0.14376883 -0.016598176 0.048606534 -0.1866646 0.017186077 0.01806117
0.058084406 -0.1484199 0.088103846 -0.029882364 -0.049942806 0.048273426 -0.0638629 -0.17494813
-0.02394324 -0.113151535 -0.011087688 -0.10491297 -0.010152968 0.004482205 -0.004455318 0.14129218
-0.11363651 -0.011098811 -0.02168277 -0.0036828783 0.028745301 -0.0017115055 -0.08623904 0.036483012
-0.1254035 0.13303399 -0.05114456 0.052385245 -0.03354576 -0.017065795 0.012961572 0.01889898
0.02665543 0.09493935 0.103733085 -0.024112487 -0.043772418 -0.03889697 0.052191418 0.08034528
0.070628315 0.05343953 0.108573556 0.040695395 0.15137619 0.020955803 -0.042084284 -0.14463237
0.046264663 -0.0343275 -0.05207429 0.11292078 -0.04682966 0.08914003 -0.15393049 0.009241709
-0.038680244 0.09048651 -0.04057328 -0.047541235 -0.07160975 -0.03318097 -0.040135235 0.06633805
0.037356533 0.028011631 0.15369825 0.0030861269 0.043350536 0.0961036 -0.05991149 0.024462014
0.010691322 -0.1354714 -0.10006067 0.08740639 -0.0067667 -0.027991211 0.0032621934 0.039410055
-0.022395479 0.060303677 -0.02645958 0.058445137 -0.15308198 -0.09359103 0.097853415 -0.08587084
0.09072672 0.05116493 -0.07541196 -0.06908348 -0.043367404 -0.039851103 -0.019638607 -0.12299309
-0.067069165 0.076629356 -0.012972268 0.013422601 0.03437007 -0.102178514 -0.08335632 -0.009493569
-0.1080165 0.0045429547 -0.0395496 -0.11440585 0.102875054 0.031063922 -0.079440236 0.09568384
00000000: 8353 8ebd 1d60 273e ca02 24bd 6f8e b63d
00000010: af74 b2bc d080 943d a158 01bd e4ae fdba
00000020: fb58 da3d b7e2 233e 9e2c a83d fc5f c73d
00000030: 2778 193e 1827 fb3c 0ecd d93d 7bbe 85bd
00000040: b236 ebbd 063d 95bd 8105 09be f019 d93d
00000050: 567a 2d3e e160 60bd bee2 33bd e6be eabc
00000060: f583 aabd f202 e03d ee9f 903d 8a80 9cbd
00000070: 6a75 d63c f69a 4ebc 6bf4 293e e2bb 143c
00000080: 552a 1f3e 198b 843d 47f7 52bd dec7 87bc
00000090: c28d 09be 4b1f 8a3d 3a56 2d3e e1aa 6e3d
000000a0: f6ba cebd d3c0 4e3d b371 d33d fc7c 993c
000000b0: 9424 203e f8ee afbd c47f f6bc 1746 b93c
000000c0: a6b5 6abd 0fc6 ffbd ba0d 3cb9 7fff a8bd
000000d0: 36f0 1abe 8df0 4abd d512 12bd e6be 75bd
000000e0: c4cb c13d 253b 9a3b 00f2 03be 5dbc 513d
000000f0: b0b2 e8bb 3284 c43c 5df3 953d a098 2fbc
00000100: 19a9 2bbd ffac 1c3c 23df 50bd 5dad acbd
00000110: ad24 863d 6a16 2ebe 81fb c33d 4131 0e3d
00000120: aa0d 8cbd 1754 2c3e 7fbb 94bd 4b2b bfbd
00000130: a812 89bd 5ed2 873c ecbf d1bd bc79 62bc
00000140: d1d7 adbd 5364 253c 2338 13be e6f8 87bc
00000150: a517 473d 0125 3fbe d1c9 8c3c 05f5 933c
00000160: eae9 6d3d 63fb 17be ca6f b43d dccb f4bc
00000170: d490 4cbd 5bba 453d 8dca 82bd 9a25 33be
00000180: 9d24 c4bc febb e7bd 22a9 35bc 9cdc d6bd
00000190: a258 26bc 76df 923b ebfd 91bb e6ae 103e
000001a0: 42ba e8bd cad7 35bc 11a0 b1bc 725c 71bb
000001b0: 447b eb3c 9854 e0ba 189e b0bd 366f 153d
000001c0: c669 00be 103a 083e f57c 51bd e991 563d
000001d0: 4767 09bd 91cd 8bbc c65c 543c 09d2 9a3c
000001e0: 7d5c da3c 906f c23d 0372 d43d 8d87 c5bc
000001f0: b54a 33bd 6e52 1fbd abc6 553d 118c a43d
00000200: 94a5 903d 69e3 5a3d d05b de3d 37b0 263d
00000210: 5c02 1b3e 81ab ab3c 9260 2cbd 821a 14be
00000220: 0480 3d3d fe9a 0cbd da4b 55bd 0343 e73d
00000230: 75d0 3fbd 0c8f b63d f49f 1dbe 896a 173c
00000240: 2d6f 1ebd fe50 b93d 2b30 26bd 99ba 42bd
00000250: 22a8 92bd c5e8 07bd d864 24bd 3edc 873d
00000260: 2a03 193d a678 e53c 1363 1d3e 9e40 4a3b
00000270: 5590 313d f7d1 c43d c065 75bd 9064 c83c
00000280: a82a 2f3c 04b9 0abe 9cec ccbd 1f02 b33d
00000290: 32bb ddbb d34d e5bc 86ca 553b 706c 213d
000002a0: b976 b7bc fd00 773d c3c1 d8bc 2b64 6f3d
000002b0: 86c1 1cbe a7ac bfbd 5f67 c83d 0ddd afbd
000002c0: eece b93d 5192 513d 9671 9abd a47b 8dbd
000002d0: 05a2 31bd e93a 23bd 25e1 a0bc cde3 fbbd
000002e0: 8f5b 89bd daef 9c3d a389 54bc 78ea 5b3c
000002f0: a1c7 0c3d f842 d1bd b8b6 aabd ea8a 1bbc
00000300: c137 ddbd 11dd 943b c3fe 21bd 9d4d eabd
00000310: 28b0 d23d c479 fe3c 90b1 a2bd e4f5 c33d

fc.1.weight f4 [1, 50]
0.09710749 0.14768486 -0.17314336 0.09001457 -0.09523953 -0.102411404 0.0729895 0.07580428
0.10339546 -0.08176597 -0.1420358 -0.13365076 -0.13407496 0.12699397 -0.1340361 0.07951715
-0.1470995 -0.12214185 -0.108829156 0.12371595 -0.11104831 0.13394706 0.12905176 -0.13365945
-0.08438951 -0.11742205 0.08823625 0.13624424 -0.14132006 -0.12939835 0.13054536 0.11133021
0.14729984 0.11909679 0.14868127 -0.11397367 -0.106641345 0.08627423 0.046318326 0.13100636
-0.1444155 0.14418568 -0.13009429 -0.12852578 -0.10985488 0.13141207 -0.105172634 -0.09522413
-0.12878697 -0.103063956
00000000: 4be0 c63d b33a 173e 7e4c 31be 8f59 b83d
00000010: f10c c3bd 12bd d1bd 857b 953d 463f 9b3d
00000020: 00c1 d33d eb74 a7bd d571 11be bfdb 08be
00000030: f24a 09be b50a 023e c240 09be e3d9 a23d
00000040: 40a1 16be 8225 fabd d2e1 debd ca5e fd3d
00000050: 4c6d e3bd 6b29 093e 2526 043e 06de 08be
00000060: 68d4 acbd f97a f0bd 35b5 b43d 9c83 0b3e
00000070: 35b6 10be 0081 04be afad 053e 1801 e43d
00000080: c5d5 163e 05e9 f33d e73f 183e 076b e9bd
00000090: c766 dabd 8bb0 b03d 49b8 3d3d 8826 063e
000000a0: a8e1 13be 69a5 133e 7037 05be 439c 03be
000000b0: 98fb e0bd e390 063e c064 d7bd de04 c3bd
000000c0: bbe0 03be 3213 d3bd
