trained-models/best_lstm.pt (torch, 390606 bytes, 27 tensors)

lstm.weight_ih_l0 f4 [200, 4]
000000 5c c2 8e bd 09 b7 c2 bc 2d e4 42 3b 4f 4d 05 3e
       -0.06970665 -0.023768919 0.0029738054 0.13017772
000010 de 16 f6 3d 84 1f e4 3d 0d 9c 02 3e 7d a3 5a 3e
       0.1201608 0.11138824 0.12754841 0.21351428
000020 79 d9 0e 3e 28 99 2c 3c 62 75 88 bd 08 53 33 3e
       0.13950147 0.010534562 -0.06663014 0.17512143
000030 5e 58 77 bc ed 58 eb bc ad 48 29 3d 42 49 30 3d
       -0.015096752 -0.028728927 0.041329075 0.043038614
000040 34 d6 2b 3e 58 05 6b 3d f6 d5 15 3e f0 70 cd 3d
       0.16780931 0.057378143 0.14632401 0.10031307
000050 0e 0d 50 bd a9 e8 86 3c 1f 14 a5 3c 2b 66 0b 3e
       -0.0507937 0.016468363 0.020151196 0.13613193
000060 38 34 fe 3c 59 32 f4 bd 0d 13 b4 bd db b8 ae bd
       0.03103076 -0.119236656 -0.08792696 -0.08531352
000070 bd 34 4f 3e 42 1e 39 3e 24 39 74 3c 59 6e e6 3d
       0.20234962 0.18077949 0.0149062015 0.11251516
000080 ea a2 76 bd 3d 4f 18 3e a5 69 1f 3e 2d 26 b1 3d
       -0.06021396 0.14873977 0.15567644 0.086498596
000090 a6 b1 d8 3c a0 ef d6 3d 54 a6 cc bd 87 f8 ce bd
       0.026451897 0.104949236 -0.09992662 -0.101059966
0000a0 c0 3d 01 3e 94 6b f7 3d fd f9 bb 3c 2a dc 1f 3e
       0.12621212 0.12081066 0.022946352 0.1561133
0000b0 c9 13 f0 3c 88 eb 9c 3d d2 98 85 bd e9 0b 44 3c
       0.02930631 0.076621115 -0.06523289 0.01196573
0000c0 54 a8 e9 bd c3 d5 b6 3d 70 7f 55 3d 07 9e dc 3c
       -0.11409059 0.089274906 0.052123487 0.026930822
0000d0 b2 cf bd bd b7 8e 07 3d 2a f5 83 3d ec 2e 3e 3c
       -0.0926813 0.033095088 0.06443246 0.011607867
0000e0 cf bf f1 3d 2d 87 31 3e f8 63 0d 3c 6b b6 01 3d
       0.11804163 0.17336722 0.008629791 0.031668108
0000f0 5e 4e 86 bc 57 61 1d 3e ee 29 e3 3c b3 05 53 bc
       -0.01639479 0.15369163 0.027729955 -0.012879777
000100 2b 16 50 3e 55 a8 f8 3c a4 55 39 3e cc c1 bc 3b
       0.20320956 0.030353704 0.18099076 0.005760407
000110 94 2d fd 3d e4 8b 7b bd bd 30 1d 3e 5b bc 4e bd
       0.12362209 -0.061412707 0.15350623 -0.0504726
000120 94 5a 29 bd 7a d4 c1 bc 41 4e 78 bd d1 57 49 3e
       -0.041346148 -0.023660887 -0.060621504 0.19662406
000130 10 07 a1 bd 90 4a da bd 76 c9 95 3c f7 79 0b 3d
       -0.07862675 -0.10658753 0.01828454 0.03405186
000140 81 44 d8 bd 9c 50 08 3e a0 fc 40 3d e5 72 c1 3d
       -0.10559941 0.13312 0.047115922 0.094457425
000150 03 4d 26 3d 4d 96 17 3e 44 1a f8 3d c3 dc 75 bc
       0.040600788 0.14803429 0.12114385 -0.015006247
000160 8e 1c 85 bd e0 ca 87 3c b5 2e b3 3d 51 f8 86 3d
       -0.06499587 0.01657623 0.08749143 0.06590331
000170 f2 25 eb bd b4 0c 8a bd 9c c2 b6 3c b2 b8 19 3e
       -0.11481847 -0.06740704 0.022309594 0.15011862
000180 f1 d8 3a 3e 76 e7 d0 3c d4 d0 18 3d 92 37 74 3e
       0.18246819 0.025500994 0.03730853 0.23849323
000190 27 a6 bb 3d 82 ae 7f bd 8a 74 b1 bd dc e5 f1 bb
       0.091625504 -0.062422283 -0.08664806 -0.0073821377
0001a0 3f 16 17 bd d6 cf 28 3e a8 98 ab 3d 92 49 c3 3c
       -0.03688645 0.16485533 0.08378726 0.023838792
0001b0 51 94 72 bc 57 ee 8c bd e4 6c 8d 3c cf bc 45 bd
       -0.014805869 -0.06881397 0.017263837 -0.048275765
0001c0 2b 5b e5 bc db 74 7d 3c 1c db 35 3d a5 08 07 3d
       -0.027997574 0.015469755 0.044398412 0.03296723
0001d0 69 33 15 3e f6 15 a4 3d 4a 86 10 3e a7 b1 33 3e
       0.14570393 0.08012001 0.14113727 0.17548238
0001e0 b9 42 fc ba 9e 56 37 3d 5f c9 46 3d 9f 8e 22 be
       -0.0019245959 0.04476034 0.048531886 -0.15874718
0001f0 9a b2 ed 3d 1e 01 92 3d eb 8e 47 3e 3d 8b 15 3e
       0.11606331 0.07129119 0.19488113 0.14603896
000200 af 5f 00 be b7 a4 34 3d 10 24 a5 bd 6a c4 46 3d
       -0.125365 0.044102397 -0.08063519 0.04852716
000210 0e 07 0f 3e 61 92 22 3c 8a 0b 16 3e cd 3a dd bc
       0.13967535 0.009922595 0.1465284 -0.027005577
000220 55 40 08 3c bd d3 52 3d 95 53 90 bd ba c8 14 3c
       0.008316119 0.05147146 -0.07047192 0.00908106
000230 a1 b4 82 bd 6a d6 91 3d fc 2e e9 bd 7f dd 90 bd
       -0.063821085 0.07120974 -0.11385915 -0.07073497
000240 61 6e 23 bd f6 e3 2e bd 42 68 77 3d 0e 30 b8 bd
       -0.039900187 -0.04269787 0.060402162 -0.08993541
000250 6c 11 61 3c b2 e3 a4 bd 41 4d b4 bc 25 67 f8 bd
       0.013737064 -0.08051242 -0.022009494 -0.12129048
000260 ce 36 8d bd 58 53 02 be 4a b3 18 3c 71 4d 11 bd
       -0.06895219 -0.12727106 0.00932009 -0.035474245
000270 6e 17 b4 3d 4a 65 b2 3c b9 59 2c 3d af b3 bf 3d
       0.08793531 0.021776814 0.042077754 0.09360444
000280 fb 13 1e 3e 65 b4 c1 bc d4 bb 2a bd 77 95 9d bc
       0.1543731 -0.02364559 -0.041683033 -0.01923631
000290 18 36 f8 3d 26 7d 22 bd fa 26 5b 3d 89 20 71 bd
       0.121196926 -0.039670132 0.053503968 -0.05886892
0002a0 fa da c6 3d 0f 81 f4 3c 56 1d 60 bd d5 d4 fe bd
       0.09709735 0.029846696 -0.054715477 -0.12442938
0002b0 4f 9d 2d bd 05 3f 02 be 7b 53 15 be 1b 83 d3 3d
       -0.04238635 -0.12719353 -0.14582627 0.10327741
0002c0 b3 bb 15 3e 96 af 61 bd 12 7b 2c bd 93 93 8d 3d
       0.14622383 -0.055099092 -0.042109556 0.06912913
0002d0 46 ae 8b bd 8e db e9 bd c7 cb 74 bd 5f 54 43 3d
       -0.068203494 -0.1141883 -0.05976465 0.047687884
0002e0 8e 5a 27 3e fe 79 38 3e f1 93 c3 bd b0 e5 36 3e
       0.16343138 0.18015286 -0.09549702 0.17861056
0002f0 4a 9c db bd f7 ee 94 3d 24 f9 06 3c f6 cf 1f 3e
       -0.10723169 0.072721414 0.008238111 0.15606675
000300 70 71 c0 3d 42 65 0d 3e 94 3e 1d 3e 75 be 54 bd
       0.093966365 0.13808158 0.15355903 -0.051939446
000310 8e da 16 3d 04 db 4c 3d 61 ae 4f bd 5f ea d8 3c
       0.036829524 0.050013557 -0.05070341 0.026478944
000320 c5 c1 78 bd 24 dd e9 bd 24 fb ce bd 6d 8d 96 bd
       -0.060731668 -0.11419132 -0.10106495 -0.073511936
000330 b4 a6 dc bc 9c 7c c3 3d cb 90 62 bd 56 b5 7a bc
       -0.026934959 0.09545252 -0.055313867 -0.015302023
000340 2d 28 4e 3d 5f 02 13 3e 04 ab 0a 3e 36 dc c6 3d
       0.050331283 0.14356373 0.135418 0.09709971
000350 62 09 9d bd f4 37 0d be ac 91 b7 bb c2 15 c3 3d
       -0.07667805 -0.13790876 -0.0056020822 0.09525634
000360 15 24 0c 3d c2 d4 65 bc da 04 05 be ab 4d af 3d
       0.034214098 -0.014027776 -0.12990132 0.08559736
000370 e0 77 e8 bc e5 92 91 3d 2d d0 ba 3d 00 75 b3 3d
       -0.028377473 0.07108096 0.09121738 0.0876255
000380 7d 64 3a be 1d f3 26 bd 83 b6 4d be 43 91 62 bd
       -0.18202396 -0.040759195 -0.20089154 -0.055314314
000390 e3 aa 8e bd 43 b6 9d bd 40 06 e1 bd d1 28 84 3b
       -0.06966188 -0.07700779 -0.1098752 0.004033186
0003a0 b6 68 2d be 60 1a a0 3d 12 cc d3 bd 3a 57 8b 3d
       -0.16934475 0.07817531 -0.10341658 0.068037465
0003b0 58 98 89 3c 50 b4 24 3d 80 09 e3 3d ff d7 ee bd
       0.016796276 0.040211022 0.11085796 -0.11662292
0003c0 d8 a9 1d 3e 35 30 98 3b 96 88 df 3c 20 cc ec 3d
       0.15396821 0.0046444186 0.027286809 0.11562371
0003d0 fa 35 67 be 46 36 8c bc e6 da 47 be 02 f0 37 be
       -0.22579184 -0.017115723 -0.19517097 -0.1796265
0003e0 d7 c8 b8 bd c9 20 47 bd 55 42 ad 3d ef ec 40 3d
       -0.09022682 -0.04861525 0.084599175 0.047100957
0003f0 24 9c 46 bd 7c 7d 99 bd 29 45 31 be 78 26 95 bc
       -0.04848875 -0.07494637 -0.17311539 -0.01820682

lstm.weight_hh_l0 f4 [200, 50]
000000 39 d1 9a 3d 1b 3e da 3c 30 5e 45 3d 1e 55 19 bd
       0.07559437 0.026640942 0.048185527 -0.03743469
000010 1f 89 54 bd bb 4b e7 bd 2f 5e 8e bd 66 0e 82 bd
       -0.05188858 -0.11293741 -0.06951558 -0.063504025
000020 21 9e 00 be 99 25 2c bd 13 33 34 3c df e9 1b 3e
       -0.12560321 -0.042028043 0.010998505 0.15225933
000030 81 aa 00 3c ef 87 c4 bd 48 1f 0f 3e 86 b7 05 3e
       0.007853151 -0.0959624 0.13976777 0.1305829
000040 ee 46 2a 3d be 8a 25 3e 9f 70 12 3d 5a 83 25 be
       0.04157155 0.16166207 0.035751935 -0.16163388
000050 3c df 52 3d d9 b4 d6 bb 8b 62 00 3c e0 68 cd bd
       0.051482424 -0.0065523204 0.0078359945 -0.10029769
000060 be b2 99 bd cb 81 95 bd 30 e1 99 3d c8 c6 1c 3e
       -0.075047955 -0.07300147 0.07513654 0.15310204
000070 80 44 3b 3d f8 98 83 3d 68 3a f1 bd 0a 60 7f be
       0.045719624 0.06425661 -0.11778718 -0.2493898
000080 0b c1 35 3e 19 48 d2 bc d9 12 fc bd 6a a3 33 3e
       0.17749421 -0.025669144 -0.123082824 0.17542806
000090 90 67 50 3e 44 0f 28 3e c3 f9 4b 3e e0 62 f8 bc
       0.20352006 0.16412073 0.19919495 -0.030320585
0000a0 37 89 94 bc 7c 59 62 3d 04 fa 82 3d 35 95 49 3d
       -0.018131835 0.05526112 0.06395343 0.04921456
0000b0 51 36 9f 3d 81 b3 3f be 2a f5 12 be 09 51 98 bd
       0.07774032 -0.18720819 -0.14351335 -0.07437331
0000c0 93 aa 58 3e 85 6a 6c 3e 52 8c d7 bd f5 ba 05 bc
       0.21158819 0.23087509 -0.10524811 -0.00816225
0000d0 38 c8 c7 bc b6 e1 16 bb aa 24 d6 bd c2 26 59 3c
       -0.024387464 -0.0023022718 -0.10456212 0.0132538695
0000e0 6f 9b cc 3c 11 ac ee bc 4d c7 54 3e 25 c7 3b be
       0.02497646 -0.029134782 0.20779152 -0.18337686
0000f0 94 68 4b 3e e4 c6 2a bd e2 6c c4 3c 8c 9b 5b bd
       0.19864112 -0.041693583 0.0239777 -0.053615138
000100 7b 8d e7 3d c3 2c 38 3e 4b 4c 1c 3d 67 60 03 ba
       0.11306282 0.17985825 0.038158696 -0.00050116185
000110 3f 23 76 3d 2d d8 b4 bc 60 b9 76 3c 71 55 4b be
       0.060092207 -0.022075737 0.015058845 -0.19856812
000120 d4 9d 06 3d f9 7b 5e 3e 92 75 1d 3e 0b f6 04 3e
       0.03286536 0.2172698 0.15376881 0.12984483
000130 c2 61 89 3d ed 35 74 bd e9 49 80 3c e4 13 e6 bc
       0.06708099 -0.05962174 0.015660243 -0.028085656
000140 fb 61 95 3d 40 65 68 be 98 85 07 3c 74 9d f8 bc
       0.07294079 -0.22694874 0.008271597 -0.030348517
000150 63 d3 22 3e 3a f2 9f 3d 85 1f c2 3d 84 c5 e4 bd
       0.1590095 0.07809873 0.09478668 -0.111704856
000160 32 ea 62 3e c4 36 00 3e 44 11 77 bc 3e b2 ce bc
       0.22159651 0.12520891 -0.0150798 -0.025231477
000170 f7 e1 8d 3d 40 bb cc 3d c5 82 06 3d 50 f5 eb bd
       0.06927865 0.099966526 0.032839555 -0.11521399
000180 fc 00 3d 3c b4 b4 bb 3d 10 4a 6b 3e 97 6f fd 3d
       0.011535879 0.09165326 0.22977471 0.123748
000190 da 87 10 bc a7 e5 5f 3d 67 29 9f bd 88 a6 f8 bd
       -0.008821452 0.054662373 -0.07771569 -0.12141138
0001a0 08 da 34 bc 2b 2b 03 bd b9 7b fa 39 a9 18 27 3e
       -0.011038311 -0.03202359 0.00047775896 0.16318001
0001b0 90 be 18 3e 3f 06 86 bd 66 ee 26 be c3 be 5f 3d
       0.14916444 -0.0654416 -0.1630188 0.054625284
0001c0 81 ac 1c 3c 10 e1 82 bd 79 a0 37 3d 4b ca 93 3d
       0.0095626125 -0.063905835 0.044830773 0.07216319
0001d0 0a 76 21 bd c8 12 81 bd a8 42 41 b9 a8 ec 39 be
       -0.03941921 -0.0630241 -0.00018430746 -0.18156683
0001e0 fa ad fd 3d b9 ff 95 3b 70 db ea 3c f0 a0 dd 3d
       0.12386699 0.0045776037 0.02866909 0.10821712
0001f0 ea c2 ce bd 17 30 32 3d 23 32 b4 3d 33 8d 33 bd
       -0.10095771 0.043502893 0.08798625 -0.04383583
000200 03 96 13 bd 58 be 91 3d 5f 3a 6d 3d b5 5b c0 bd
       -0.036031734 0.07116383 0.057916995 -0.09392492
000210 22 67 b2 bb c0 70 a8 3d d0 51 00 be 87 ae f8 bd
       -0.0054444233 0.0822463 -0.12531209 -0.121426634
000220 5d 08 37 bd 36 15 e9 3d c4 89 bc bc 4b 42 92 bd
       -0.04468571 0.11380999 -0.02301491 -0.07141551
000230 7d 97 e6 3d 70 02 fe bd c4 e9 0f be b1 6d 8c bc
       0.11259363 -0.12402809 -0.14054018 -0.017142149
000240 6a 04 dd 3d f2 bf 26 be c7 05 b2 bd 52 ec 5f bd
       0.107918575 -0.16284159 -0.08692508 -0.054668732
000250 85 b4 4b 3d aa e1 43 bd 27 95 be 3d 43 05 75 bd
       0.049732704 -0.047822632 0.09305792 -0.05981947
000260 c4 4c 1c bc 97 64 28 3e 8c 60 08 3d 15 c4 e1 bd
       -0.009539787 0.16444622 0.0332952 -0.11023728
000270 90 f2 9f bd 16 1b 08 be ae ec 03 3d 6f 8f 8b bd
       -0.07809937 -0.13291582 0.032208137 -0.06814467
000280 e9 d4 26 3e 89 07 be 3c 0e d3 89 bd 3a 7a c6 bd
       0.16292156 0.023196952 -0.067297086 -0.096912816
000290 45 69 b0 bb e3 cf 2a bc 11 5d d5 3c 89 42 69 3d
       -0.005383643 -0.010425541 0.026045354 0.05694822
0002a0 56 e0 3b 3d a0 ff 9a bc 1e 36 8b 3c 9c 4f 45 be
       0.04586824 -0.01892072 0.016993579 -0.1926865
0002b0 3b c2 1d 3e b2 9f 95 3d 74 98 f1 3d 26 fc 3b be
       0.15406124 0.0730585 0.11796656 -0.18357906
0002c0 a1 b8 d9 bc 1b 97 d0 3d 9e b9 91 3d 90 20 c4 bb
       -0.026577296 0.10185071 0.07115482 -0.005985327
0002d0 66 ce 8b 3c e1 65 10 be 19 f5 e3 bc 1e 2e 1b 3e
       0.017066192 -0.14101364 -0.027826833 0.15154311
0002e0 f2 88 14 3e 49 6a 39 bc c9 e2 2a bb 42 c5 b8 3d
       0.14505365 -0.011316844 -0.0026075116 0.09021999
0002f0 ea 6e 01 3e 70 c0 87 3d 1b 03 10 be 7e 3f 1b 3e
       0.12639967 0.066285014 -0.14063685 0.15160939
000300 fa c2 10 3d 40 34 0f 3e cb d2 a3 bc 2a 29 6f bd
       0.035342194 0.13984776 -0.019997975 -0.058388866
000310 b4 59 1b 3e 39 0c 38 bd ba 1a 89 3e e3 85 34 3d
       0.15170938 -0.04493353 0.26778203 0.044072997
000320 7f a9 49 bd d4 d0 bc bd 19 61 71 3c 77 0f 25 be
       -0.04923391 -0.09219518 0.014732623 -0.1611918
000330 e1 9b 98 bd 3a 79 fe bd ce 3d 7f 3c 78 3e 42 bd
       -0.074516065 -0.12425466 0.0155787 -0.047422856
000340 30 6d 22 3e 2f 1b e6 3c 3c cc 87 bd c1 da de 3d
       0.15861964 0.028089134 -0.066307515 0.10881568
000350 30 1f 0c 3e a4 aa 83 b9 14 71 a5 bc 04 37 83 bd
       0.13683772 -0.00025113404 -0.020195521 -0.06406978
000360 13 74 27 3d f5 f7 d4 bd 27 05 78 3d c7 d1 7e bc
       0.04088218 -0.103988566 0.06055179 -0.0155529445
000370 c8 a5 6b bd e3 b2 20 be b1 2d ad 3d df 54 4b 3d
       -0.05753115 -0.1569324 0.084559806 0.049641486
000380 6a 63 95 3b 95 a1 71 bd 79 50 87 bc 5a cf 94 bc
       0.00455897 -0.058991987 -0.016517865 -0.01816528
000390 39 c0 a0 bc 2d e8 8c 3d 87 0e 62 3d a0 e9 51 3d
       -0.019622909 0.068802215 0.055189636 0.051248193
0003a0 fe 74 20 3e fc fe ef bd 4e 84 3e bb a6 6a 31 bd
       0.15669629 -0.11718556 -0.002907056 -0.0433146
0003b0 d3 b4 8e 3d 63 12 ab bd 0d 90 d1 3d d5 c4 ae 3d
       0.06968083 -0.08353116 0.10232554 0.085336365
0003c0 2a 33 fa bd 50 a5 39 bc de 6a 97 bc 2f 37 69 bc
       -0.1221679 -0.0113309175 -0.018483575 -0.014234348
0003d0 4c bc 9f 3d c3 f7 75 bd 2f 61 bc bd f5 95 84 bd
       0.07799587 -0.060050737 -0.09198224 -0.064739145
0003e0 dc 0d ee 3d fc a3 0c 3e 14 72 b6 3d 31 90 08 3e
       0.11623737 0.1373443 0.089084774 0.13336255
0003f0 96 c7 ac bd ea 6b f5 3d 93 f7 9b bd ea 1f 63 bd
       -0.084365055 0.119834736 -0.076155804 -0.055450357

lstm.bias_ih_l0 f4 [200]
000000 42 c6 40 3e 9c 21 a4 3e d6 af ff bd 8b ca e4 3d
       0.1882563 0.32056892 -0.1248471 0.111714445
000010 2e 73 0e 3e 94 cc 48 bc c4 50 40 bb 96 d0 42 3e
       0.13911125 -0.0122558065 -0.0029345015 0.19024882
000020 30 e0 46 3f af c4 e9 bd d2 c2 35 3e 61 7b 1b bd
       0.7768583 -0.114144675 0.177501 -0.03795946
000030 85 13 f3 3d f5 b0 20 3e 68 fb a7 bd 85 05 6e bd
       0.118689574 0.15692504 -0.08202249 -0.058110733
000040 a2 7f 4f bd 50 6c 19 3e 7d f7 d1 3d c7 5f 1f 3e
       -0.05065883 0.14982724 0.10252283 0.1556388
000050 a1 c7 97 3c dd 1e a4 3d 7e b8 e6 bc 93 af ac 3d
       0.018527808 0.08013699 -0.028164145 0.084319256
000060 fd 51 93 3e 42 b2 3d 3e c0 72 2d bd e5 d4 35 3e
       0.2877349 0.18525031 -0.042345762 0.17756994
000070 f1 5e 8d 3e fa 49 db 3d 8e de f0 3b 33 82 1b 3e
       0.27611497 0.10707469 0.0073507493 0.15186386
000080 e2 67 2e bd ef cd 48 3e b4 73 be bc 69 38 e6 3d
       -0.04257954 0.19609807 -0.02324853 0.11241228
000090 79 fe b9 3d 8d b1 bd 3d 24 3a 48 3e 19 04 cb bb
       0.0908174 0.09262381 0.19553429 -0.006195557
0000a0 89 a7 f4 3d 78 01 7c 3e ce 44 57 3d 54 59 1a 3d
       0.11946017 0.24609935 0.05255585 0.037682846
0000b0 86 5c 60 3d e6 d9 30 bd 73 b0 79 bb 25 49 64 3b
       0.054775737 -0.043176554 -0.0038099557 0.0034833637
0000c0 e9 5f 32 3e a4 fa da 3d 4f d2 55 be 1f 10 85 be
       0.174194 0.10692337 -0.20881008 -0.25988862
0000d0 49 83 ac bc 55 83 02 be 8a 39 39 3b e5 5e b5 bd
       -0.021058695 -0.12745412 0.0028263056 -0.0885599
0000e0 44 1e 34 be f0 7a 76 bd 20 2d 18 be 7f 60 02 be
       -0.1758967 -0.060175836 -0.14860964 -0.12732123
0000f0 03 f1 37 3e 2c 1d 73 bd 2a 22 ab bd 7c a3 85 bd
       0.17963032 -0.059353992 -0.08356126 -0.06525323
000100 87 8f 55 be 83 d7 35 be f1 85 20 3d 2e 03 0c be
       -0.20855533 -0.17757992 0.039190236 -0.13673088
000110 4c 8c 82 3d a9 20 aa bd 84 b2 53 be 99 a4 9b bd
       0.06374416 -0.08307011 -0.20673567 -0.07599754
000120 17 fd 35 be ec 95 1e bc 07 d4 7d be cd d0 ee bd
       -0.17772327 -0.009679299 -0.24787913 -0.11660919
000130 b9 23 32 bc bd 97 46 be 85 4e a0 be 57 99 d2 bd
       -0.010872775 -0.19393821 -0.31309906 -0.102831535
000140 d0 a9 0b be c5 de a0 3d b8 4a 08 be 9b e2 04 be
       -0.13638997 0.0785499 -0.13309753 -0.12977068
000150 df 67 0c be ca 35 4b 3d be 65 f1 bd 6f 26 23 3d
       -0.13711499 0.049611844 -0.11786984 0.039831575
000160 90 7f 3f be a0 af 43 bd 73 2b 63 be 4a 5b 0e be
       -0.18701005 -0.04777491 -0.22184543 -0.13902012
000170 44 6e aa bd 07 c2 82 bd 2f 70 87 bd a7 e2 43 bc
       -0.08321813 -0.06384664 -0.06613194 -0.011955894
000180 d9 3c 14 be 85 ab 37 bd 14 92 fa bb 43 d6 bb bd
       -0.14476337 -0.04484131 -0.0076468084 -0.091717266
000190 da 01 91 bd e5 70 25 bd b2 38 43 bd 77 16 2b 3c
       -0.07080431 -0.040390868 -0.04766149 0.010442368
0001a0 54 ee 77 3d 72 e0 be bc ee b5 c8 bd 32 b1 cf 3d
       0.06053002 -0.023300383 -0.09800325 0.10141219
0001b0 84 6f 19 3d 8d ec e0 3c a5 0f d8 ba 1f 2c 6e 3d
       0.037459865 0.027456546 -0.0016484155 0.058147546
0001c0 57 c3 a0 3d 76 ab 04 3d 63 27 14 be 93 6f 14 3d
       0.07849758 0.03239008 -0.1446815 0.036239218
0001d0 04 ff 34 3e 16 50 07 3d 86 b0 33 3d a2 a4 80 bd
       0.17675406 0.03303536 0.043869518 -0.06281401
0001e0 d1 9a a9 3d f1 2d 43 3b a8 1f c5 3a f2 49 7f 3d
       0.08281482 0.0029782022 0.0015039342 0.06232638
0001f0 94 22 34 be 40 b3 2d 3d 1d 24 d8 3a 2c 43 aa bd
       -0.17591316 0.042407274 0.0016490255 -0.08313593
000200 64 8d e0 bc de bd 80 3d 20 8b 59 bd 13 eb 99 bd
       -0.02741117 0.06286214 -0.053111196 -0.0751554
000210 4b ac 92 bc 71 62 d0 3c 39 7b 92 3c ec c2 43 3d
       -0.017904421 0.025437566 0.017881023 0.047793314
000220 d0 66 b5 3d bb fe fd bd 2c 68 6b 3d 01 fd 6b 3c
       0.088575006 -0.124021016 0.057472393 0.014403583
000230 08 09 81 3d 11 18 5f bd 68 0b 61 3d ca cc 99 bd
       0.06300551 -0.05446631 0.05494252 -0.075097635
000240 88 a3 30 3d 27 33 5a bd 5e d9 f6 bd ba d1 80 3d
       0.043124706 -0.05327144 -0.12053178 0.06290002
000250 44 17 ff 3d a5 91 aa 3d 9e 33 5f 3e 5b 67 86 3e
       0.124556094 0.08328561 0.21797034 0.2625073
000260 1f db ec 3d 75 b3 e4 3d 92 48 8a 3e b6 f6 c5 3d
       0.115652315 0.11167041 0.27008492 0.09666197
000270 12 22 8d bd e5 3a c2 3d d2 b7 0e 3f 82 18 2d bd
       -0.06891264 0.094838895 0.5574924 -0.0422597
000280 fa d0 5f 3d ff a8 32 bd 5e bd 14 3e 26 34 df 3d
       0.054642655 -0.0436182 0.14525363 0.108986184
000290 82 15 29 3e 5f d3 90 bc b2 f0 ac 3d 3b 43 a5 3e
       0.16512111 -0.017678915 0.084443465 0.32277855
0002a0 1a fc 56 3d a7 20 32 3e 3f b2 ae 3c ad 6c 13 3e
       0.052486517 0.17395268 0.021325229 0.14396925
0002b0 40 8c d9 3b be e4 e9 bc 6f 24 ae 3e 69 81 b8 bd
       0.0066390336 -0.028551456 0.34012172 -0.09009058
0002c0 e6 68 a3 3a e0 b5 26 3e 7a 3f 41 3e 6a 40 23 3e
       0.0012467175 0.16280317 0.1887187 0.15942541
0002d0 07 97 c5 3d 7d 7d 37 3d f0 fd b3 3d 01 6f 38 3e
       0.09647947 0.04479741 0.08788669 0.18011095
0002e0 70 f7 32 3e 4d c5 8f 3d fe 58 e7 bc 58 4b 35 3d
       0.17477202 0.07020054 -0.028240677 0.044261307
0002f0 82 ed 62 3b fe 96 62 bd 75 ed 2f bd 95 20 cd 3d
       0.003462643 -0.05531978 -0.042951066 0.1001598
000300 5a 70 13 3e b6 d0 60 3e e0 a2 0e bd 13 40 59 3e
       0.14398327 0.21954617 -0.0348233 0.21215849
000310 e7 fd 06 bd c3 77 15 3e 6a d3 93 3d 56 c7 ac 3b
       -0.032956984 0.14596467 0.072180584 0.005272786

lstm.bias_hh_l0 f4 [200]
000000 64 fd 9b 3d 61 c5 9e 3e 5e 81 ca 3c 50 ab 5e 3e
       0.0761669 0.31009963 0.02471989 0.21745038
000010 af 5b 96 3d ec 92 8d 3d b8 94 70 3d 5c 0e 1a 3e
       0.07341706 0.06912789 0.05873558 0.1504454
000020 16 82 3c 3f 1b d5 e0 bd aa f6 4c 3e 48 00 92 bd
       0.73635995 -0.10978147 0.2001597 -0.0712896
000030 6d 02 89 3d 5b 4d 60 3d 99 7e ee 3d 3a 89 86 3d
       0.06689916 0.054761272 0.1164524 0.06569143
000040 69 11 5a bc 23 e6 aa 3e 67 fa bf 3d 3c 57 63 bb
       -0.013309815 0.33378705 0.09373932 -0.0034689447
000050 0a 9d 5b 3d b0 fa c3 bc cb c0 d5 3b 7d 44 86 3d
       0.05361656 -0.023923248 0.006523227 0.06556032
000060 f4 d2 a4 3e 6f db 2f 3d d4 0b 82 bd 51 10 57 3e
       0.32192194 0.042933878 -0.06349912 0.21002318
000070 d3 02 76 3e e1 71 34 3e bc a0 9e 3d a3 54 80 bc
       0.24024515 0.17621566 0.077455014 -0.015665358
000080 82 52 c0 3d 01 ee 3f 3e dc e1 49 3d a4 e6 7c 3e
       0.09390737 0.18743135 0.049287662 0.24697357
000090 74 f4 dc bd f9 5e c0 3d 0c ce fc 3d 80 6f 90 bd
       -0.10788813 0.093931146 0.12343988 -0.07052517
0000a0 7c ed 66 3e 25 6d 26 3e 6b b6 c1 bc 8f 53 21 3e
       0.2255153 0.16252573 -0.023646554 0.15754531
0000b0 7c a9 2e 3c ba 97 b1 3c 6e f8 34 3e a1 61 e1 3d
       0.010660525 0.021678794 0.17672893 0.11004949
0000c0 a5 50 35 bc 75 ec e9 bd fc 7c 7d be fa 72 3a be
       -0.01106659 -0.11422054 -0.24754709 -0.18207923
0000d0 2f 64 70 bc 7a 8c 76 bd 1f 4f 72 be fa 88 6c be
       -0.014672323 -0.060192563 -0.23662995 -0.23099127
0000e0 a4 97 01 3d a3 d7 0b bd 01 78 60 be 9d 9a 0c bc
       0.031638756 -0.034141194 -0.21920778 -0.008581785
0000f0 bd 36 d9 3d 3e f1 1f be 4e 53 37 be 3b 15 b7 bd
       0.106061436 -0.1561937 -0.17902872 -0.08939596
000100 a4 95 75 be eb c5 46 bd 5c b7 3a be 50 92 70 3b
       -0.23982865 -0.048528593 -0.18234009 0.0036708303
000110 10 00 3e bd 39 40 2c be 18 59 08 3d 2e 16 53 3d
       -0.04638678 -0.16821374 0.03328809 0.051534824
000120 2e e2 54 be 87 ba a1 3d 3b 80 00 be 59 d5 0f be
       -0.20789406 0.078969054 -0.12548916 -0.1404623
000130 a0 51 0f 3d 2c 14 58 be 51 57 98 be 26 fc 18 be
       0.034989953 -0.21101445 -0.29754117 -0.14939937
000140 51 ae 82 bc 3d bd 47 3d 5d fa 1b be 7e 6f a0 bd
       -0.015952261 0.048764456 -0.15232225 -0.078337654
000150 42 33 03 be 41 5c dc bd 33 54 70 b9 10 82 21 bd
       -0.12812522 -0.107597835 -0.0002291955 -0.039430678
000160 95 77 4f be 64 91 c2 3c 22 d4 56 3d 62 ee e7 bd
       -0.2026046 0.023750968 0.0524484 -0.11324765
000170 f2 b6 45 bd 59 3e ee bc 3e ba 07 be 7f b8 ff bb
       -0.048270173 -0.029082464 -0.1325464 -0.007803976
000180 b4 c7 61 be 55 bc 2e be 10 b1 be bd 1a 01 24 be
       -0.22048837 -0.1706403 -0.09311116 -0.16016045
000190 12 34 e8 3d c0 7b 19 3e 93 30 25 3e ea 18 7a bd
       0.113380566 0.14988613 0.16131811 -0.061058916
0001a0 2e ab 59 bd e1 77 d2 bc 95 84 78 bd 37 70 dc bd
       -0.053141765 -0.025691928 -0.060673315 -0.10763591
0001b0 72 0b 96 bd eb 88 8f bd 3a 47 6e 3d b7 12 8c bd
       -0.07326402 -0.07008537 0.058173396 -0.06839507
0001c0 be 93 21 bd f9 cb a5 bd 59 54 2b 3d 47 74 3d bd
       -0.03944754 -0.08095545 0.041828487 -0.04625347
0001d0 d7 ac cd bc 85 d3 8e 3c 24 48 b3 bc 9e 45 f9 bc
       -0.02510683 0.017434845 -0.021884985 -0.030428704
0001e0 ad 67 85 bd 66 9f 54 bb 3b 82 4f 3d a9 41 bf 3d
       -0.06513915 -0.0032443642 0.050661307 0.093386956
0001f0 c5 57 5c 3d bd ba 5e bd 53 0f be bd a1 0d c9 3d
       0.05379464 -0.054377306 -0.092802666 0.09817053
000200 24 e8 e9 bd e2 cf f1 38 39 b6 1e bd 04 7a ba bd
       -0.114212304 0.00011530497 -0.038748 -0.09105304
000210 a0 6b c2 3d 8b 68 3f bd bd 0d 0c bc 8a 87 b4 bc
       0.09493184 -0.04673056 -0.008548197 -0.022037286
000220 58 cc ec bd 7d 34 ac bd 5a 9d 46 3d fa ab 7c 3d
       -0.11562413 -0.08408449 0.048489906 0.061687447
000230 bc e3 b1 bd b3 ba d4 3d 77 c3 b5 bc 0a ca d9 3d
       -0.08686015 0.103871725 -0.022187931 0.10634239
000240 6b d2 01 be 19 d9 b9 bd 1b b8 97 3c b9 ac 92 3d
       -0.12677924 -0.09074611 0.018520406 0.071618505
000250 16 db 8c 3c ac 99 8f 3d 6e 34 d4 3d 25 1f 51 3e
       0.017194312 0.070117325 0.10361563 0.20422037
000260 a4 54 12 3d 58 9c 47 3e bb 26 b3 3d 7b 03 66 3e
       0.03572525 0.19493234 0.087476216 0.22462265
000270 7b bb 2b 3c f4 8e 39 3d 2b 7d 13 3f c6 c1 41 3d
       0.010481711 0.045302346 0.57612866 0.047303937
000280 9d 24 2f 3e 83 81 ce ba 9e 6b a6 bd 54 85 ce 3d
       0.1710381 -0.001575515 -0.08125995 0.10084024
000290 0c 10 9e bd 9a 74 39 3e bb e1 f7 3d 67 77 b1 3e
       -0.077179044 0.18110886 0.121036015 0.3466141
0002a0 aa 5f ae 3d f1 ea a1 bd 4b 56 19 bd 45 3f 88 bd
       0.0851434 -0.0790614 -0.03743581 -0.06652693
0002b0 94 86 75 bd 9b be 12 3d cf 6f b6 3e 3b 0f 8c 3d
       -0.059942797 0.035826307 0.35632178 0.068388425
0002c0 3d a4 6a 3d 94 3b 26 3e 57 42 80 3e 81 5e 93 3d
       0.057285536 0.16233665 0.25050613 0.071957596
0002d0 78 8e d2 3d 16 1f bf 3d f8 e0 f5 3c 40 39 15 3d
       0.1028108 0.09332101 0.0300145 0.03643155
0002e0 f4 8b 51 3e ba a5 03 3d 50 fd ca 3d 51 cb 11 3e
       0.20463544 0.03214047 0.09911597 0.14237715
0002f0 df 98 12 3e 07 a1 83 3c 1e 55 90 3d d4 32 96 3e
       0.14316128 0.016067995 0.07047485 0.29335654
000300 5f 6b 64 bd 94 c1 be 3d ef 69 a1 3d d1 f1 af bc
       -0.05576646 0.09314266 0.07881533 -0.021477612
000310 3f 00 73 3e 38 cd 96 3d ca 86 f6 3c 1e 32 a8 bd
       0.23730563 0.07363361 0.03009357 -0.08212684

lstm.weight_ih_l1 f4 [200, 50]
000000 c9 66 ca 3d 46 21 73 3d 5a 7c b2 3d f9 14 bb 3d
       0.09882886 0.059357904 0.087151244 0.091348596
000010 a5 4e 93 3d b5 67 e8 3d bb b1 a7 3d eb 72 99 be
       0.07192735 0.113479055 0.08188196 -0.29970488
000020 29 be 2f 3c ec 37 18 be f6 db e0 bc 6b 99 ca bd
       0.01072649 -0.14865083 -0.027448636 -0.098925434
000030 76 a0 d8 3d 0d 14 d4 3d 6c 02 c4 3d f3 7e 72 3d
       0.105774805 0.10355387 0.095707744 0.0592031
000040 af a5 29 be 13 7c c7 bc 04 02 72 3d d1 4e 2f 3c
       -0.1656711 -0.024351155 0.059083953 0.010699944
000050 87 7d af bc f3 29 8d 3d 6e 3d 70 3c 9c e2 6b bc
       -0.02142216 0.06892767 0.0146630835 -0.01439729
000060 b0 e1 30 bd da 53 73 bd 82 c3 cb bd 96 0b 85 3e
       -0.043183982 -0.05940614 -0.099493995 0.25985402
000070 4b 6b d7 3d 5a 9c ec bd f8 71 9b bc 5a 4b 4d 3d
       0.105185114 -0.11553259 -0.018975243 0.05012069
000080 d7 88 9a 3d 33 76 62 bc f0 61 39 bd ad d4 ba bc
       0.075456314 -0.013822126 -0.045259416 -0.02280649
000090 47 57 8a 3d 41 2b f4 3d 1d 5c 1c 3e 53 ab 19 be
       0.06754928 0.119223125 0.15269513 -0.15006761
0000a0 a5 08 df bd b8 33 98 3d 32 7c ce 3d 62 a0 9c bd
       -0.10890321 0.074317396 0.10082282 -0.07647778
0000b0 2b dd 12 be b0 e4 2a 3d 14 47 cc 3d 4b 2b 94 bd
       -0.14342181 0.041722 0.099744946 -0.0723482
0000c0 18 77 89 3d 8d a3 f6 3c 28 3f ba bd 21 96 ac bd
       0.067121685 0.030107284 -0.09094077 -0.08427072
0000d0 50 83 b5 3c 73 3a c6 bd dc 4d ba bc 5d 1f 8e bd
       0.022157341 -0.09679117 -0.022742204 -0.06939576
0000e0 56 6b 2d 3c a6 93 54 bd f7 f1 4d 3c 17 d3 a0 bd
       0.010584673 -0.05189862 0.012569896 -0.07852762
0000f0 a9 e2 e9 3d 33 82 b9 bd 7e 77 9f bd b6 78 9b bc
       0.11420185 -0.09058037 -0.07786463 -0.018978458
000100 8e 32 33 3d 67 8b d6 3d 2f 86 b3 bd 85 0a 69 be
       0.043749385 0.10475808 -0.08765828 -0.22757919
000110 6e 92 9c 3d 69 68 19 3e 26 98 0e 3e 97 60 60 bd
       0.07645117 0.14981236 0.13925228 -0.054779615
000120 94 86 b0 3d 5b 42 f4 3c 69 d5 20 3e e9 a5 b3 bc
       0.08619419 0.029816797 0.1570641 -0.021929698
000130 2b cb 0f 3e 54 d0 00 be 79 9a 74 3e 18 0d 7e bd
       0.14042346 -0.12579471 0.23887052 -0.062024206
000140 ef ed 2e 3e 94 28 e1 3d e2 02 26 be ef a7 95 3d
       0.17082952 0.10994068 -0.16212037 0.073074214
000150 dd ef 44 bc 33 df 0f be fd 93 ba bc e8 c8 09 3d
       -0.0120200785 -0.14049987 -0.022775644 0.033638865
000160 e9 18 4b 3b ff 7a 1d 3d da b7 4d 3e 1a 94 f8 bd
       0.003099019 0.038447376 0.20089665 -0.12137623
000170 33 db 5f bd a9 8e f0 bd f1 18 19 3e 36 b6 21 3e
       -0.054652404 -0.1174596 0.1495092 0.15792164
000180 25 75 20 3e 14 62 e8 3d 3f d9 8f bd e1 7a 83 bc
       0.15669687 0.11346832 -0.07023858 -0.016049804
000190 a3 26 17 3d 23 49 81 3d c5 05 15 be 6d 21 ee bc
       0.03690208 0.06312778 -0.14552982 -0.029068673
0001a0 6d 65 96 bd 49 92 d4 3d bd 66 96 3b 1d 79 87 bd
       -0.07343564 0.10379464 0.004589884 -0.066148974
0001b0 c6 33 00 bd 15 2a a8 bd 39 be 11 bd cf 0c 13 3c
       -0.031299375 -0.082111515 -0.0355818 0.008975222
0001c0 6f df ce bd 5b b9 55 3c 44 12 50 3d 84 7c 4e bd
       -0.1010121 0.0130446805 0.05079867 -0.050411716
0001d0 d9 7e 7f bd 16 48 1f be 28 6e f4 3c 16 89 8f bc
       -0.06237683 -0.15554842 0.029837683 -0.017521422
0001e0 0a 5a 1b be 96 fa 89 3d ef 3e c8 bd 9a f6 07 3e
       -0.15171066 0.067372486 -0.09777629 0.13277665
0001f0 26 df 0f 3e 08 85 80 3d 51 b7 84 3d ce cf da bd
       0.14049968 0.06275374 0.06480277 -0.10684167
000200 26 be be 3d 5a 31 c7 bd ba 58 1f bd e2 14 09 bc
       0.09313612 -0.0972621 -0.038902976 -0.008366795
000210 1d 52 c6 3c 7d f1 cb bd 01 86 f1 3b 01 02 c7 3d
       0.024209077 -0.099581696 0.007370711 0.09717179
000220 fb 5e c0 3d 7d 3a 1a 3e 9e 9a 7b 3d 99 d9 96 bd
       0.09393116 0.15061374 0.06142675 -0.07365722
000230 3f 78 1b 3d 81 c8 6b 3d 0b 1b 37 bd 46 27 25 3e
       0.037956472 0.057564262 -0.044703525 0.16128263
000240 1f 0c 10 3e 58 2d 5c bc 9e f0 9b 3c 15 50 d8 3d
       0.14067124 -0.013438545 0.019035634 0.105621494
000250 b7 5d 9f 3c ee d3 ec 3c 9a 26 80 3c 56 16 f2 bb
       0.019453866 0.02890965 0.015643407 -0.0073879166
000260 55 a1 96 3c 77 0f ee 3d df 47 cd bd 54 1f 1b 3e
       0.018387476 0.116240434 -0.10023474 0.1514867
000270 1c 84 05 be bc 74 3c bc 06 ef a4 3d 77 35 85 bd
       -0.13038677 -0.011502441 0.080534026 -0.06504338
000280 73 51 a6 bd cc 99 11 bd 9e 4f 88 bd 8e 53 31 3e
       -0.08121004 -0.035547063 -0.06655811 0.1731703
000290 d9 2e 7a 3d 19 08 4f 3d c0 15 54 be 15 a7 a8 3b
       0.061079834 0.050544832 -0.20711422 0.005146871
0002a0 99 f4 86 3d bd cf 4e 3d 00 df 69 b8 38 73 ca bd
       0.06589622 0.050491083 -5.5759214e-05 -0.098852575
0002b0 dc 2d 31 bd 8c ad 42 bd 7e e8 13 3e f5 8d 0f bd
       -0.043256626 -0.04752879 0.14444157 -0.03504749
0002c0 70 24 b2 bd 70 13 ad bd 0a 45 8e bc 5f 35 0b bc
       -0.08698356 -0.08450973 -0.017366905 -0.008496611
0002d0 aa ee df 3c 67 f0 db bd d8 b6 0e bb 34 63 d2 3c
       0.027335484 -0.107392125 -0.0021776464 0.02568207
0002e0 fe 52 a9 bd 1c 67 88 3d be 88 d7 3d 1e ee 58 3d
       -0.08267783 0.066602916 0.105241284 0.05296146
0002f0 19 e0 3a b8 32 9f 99 bd 07 b8 de 3c 4d e7 db bd
       -4.4554563e-05 -0.07501067 0.02718736 -0.107374765
000300 a4 21 0e bd e3 be 0a 3d e2 60 15 3e 7f 1b 4a bd
       -0.03470005 0.03387345 0.14587739 -0.04934263
000310 f8 63 62 3e ee 9f e7 3d dd b3 a7 3c f1 64 a0 bd
       0.22108448 0.11309801 0.020471508 -0.07831753
000320 23 c9 d7 bc 55 8f 21 be 89 06 e7 3c 4e 01 7a 3d
       -0.026341027 -0.15777333 0.028201358 0.0610364
000330 24 3d c0 3d 1c 6b 9e bd 72 e1 51 bd aa 8d 61 bc
       0.09386662 -0.07735273 -0.051240392 -0.0137666855
000340 ce 0e 39 bd ed d8 4d 3d f6 c2 32 3e 0b 9e 03 bd
       -0.045180134 0.050255705 0.17457184 -0.032133143
000350 03 9d ce bc 5c ff cf 3c e8 c8 78 3d 2a ec 0a be
       -0.025221353 0.02539032 0.060738474 -0.13566652
000360 ba 95 d4 3c 38 7f 77 3c 9c f8 99 3d bf 74 d5 3d
       0.025950301 0.015106015 0.075181216 0.10422658
000370 8a ce b9 bb 48 76 84 bd 99 b3 a1 bc 70 d6 c2 3d
       -0.0056703733 -0.06467873 -0.01973896 0.09513557
000380 11 fa 78 bd 7f 49 e6 bd 20 c9 61 3d 42 88 d6 3c
       -0.060785357 -0.11244487 0.05512345 0.02618802
000390 ab c2 d0 bd 26 da 9b bb 38 ed 0e 3e db 7b 1e bd
       -0.1019338 -0.00475623 0.1395768 -0.038692337
0003a0 b9 78 d6 3d 95 cc 8f bd 3e fb 12 be 6f 26 1c 3e
       0.10472245 -0.07021443 -0.14353654 0.15249036
0003b0 79 10 b5 3d d1 69 59 3d 78 25 cc 3d 84 53 3f be
       0.088410325 0.05307943 0.09968084 -0.18684202
0003c0 ff 04 cb bd 15 52 aa bc 9c 86 25 3d 70 20 92 bd
       -0.09913062 -0.020791093 0.040411577 -0.07135093
0003d0 52 96 0d bd 52 00 1a 3d 55 98 17 bd 87 7f a1 bc
       -0.034567185 0.03759796 -0.03701051 -0.01971413
0003e0 2b 9e 99 bc db 62 50 bd e9 3e f3 3d 2e 3d 39 be
       -0.018752178 -0.050875526 0.118772335 -0.18089744
0003f0 2c 59 7e bd 18 3a 30 bd 9a 2f 73 be d4 87 a2 3d
       -0.06209676 -0.043024153 -0.23748627 0.079360634

lstm.weight_hh_l1 f4 [200, 50]
000000 43 1e cf bd 48 48 b7 3c b7 85 db 3d 60 2e 2e 3d
       -0.10113194 0.022373334 0.107188635 0.042524695
000010 2b 32 84 bb 85 ea 10 3c 40 af b9 bd be b0 8b bd
       -0.004034301 0.008844976 -0.090666294 -0.0682082
000020 54 b8 a5 3d ea 6f da bd 4f 23 8f bc df 1d 03 bd
       0.080917984 -0.10665877 -0.017472891 -0.03201091
000030 de 8b 98 bd 8f 46 8c 3d 0f a6 83 3b 5a c7 1a 3e
       -0.074485525 0.068493955 0.0040175985 0.15115109
000040 10 24 90 bd e5 75 02 3e 08 fa 61 bb a1 f7 48 bd
       -0.070381284 0.12740286 -0.0034481306 -0.049064282
000050 7a 3d d5 bd db ce 70 bc 97 00 31 be 9a d8 cc 3d
       -0.10412116 -0.014697756 -0.17285381 0.10002251
000060 9a f2 7b 3d 9c 74 ea 3d 0d 95 98 bd ef bc e1 bc
       0.06151066 0.11448023 -0.07450304 -0.02755591
000070 b6 0b 2f be 18 72 c0 bb 42 46 94 3d e0 0a f6 3d
       -0.17094311 -0.005872976 0.07239963 0.12013793
000080 26 1b ed bd f7 65 32 be 46 93 11 3a 87 89 ea bd
       -0.11577444 -0.17421709 0.00055532565 -0.114520125
000090 3f 1d 27 3d e0 43 3c 3e db 30 00 3d 00 9b bf bd
       0.040799376 0.18385267 0.031296592 -0.09355736
0000a0 ef 51 92 bc b2 3f 59 bd 77 d6 20 be 4e 5a 3f be
       -0.017861335 -0.05303926 -0.15706812 -0.18686792
0000b0 e6 cf 0a bd 2d 64 70 bd 10 6b 03 3e 40 b8 22 3c
       -0.033889674 -0.058689285 0.1283381 0.009931624
0000c0 de e2 33 3e b8 01 16 be 3a 16 32 3e d2 a4 56 bd
       0.17567012 -0.14649093 0.17391291 -0.05240328
0000d0 7a 2b 32 3d 7b a4 01 be 1a 3e 0a bd 40 4f f2 3b
       0.043498494 -0.126604 -0.03375063 0.0073947012
0000e0 e1 c7 c0 bd fc cb eb 3d e0 b9 4e be 84 12 cc bd
       -0.09413124 0.11513516 -0.20188093 -0.09964469
0000f0 87 0c b5 bd 40 26 34 bd cd 0f 03 3e db 74 5e b9
       -0.0884028 -0.04398179 0.12798996 -0.00021215102
000100 b5 1f 07 3e d4 1d 98 bc 97 0b ff bc a2 8c 08 3d
       0.13195689 -0.01856891 -0.031133456 0.033337243
000110 41 74 13 bd 30 18 9f 3c 40 e1 a2 3d 9c f1 d0 3c
       -0.03599954 0.019420713 0.07953119 0.025505833
000120 dd bb ad 3d d2 35 46 3d de c7 f9 bb d1 de d9 bd
       0.08483098 0.04839117 -0.007622703 -0.10638202
000130 88 6d d8 bc 4c 82 3b 3d 7b 27 c4 bd 06 4d 65 3e
       -0.026419416 0.045778558 -0.09577843 0.22392663
000140 81 aa 7e bc 13 b0 b9 bd 8e 18 4b bd 74 e6 ab 3d
       -0.015543581 -0.090667866 -0.049583964 0.08393565
000150 94 a0 ca bd 4c 5c da 3c 36 86 d6 bc 70 78 26 3c
       -0.09893909 0.026655339 -0.026187044 0.0101605505
000160 f7 ea dd bc 18 69 58 bd 64 88 64 3e 7f 5f 31 be
       -0.027089579 -0.0528346 0.22317654 -0.17321585
000170 07 5c d9 bb d8 a6 63 3d bb c4 eb bd 8c 52 0f be
       -0.006633285 0.055579036 -0.11512133 -0.13996333
000180 48 14 a2 3d f6 c3 41 3d 1c 3f 25 bd c2 44 f3 bd
       0.079140246 0.047306024 -0.04034339 -0.11878349
000190 73 d7 c3 3d 83 08 81 3d 09 b2 8f bc d6 93 89 bd
       0.09562578 0.063004516 -0.017540948 -0.067176506
0001a0 a0 62 44 3d f5 a8 4b 3d 7e 91 b8 bd 8f 17 b0 3b
       0.04794562 0.049721677 -0.090121254 0.005373902
0001b0 7d 3a c7 3b d6 50 56 3c 99 65 04 3e 45 b7 84 3d
       0.0060799704 0.013080796 0.12929381 0.064802684
0001c0 3d fd b8 3d 7d c0 ab bd ce 3c 24 3d 2c 85 75 3d
       0.09032676 -0.083863236 0.04009705 0.059941456
0001d0 02 ed 06 be 00 90 b5 3c 84 24 59 bd ba 0b f4 bd
       -0.13176349 0.022163391 -0.05301334 -0.11916299
0001e0 fe 15 c2 3d 8e a1 bf bd 51 7d 0f be 98 1a ad 3d
       0.09476851 -0.09356986 -0.14012648 0.08452338
0001f0 47 f1 6d bd 4a 9d 93 3d f0 d4 e8 bd 89 58 b6 3d
       -0.058091428 0.07207735 -0.113687396 0.089036055
000200 f5 e5 2a be c3 f5 01 3e a4 e9 16 be ce b1 fb 3c
       -0.16689284 0.12691407 -0.14737564 0.030724432
000210 d5 57 d9 bb 72 3b ad bb f2 d8 07 be 87 cc 18 3e
       -0.006632785 -0.0052866274 -0.13266352 0.14921771
000220 5a af 7a bc a7 4d 2b 3d 48 46 cb bb c2 ec bc bc
       -0.015300596 0.041822102 -0.0062034465 -0.023062114
000230 82 ad 00 3e da 37 c5 3c e4 bf 5c bc a7 22 e5 3c
       0.12566188 0.024074484 -0.013473485 0.027970625
000240 ad 31 bf 3d 69 b0 06 be b9 2a da bd 54 07 a6 3d
       0.09335647 -0.13153233 -0.1065268 0.081068665
000250 57 ef d6 bd e4 36 f6 bd 04 b1 f5 3d fb 4a 95 3d
       -0.10494869 -0.12022188 0.11996654 0.07289692
000260 8a 73 aa 3d 3f 82 0a be 4a f3 3e 3d 64 19 27 3e
       0.083228186 -0.13526247 0.046618737 0.1631828
000270 4f 8c 46 bd f3 00 da 3d c5 19 25 3d 18 49 19 be
       -0.048473652 0.10644712 0.04030778 -0.1496929
000280 73 db 61 3d f0 34 40 3c 71 c0 d5 bc 6f 0b 13 be
       0.055140924 0.011731371 -0.02609274 -0.1435983
000290 22 28 69 bd cf 9a e4 3d 75 5b 95 3d d4 ff 88 3b
       -0.05692304 0.1116234 0.07292835 0.0041808877
0002a0 5e 96 c1 bb b7 58 7b 3b 1e 5e a0 3d 5a 81 86 3d
       -0.0059078177 0.0038352439 0.078304514 0.065676406
0002b0 23 6d be bc 69 f8 be bd 74 3a e5 bd b0 71 9e bd
       -0.0232454 -0.09324724 -0.1119279 -0.07736528
0002c0 38 7c 8d 3d ee 7f 52 3d b4 23 23 3d d7 5a f1 3d
       0.069084585 0.051391535 0.03982897 0.117849045
0002d0 5b 9e 92 bd 30 52 3a bc 11 2a 4c 3d c7 74 ed bd
       -0.0715911 -0.011372134 0.049844805 -0.11594539
0002e0 9a 83 ae bd 85 ba 4b bd 40 46 3a be db 8f c6 bd
       -0.08521195 -0.049738426 -0.18190861 -0.09695407
0002f0 d4 10 87 3c 71 cd 56 3d 32 92 03 3d 42 ff 3b 3c
       0.016487516 0.052442018 0.032121845 0.011474432
000300 dc d1 fc 3d b0 03 b3 3d 1a 99 b2 bd e7 18 c7 bd
       0.12344715 0.08740938 -0.08720608 -0.097215466
000310 77 c2 ac 3d 15 f5 b8 bd 81 89 12 be 01 da 17 bd
       0.08435529 -0.09031121 -0.14310266 -0.03707314
000320 0c 40 00 3e 61 59 00 bd 50 0a e5 3d e9 e8 54 3d
       0.12524432 -0.03133524 0.111836076 0.051979933
000330 84 63 28 bd c6 b2 26 be ad 02 16 3d cd e9 02 be
       -0.04111053 -0.16279134 0.036623646 -0.127845
000340 3f a2 ae bd 59 fd ad bc 9a 83 26 3e 39 0b 7d bc
       -0.0852704 -0.02123897 0.1626114 -0.01544457
000350 4b 81 4b bd 97 a2 4a be f0 1d 11 be a8 60 b0 3d
       -0.04968385 -0.19788586 -0.14171576 0.08612186
000360 a4 a7 3a be 2c da 06 be ce 02 43 3d 83 42 02 bd
       -0.18228012 -0.13169163 0.047610097 -0.03180171
000370 02 52 a6 bd 0b c4 a2 3d 50 ef ae bd e5 69 3b 3e
       -0.081211105 0.079475485 -0.08541739 0.18302114
000380 af 7c 12 3e b6 07 bc bd 4c 99 34 3d 06 98 43 3e
       0.14305376 -0.09181158 0.044091508 0.19100961
000390 36 f9 12 3c 99 68 07 be b5 5a c8 3d 29 0f 1f 3e
       0.008970549 -0.13223495 0.09782926 0.15533127
0003a0 cd 3f 62 3d 9f 6a 29 be 2f db 7e 3d 60 7e ae 3d
       0.055236626 -0.16544579 0.06222075 0.08520198
0003b0 2e 05 01 3e 47 75 f8 3c 34 6b 09 be 7e 57 f4 3d
       0.12599632 0.03032936 -0.13419801 0.1193075
0003c0 46 8c 3a bb c5 ad 17 3d f4 b0 ca 3d c5 e9 60 be
       -0.0028464957 0.037030954 0.098970324 -0.21964176
0003d0 55 99 0a 3e 6c 81 c9 bb c7 ec 63 bd 21 31 37 bd
       0.13535054 -0.0061494615 -0.05564573 -0.044724587
0003e0 3f c2 a0 3d 0e 2f 54 bc 1d c8 c4 3d 46 e6 e3 bd
       0.078495495 -0.012950672 0.09608481 -0.111279055
0003f0 79 e4 24 3d 65 f4 f2 3d 5c 0d bb 3d ab 55 03 3e
       0.04025695 0.11863021 0.091334075 0.12825648

lstm.bias_ih_l1 f4 [200]
000000 37 88 98 3d 9e 3b 7b bd 79 82 73 3d ca e9 0c 3e
       0.07447856 -0.061336152 0.0594506 0.13761058
000010 fd 67 86 3d f4 75 f1 3d 8e 23 47 3d 40 1c 0a 3e
       0.06562803 0.11790076 0.048617892 0.13487339
000020 16 51 af 3d cd 21 df bd a1 e1 10 3e 32 c6 d1 3d
       0.08560388 -0.10895119 0.1414857 0.10242881
000030 f6 cb 84 3d 97 b2 e6 3b 74 02 1d 3b 3e 69 bb 3b
       0.06484215 0.0070403325 0.002395776 0.005719333
000040 7d 72 b7 3d 03 e0 fa 3d a9 ce 97 3d dd 84 8b 3d
       0.08957384 0.12249758 0.07412464 0.06812451
000050 93 d4 35 3e ea ad ea bd 62 34 e7 bd 53 74 06 3d
       0.17756872 -0.11458953 -0.11289288 0.03282578
000060 e2 36 03 be 27 40 7a 3d 1c b4 10 3e fe 1b c9 3c
       -0.12813905 0.061096337 0.14131206 0.02454948
000070 59 ea 0e bc db bb 0b be 6e a0 3a 3c 3f cf 00 3e
       -0.008722865 -0.1364588 0.0113907885 0.12579058
000080 f0 7b 30 3d 6a 4a 36 bd 8e 8f 49 3e f9 83 86 bd
       0.043086946 -0.04450456 0.19683668 -0.065681405
000090 84 be a8 bd 46 fa 40 3e f1 00 37 3d 36 3e 2a 3c
       -0.08239463 0.18845472 0.044678632 0.010390809
0000a0 de 7c 4d 3c 17 2c fa 3d 93 93 f3 3d 03 73 27 be
       0.012541978 0.12215441 0.11893382 -0.16352467
0000b0 60 bf 92 3b 3d 2f 7b 3b 04 c3 06 bd 92 54 fb 3d
       0.00447838 0.0038327717 -0.032900825 0.1227199
0000c0 2a 1e b0 3d b6 4d 48 3d 7e 0f f4 3d 70 38 6c 3d
       0.08599503 0.048902236 0.119170174 0.05767101
0000d0 ee 86 0c 3e 4c d8 d9 bd ee 46 eb 3d c6 bd 18 be
       0.13723347 -0.106369585 0.11488138 -0.14916143
0000e0 de a0 a6 3d 14 14 f9 bd 58 3b 7c bd 90 56 9f bd
       0.08136152 -0.12162033 -0.061580032 -0.07780182
0000f0 92 14 4b 3d d1 eb c7 bd 1b 5a b9 bd b6 4c a7 bd
       0.049580164 -0.09761775 -0.090503894 -0.08168928
000100 9e fe 5a 3d 25 a5 1b be c2 46 10 bd d6 0a d4 3a
       0.053465478 -0.15199716 -0.03522373 0.0016177546
000110 47 b6 94 3c 72 ac 4a bd 87 df 8b 3d fd 59 c6 3d
       0.018153323 -0.049480863 0.06829744 0.09685133
000120 ca e7 f5 bc 12 bc 93 bd b8 8a 1e be de f5 93 3d
       -0.030017752 -0.07213606 -0.15482605 0.0722463
000130 de 15 ab bc bb 0a aa 3c 77 0f 8d 3d 8b 6b a4 bc
       -0.02088445 0.02075707 0.06887715 -0.020070812
000140 28 3f b6 3d a7 b1 0f bc 46 f2 b1 bd d0 84 fe bd
       0.08898765 -0.008770383 -0.08688788 -0.12427676
000150 c2 72 67 be d8 eb 92 3c d9 8f 24 be 99 a4 59 3d
       -0.2260237 0.017934725 -0.16070499 0.05313549
000160 e5 e3 12 be 0d 62 87 bd 7f 3c 41 bd c9 61 34 be
       -0.14344747 -0.066104986 -0.047176834 -0.17615427
000170 88 6e af 3b 2b 83 b0 3d ea cb 7a 3d 73 38 c9 bd
       0.0053537525 0.08618768 0.061229624 -0.0982522
000180 fa 1b 18 bd 75 f3 69 3d 67 6f 0e be 76 2b 7e 3d
       -0.037136056 0.057116944 -0.13909684 0.062053166
000190 55 db 7c bc 2b ed cc 3d b7 bd 8a bd 0e 08 ee bd
       -0.015433152 0.10006174 -0.067744665 -0.1162263
0001a0 60 c5 bd 3c b4 19 c0 bc fe 46 34 3d 30 b1 97 3c
       0.023165405 -0.023449756 0.044013016 0.018517107
0001b0 9d 67 14 bd 1e 6e b4 bc b0 69 fd 3b 07 f5 a1 bd
       -0.036231626 -0.022025164 0.007733546 -0.079080634
0001c0 29 bb f3 bc 74 85 ac 3a 62 a2 6b 3d 55 6a d9 3d
       -0.02975233 0.0013162331 0.057527907 0.10615984
0001d0 f6 cf 82 bc cd 43 40 3c ca 4c f6 3c 91 84 65 bd
       -0.015968304 0.011734915 0.030065913 -0.05603463
0001e0 57 5e 8d 3d 7c 9c 07 be 07 12 a7 bc b7 59 df 3d
       0.069027595 -0.13243288 -0.020394338 0.109057836
0001f0 f2 bc 13 3e df 93 ac bc b2 15 64 bd 0d d0 45 bc
       0.14427546 -0.021066604 -0.055684753 -0.012073529
000200 11 56 e3 bd 6a 1f 5f bd 2c 00 b5 bd 00 e6 86 3d
       -0.111004 -0.05447332 -0.088379234 0.06586838
000210 77 f8 17 be b1 71 71 bd 81 36 c8 3c e7 ca 83 3d
       -0.14840876 -0.058946315 0.024440052 0.06435185
000220 19 29 35 3d 86 9c 2a 3d 17 99 42 3d 1b da 34 3d
       0.044228647 0.04165318 0.04750928 0.044153314
000230 82 1c 2c bd 9d 6c 31 3a b8 6c 40 3c 06 ac 81 bd
       -0.042019375 0.0006768199 0.011744671 -0.06331639
000240 78 85 8e 3c 77 28 8b 3d eb 17 a5 bc f1 25 d9 bd
       0.017397627 0.067948274 -0.020153007 -0.1060294
000250 8f ef f2 3c cd 59 b6 bd 30 49 a5 bd 98 d4 0d 3d
       0.029655246 -0.08903847 -0.080706 0.034626573
000260 4e 66 cf 3c ea 97 ba 3d eb db 38 3d c3 06 b7 bd
       0.025317337 0.091110066 0.045131605 -0.089368366
000270 16 d7 f1 bc 2c 43 04 3e e3 7c 16 bc 98 9d 3b 3d
       -0.029521506 0.12916249 -0.009185049 0.04580459
000280 8a 6e f5 3d d0 16 16 3d 10 da c9 bd b0 9c dd 3d
       0.11983974 0.03664285 -0.09856045 0.108209014
000290 f6 3e 21 3e 0a d4 9b 3d 34 26 51 bd 7b 76 d1 3d
       0.15746674 0.076088026 -0.051061824 0.102276765
0002a0 62 2e 7b bc c3 2d 10 3e 16 1e 11 3e 82 11 8a 3d
       -0.015330883 0.14079957 0.14171633 0.067416206
0002b0 f7 57 f8 3d d7 7d bb 3d 72 40 c0 bd 41 aa c5 3c
       0.12126153 0.091548614 -0.09387292 0.024129035
0002c0 f1 d5 e8 bd 7c 47 06 be ab 9a 01 bc f1 bd fc bd
       -0.11368931 -0.13113207 -0.007910411 -0.12340916
0002d0 9a bc 80 bc 5f f4 b9 bd 84 e3 d8 bd e5 f0 e6 bd
       -0.015714932 -0.09079813 -0.1059027 -0.11276416
0002e0 12 b1 99 bd f6 96 8c 3c 16 0f a6 3b d5 c5 d2 3d
       -0.075044766 0.017161828 0.0050677164 0.1029164
0002f0 04 a4 f4 ba d1 6f c0 3d 6e d6 fd bd 64 4b 1f be
       -0.0018664603 0.09396327 -0.12394415 -0.15556103
000300 91 27 b0 3d 12 82 cb 3d c5 06 56 bd 6f a3 8f 3c
       0.08601297 0.09936918 -0.05225255 0.017533986
000310 63 ed e9 bd 9d dd 82 bc 84 9f 16 be ca 68 bd 3d
       -0.11422231 -0.015974814 -0.14709288 0.092485026

lstm.bias_hh_l1 f4 [200]
000000 7f 68 1d 3e ec 16 00 3e 55 38 2f 3e 57 10 db 3d
       0.15371893 0.12508744 0.17111333 0.10696476
000010 2f 87 eb 3d 36 fc 8c bc b9 7f 19 3e 47 3f 12 3d
       0.115003936 -0.017210107 0.14990129 0.035704877
000020 0a 2a c2 bd d6 5d f6 3d 61 f8 f7 bd 00 3a 1b 3e
       -0.094806746 0.120296165 -0.121079214 0.15158844
000030 22 50 39 3d cb 68 1e 3e 2a ee a8 3d 94 b0 ac bb
       0.045242436 0.15469663 0.08248551 -0.005270073
000040 c9 df c7 3c 3c 7e f9 3d 9d ca c7 3c 0f 74 92 3d
       0.024398701 0.121822804 0.024388606 0.07151043
000050 d1 bc c8 bd 9d c6 86 3c e8 72 32 bd f6 4b 82 bd
       -0.09801639 0.016452128 -0.043566614 -0.06362145
000060 33 38 c1 3d dc 10 a2 bd 90 50 8c 3c 30 2b 96 bc
       0.09434547 -0.07913372 0.017128259 -0.01833114
000070 0a 88 22 3d b1 3e ae bd 3f ae 30 bc 50 59 47 bd
       0.03968052 -0.08508051 -0.010783731 -0.04866916
000080 fb f2 db 3d cb cf 2b bd 1f de b5 3d 7d fd 0e 3e
       0.10739704 -0.041946214 0.08880257 0.13963886
000090 0e 7a 22 3d 54 77 22 bd 81 c2 91 3d af 74 67 bd
       0.03966718 -0.03966458 0.07117177 -0.056507763
0000a0 61 f0 d3 3c 30 8c 0b be f7 10 a1 3d 1f e5 6a bd
       0.025871458 -0.13627696 0.07864564 -0.057347413
0000b0 6e fc 93 bd d8 02 30 3e 02 93 d2 bd 2a f3 08 3e
       -0.072258815 0.17188585 -0.10281946 0.1337401
0000c0 5e fc f0 bd 07 53 96 3d 61 c7 19 3d 74 55 49 3c
       -0.11766885 0.07340055 0.03754366 0.01228844
0000d0 59 94 b1 3d 5f 53 3d bd c9 a7 cb bd 6b 2f c9 bd
       0.08670873 -0.046222087 -0.09944112 -0.098234974
0000e0 5e e0 b4 bb eb 37 c5 bc 14 a8 ae 3c d6 88 96 bd
       -0.0055199107 -0.024074515 0.02132038 -0.07350318
0000f0 31 a9 e2 3c dd 0c 83 bd 35 ca 05 be fb ea f2 bd
       0.027668567 -0.06398938 -0.13065417 -0.11861225
000100 f1 6e 6a 3d 1f 06 28 bb 3c 4d 89 bd 48 7c 00 3d
       0.05723471 -0.0025638414 -0.067041844 0.031368524
000110 88 46 f0 3c 8b b9 41 bd 6a 43 84 3d 1b 11 58 3d
       0.029330507 -0.04729609 0.06458171 0.052750688
000120 b2 f5 82 bd 19 6d be 3c d1 db de bb 4b 88 1d bd
       -0.06394519 0.023245381 -0.0068011065 -0.038460057
000130 98 f4 41 3b 84 83 dc bc d0 e5 ba bd fc 8a 89 3c
       0.0029595252 -0.02691818 -0.091258645 0.016789906
000140 dd 13 2a 3e 6d 25 ac bb 59 01 85 bb 40 dd 95 bc
       0.1660914 -0.005253485 -0.0040589985 -0.018293977
000150 58 8c 9d bd 53 1d 8e ba 2e c3 70 bb e2 78 6a 3d
       -0.07692784 -0.001084248 -0.003673743 0.05724419
000160 d6 55 ef bd 80 9c db 3d 25 f6 a3 bd c3 50 14 3d
       -0.11686294 0.107232094 -0.08005933 0.036209833
000170 43 70 fe 3d 97 f9 d4 bd d4 37 b4 bb 5f c3 8e bc
       0.12423756 -0.10399168 -0.0054998193 -0.017427145
000180 45 e1 18 be 8c 85 28 be 8b 6b cf bd 2d c9 36 3c
       -0.14929684 -0.16457194 -0.10127934 0.0111563625
000190 80 4b 98 3d d0 f1 e2 3c 29 ea 80 3c 19 8f 0d 3d
       0.074362755 0.027703196 0.015736656 0.034560297
0001a0 2c 06 92 3c 0c a8 d3 3b 24 de 46 bd 01 1d 97 bd
       0.017825209 0.0064592417 -0.048551694 -0.07378579
0001b0 5c 19 0f bc 28 d1 0a 3d 1e 6f d2 3d 42 66 a1 3b
       -0.0087340735 0.033890873 0.102751 0.00492552
0001c0 9e ac f1 bd cb 3b a3 bd 7b 45 0e bb 19 a3 a7 ba
       -0.11800502 -0.07970389 -0.0021708894 -0.0012789696
0001d0 e3 a6 6c bd 0a d4 ec 3c e5 89 81 3d b7 2b 0c 3e
       -0.057776343 0.028909702 0.063251294 0.13688551
0001e0 6b 2d 0c be 70 84 1b 3d 36 18 3c bd cd 45 55 bd
       -0.136892 0.0379681 -0.045921527 -0.05206852
0001f0 7c 33 52 bd e2 14 9f 3c d0 8b ec 3d 9d 2b f1 3d
       -0.05131863 0.019419137 0.115501046 0.11775897
000200 f3 a1 ac bc 96 be 24 3d 51 28 d1 3c be 2e 27 3d
       -0.021073317 0.04022082 0.02553192 0.04081606
000210 f9 8f b1 3d d2 4e 5e bd bb 7d 4a 3d 29 cb b7 bc
       0.08670039 -0.054274388 0.049436312 -0.022435741
000220 d0 cb 6f bc 79 08 21 3d ea c0 08 be 7f 43 8d 3b
       -0.014635995 0.03931472 -0.13354841 0.0043110247
000230 fc 29 20 bd a3 92 2d 3c cd 7c 9d bd 7e b9 48 bd
       -0.03910254 0.010594043 -0.076898195 -0.049005024
000240 e0 52 84 3c 43 85 82 bd 27 e7 a1 3d f0 04 81 bd
       0.0161528 -0.06373074 0.07905417 -0.0629977
000250 3b 51 d8 bc 6c d0 57 bd c4 81 f0 bd c5 19 b3 bd
       -0.026405921 -0.052689 -0.11743501 -0.087451495
000260 5e f9 a6 3d e4 5a 08 bc 3a fe 30 bd 96 20 15 be
       0.08153032 -0.008322451 -0.0432112 -0.14563212
000270 1d 67 06 3e dd c9 b3 bc 6a 69 df bd 64 02 b5 bd
       0.13125272 -0.021946842 -0.10908778 -0.088383466
000280 51 b3 af bd a6 5b c6 bd bb 49 dd 3d 4c c1 cd 3d
       -0.08579124 -0.09685449 0.108050786 0.10046634
000290 ad e7 99 bd 37 3d a6 bb 3a 08 a6 bd 14 ed ad 3b
       -0.07514892 -0.0050732153 -0.08107038 0.005307803
0002a0 70 5e 9b 3d fd ef 88 3c 68 b5 a9 bc 0b 1a 1f 3e
       0.07586372 0.016715998 -0.020716384 0.15537278
0002b0 7f 43 9e 3b 2a 0e 51 3d 65 f4 5a 3d 54 a6 dc ba
       0.0048298235 0.0510389 0.05345573 -0.0016834238
0002c0 0e 44 b4 3d 85 1a da 3d e6 fa d2 bd 92 40 55 3d
       0.08802043 0.106495894 -0.10301761 0.052063532
0002d0 cd 59 06 3e 0c 26 be bd 52 21 c1 bd 6f fb ee bd
       0.13120194 -0.092846006 -0.094301835 -0.11669051
0002e0 c0 c3 04 3e 2f a1 eb bb 8b b0 7b bd 1a 87 d7 3d
       0.12965298 -0.0071908454 -0.06144766 0.105238155
0002f0 7d 8b c4 bd 02 86 94 bc 8c a8 8d bd 87 1f 98 bd
       -0.09596918 -0.018130306 -0.069169134 -0.07427888
000300 a9 15 3f 3d 9e 03 ce 3c 79 dd bb bd ff 3a e6 bd
       0.046651516 0.02514821 -0.09173102 -0.11241721
000310 41 09 87 bd 85 67 63 3d a3 64 84 bd 0d 74 bd b9
       -0.06593562 0.055518646 -0.064645074 -0.00036135354
