trained-models/best_lstm.pt (torch, 392910 bytes, 27 tensors)

lstm.weight_ih_l0 f4 [200, 5]
0	0xbb2cdf6f	-0.0026378294
1	0x3b8e8e5c	0.0043504667
2	0x3d535e6b	0.051603716
3	0xbddb260e	-0.10700618
4	0xbd9ced3e	-0.07662438
5	0x3de8a888	0.1136027
6	0x3e2cee71	0.16887833
7	0x3e288c54	0.16459781
8	0x3be859dc	0.00709079
9	0x3df6dabc	0.12053439
10	0x3ddfc7b7	0.109267645
11	0xbd3dd781	-0.0463481
12	0x3d399fca	0.045318402
13	0x3e3bfe4c	0.18358725
14	0x3e8d4ff1	0.27600053
15	0xbd3fde3f	-0.04684281
16	0xbd080912	-0.033211775
17	0x3d699265	0.05702438
18	0x3e29eaf7	0.16593538
19	0x3e118168	0.14209521
20	0xbddc1073	-0.10745325
21	0x3db31217	0.08743685
22	0xbca65420	-0.020303786
23	0x3e2bfec0	0.16796398
24	0x3e1010f8	0.14068973
25	0x3d54319d	0.051805127
26	0x3b58b5c0	0.0033067316
27	0x3e1d3fa2	0.15356305
28	0x3dcc2381	0.09967709
29	0xbca4d3cc	-0.020120524
30	0x3e209f73	0.15685825
31	0x3e40f531	0.18843533
32	0x3d834565	0.0640972
33	0x3d9eeb05	0.0775967
34	0xbd0ec8ff	-0.034859654
35	0x3b21626a	0.002462531
36	0xbdaf7da7	-0.08568888
37	0xbc44115f	-0.011967032
38	0xbc12f092	-0.008968489
39	0x3e0d0d69	0.13774647
40	0xbdeec36c	-0.116583675
41	0xbde7968c	-0.113080114
42	0x3ca2a311	0.019853147
43	0xbba4b686	-0.0050266413
44	0x3da93f53	0.08264031
45	0xbcc27188	-0.023735777
46	0x3e383254	0.17987949
47	0x3d6ea2af	0.058260616
48	0x3d9adc7a	0.07561584
49	0x3dec5991	0.11540521
50	0xbe3f1069	-0.18658604
51	0xbe47c2ae	-0.19507858
52	0xbe223e35	-0.15844043
53	0xbe2ff6e6	-0.17184028
54	0xbe119f1e	-0.14220855
55	0x3d6c57e9	0.057701025
56	0x3d9a9a0b	0.075489126
57	0x3d78e048	0.060760766
58	0xbb4e5671	-0.0031484629
59	0x3e1a55a9	0.1507174
60	0xbccb7559	-0.02483623
61	0x3e1cdcfa	0.15318671
62	0x3c34ed1f	0.011042862
63	0x3db5f2e6	0.0888422
64	0x3e1a3bfc	0.15061945
65	0xbe255a91	-0.1614783
66	0xbdfaee90	-0.122525334
67	0xbe03a24e	-0.12854883
68	0xbd805988	-0.06267077
69	0x3e0303d6	0.12794432
70	0x3d817349	0.06320817
71	0x3d6e19f9	0.05813024
72	0x3dfe59a7	0.124194436
73	0x3e542445	0.2071696
74	0x3b80f55d	0.0039354996
75	0xbbede51b	-0.0072599775
76	0x3d9d9a41	0.07695437
77	0x3d1373fa	0.035999276
78	0x3dc49cd3	0.09600224
79	0x3db2761c	0.08713934
80	0x3e8e69b3	0.27815017
81	0x3e0972db	0.1342272
82	0x3e08250a	0.1329538
83	0x3e0b7fe4	0.13623005
84	0x3e3f6851	0.18692137
85	0x3c0be8fa	0.008539433
86	0x3c61ed8a	0.013789544
87	0x3e567af8	0.20945346
88	0x3d9f6ef6	0.07784836
89	0x3e7114d4	0.23543102
90	0x3dd04a9e	0.10170482
91	0xbb5f95a9	-0.0034116304
92	0xbde2e068	-0.11077958
93	0x3c8696e3	0.01642937
94	0xbdbb3cd4	-0.091424614
95	0x3dcf9663	0.10136106
96	0x3e277105	0.16351707
97	0xbcfd95c3	-0.030955201
98	0x3d09001b	0.033447366
99	0xbcfae9d5	-0.030629078
100	0x3e120717	0.14260517
101	0x3d27294a	0.04081086
102	0x3de3eca4	0.1112912
103	0x3a9b3ca4	0.0011843634
104	0x3d794a02	0.060861595
105	0x3db3ca9c	0.08778879
106	0xbca997f6	-0.020702343
107	0x3dbf5163	0.09341695
108	0x3dd02592	0.10163416
109	0xbde2572f	-0.11051785
110	0xbe11a8a3	-0.14224486
111	0x3d8d2b70	0.06893051
112	0xbd1605aa	-0.036626495
113	0xbe0ea44c	-0.13929862
114	0x3e2c8d54	0.16850787
115	0x3d36656c	0.044530317
116	0x3df132a1	0.11777235
117	0xbd16428e	-0.036684565
118	0x3cf5919b	0.029976657
119	0x3beec558	0.007286709
120	0xbd2bf972	-0.041985936
121	0xbe452666	-0.19252929
122	0xbde198c9	-0.110154696
123	0x3c709594	0.0146841
124	0x3df9e0c1	0.122010715
125	0xbdcd8a4b	-0.10036143
126	0x3df5e1a5	0.12005929
127	0xbe007c4d	-0.12547417
128	0x3d83dc7f	0.06438541
129	0x3e27170b	0.16317384
130	0x3d6a75fb	0.05724142
131	0x3dc3cc02	0.09560396
132	0x3d12afd5	0.035812218
133	0xbd41df99	-0.04733238
134	0x3e5fd340	0.21857929
135	0x3daa0674	0.08302012
136	0x3c857e23	0.016295498
137	0x3dafbeba	0.085813
138	0xbd3fa62b	-0.04678933
139	0xbe29eb7f	-0.16593741
140	0xbd25e769	-0.040503893
141	0x3d8f2714	0.069898754
142	0xbcdb62e1	-0.026780548
143	0x3dab6918	0.083696544
144	0x3cd663c7	0.026170624
145	0xbdde4360	-0.108526945
146	0x3dc0b6ee	0.09409891
147	0x3d90a73d	0.07063148
148	0x3e18205e	0.14856097
149	0x3cba7b96	0.022764008
150	0xbaea34d2	-0.0017868525
151	0xbc55ffb3	-0.013061452
152	0xbddcff35	-0.107908644
153	0xbdc5abf2	-0.096519366
154	0x3dfbb456	0.12290256
155	0x3dffaba9	0.124839135
156	0x3d68377c	0.05669354
157	0x3d2577ca	0.040397443
158	0xbb560336	-0.0032655722
159	0xbc59ff5d	-0.013305512
160	0xbdaeeefb	-0.08541676
161	0x3ce3c831	0.02780542
162	0xbdd83bd5	-0.10558287
163	0x3dabf2e1	0.08395935
164	0xbca20453	-0.019777453
165	0xbdc8cb45	-0.098043956
166	0x3d9eecfc	0.07760045
167	0xbd177740	-0.03697896
168	0xbe0b4404	-0.13600165
169	0x3e3d21ad	0.18469878
170	0x3dea0fef	0.1142882
171	0x3db0bd82	0.08629896
172	0x3ddb60b3	0.10711803
173	0x3baa8abc	0.0052045267
174	0xbaf7e96c	-0.001891417
175	0x3e101165	0.14069135
176	0x3d9744a1	0.07386137
177	0x3e530ba2	0.20609906
178	0x3e0d8abb	0.13822453
179	0x3eaf2419	0.34207228
180	0x3d43b2ee	0.047778063
181	0xbd0f560f	-0.03499418
182	0x3e19cf10	0.15020394
183	0x3da962bf	0.082707874
184	0xbda007eb	-0.0781401
185	0x3d744888	0.059639484
186	0x3dc7cbba	0.09755655
187	0x3dd79060	0.10525584
188	0x3e43be79	0.19115628
189	0x3e8e436e	0.2778582
190	0x3cf0b4d8	0.029383108
191	0x3d8b0af2	0.06789197
192	0xbe13e9f5	-0.14444716
193	0xbd88f8aa	-0.06688054
194	0x3da7e45a	0.081978515
195	0x3db5f7f6	0.088851854
196	0x3d125ceb	0.035733145
197	0x3bd5eaf9	0.006528255
198	0x3d8ac607	0.06776052
199	0xbdbf5429	-0.09342224
200	0xbd6a8b9f	-0.05726206
201	0xbe1cce8b	-0.15313165
202	0xbe2284f9	-0.15871038
203	0xbdca9e6b	-0.09893497
204	0xbe0e7992	-0.13913563
205	0x3db707e5	0.08937053
206	0x3ddace2f	0.10683858
207	0xbcb5b585	-0.022181282
208	0x3da2aa22	0.079426065
209	0xbe0677ae	-0.13131592
210	0xbd8fb7be	-0.07017468
211	0x3d957031	0.072967894
212	0x3cd92f85	0.026511917
213	0xbba25341	-0.0049537723
214	0xbc7c716a	-0.015407899
215	0x3d868939	0.06569142
216	0xbd64a5fd	-0.05582236
217	0x3d8ac555	0.06775919
218	0x3cadba75	0.021207074
219	0x3cac73d2	0.021051321
220	0x3b1d1cbc	0.0023973426
221	0x3be5ce28	0.007013101
222	0x3db3c623	0.08778026
223	0xbc635035	-0.013874103
224	0x3d313b6c	0.04326956
225	0xbdda57ca	-0.10661276
226	0xbda92d41	-0.082605846
227	0x3d8022bc	0.06256625
228	0xbc345ab2	-0.011007952
229	0xbe3d08bd	-0.18460365
230	0x3c4bfc17	0.01245024
231	0x3d9864ea	0.07441123
232	0x3e3da4c3	0.18519883
233	0x3d58977b	0.052878838
234	0x3e0e7bb5	0.13914378
235	0x3d820190	0.06347954
236	0x3e105c9e	0.1409783
237	0xbdcea9e2	-0.10090996
238	0xbdd5989f	-0.10429501
239	0x3c89765c	0.016780071
240	0x3c5205cd	0.012818766
241	0xbd8ea1aa	-0.06964429
242	0x3dca4fcd	0.09878502
243	0xbd11dffd	-0.035614002
244	0xbde20f8f	-0.11038124
245	0xbc53e103	-0.012932065
246	0x3df12444	0.11774495
247	0x3e48e9d2	0.19620445
248	0x3d9be62e	0.07612263
249	0xbdafeed9	-0.085904785
250	0xbdcd1d37	-0.10015338
251	0xbe31d7fd	-0.17367549
252	0xbe69541d	-0.22785993
253	0xbe6a7114	-0.22894698
254	0xbb3f6d29	-0.0029209352
255	0xbd7801ee	-0.060548715

lstm.weight_hh_l0 f4 [200, 50]
0	0x3ca3150f	0.019907502
1	0x3d449911	0.047997538
2	0x3d6c8d73	0.057752084
3	0xbd538862	-0.051643737
4	0xbd7a1c95	-0.061062414
5	0x3e14e85e	0.14541766
6	0xbc9130db	-0.017723491
7	0xbd3aeedd	-0.045637954
8	0x3e1d6008	0.15368664
9	0x3da34074	0.07971278
10	0xbd22c97e	-0.03974294
11	0x3e22bfbe	0.15893456
12	0xbdb41661	-0.08793331
13	0xbe1a9ba2	-0.15098432
14	0xbd1a5ab5	-0.03768416
15	0x3dc13bfc	0.09435269
16	0xbe06853e	-0.13136765
17	0xbe5773f5	-0.21040328
18	0x3d2d63cb	0.042331498
19	0xbdb7bb30	-0.0897125
20	0x3d3b7716	0.045767866
21	0xbc888a89	-0.016667621
22	0xbdb3acda	-0.08773203
23	0xbdce0da9	-0.10061199
24	0x3df5becd	0.11999283
25	0xbcba7227	-0.02275951
26	0x3d9c5cdd	0.076349
27	0xbe644be3	-0.22294573
28	0xbdaf355e	-0.08555101
29	0x3d9bab39	0.076010175
30	0x3e077f49	0.13232149
31	0x3d6c01e2	0.057618983
32	0x3daa95cf	0.08329355
33	0x3b994a6d	0.0046780617
34	0x3dcc4132	0.099733725
35	0x3e08ae71	0.13347794
36	0x3dbd2430	0.09235418
37	0x3c9a50ed	0.018837417
38	0xbd93a12e	-0.07208477
39	0xbe259e45	-0.16173656
40	0xbd844653	-0.06458726
41	0xbd73ac9c	-0.059490785
42	0xbe01f667	-0.12691651
43	0xbb23179e	-0.0024885903
44	0x3e2802f3	0.16407375
45	0xbcc88af1	-0.024480315
46	0xbd9b81e0	-0.07593131
47	0x3c8b02c7	0.016969098
48	0xbd9bf627	-0.07615309
49	0x3bfd1b09	0.00772417
50	0x3c8cfcbd	0.017210359
51	0xbd731ae7	-0.059351828
52	0x3dc1cd24	0.094629556
53	0x3d91590b	0.07097062
54	0xbd92fad6	-0.071767494
55	0xbdbc8c84	-0.09206489
56	0xbc25b003	-0.010112765
57	0xbe33d2fd	-0.17560954
58	0xbc47c7ed	-0.012193662
59	0xbdaa000e	-0.08300792
60	0xbd8ee24e	-0.06976758
61	0x3cedb645	0.029017577
62	0xbdb932df	-0.09042906
63	0x3d542992	0.051797457
64	0x3cf5bff3	0.029998755
65	0x3ce3d122	0.027809683
66	0xbdb7eeb7	-0.08981078
67	0xbb176bda	-0.0023105056
68	0xbddb2a1e	-0.107013926
69	0xbd592b92	-0.053020068
70	0xbdae0cbc	-0.08498523
71	0xbd03c023	-0.032165658
72	0x3e0cb970	0.13742614
73	0x3d8199c9	0.0632816
74	0x3d7e9dc3	0.062162172
75	0xbe33d47e	-0.17561528
76	0x3de4b6d8	0.11167687
77	0x3d353a94	0.044245318
78	0x3d5df18e	0.054185443
79	0xbdf833d6	-0.12119262
80	0xbd4e8f77	-0.050429787
81	0x3abbe1a5	0.0014334215
82	0xbdfd5f1e	-0.12371658
83	0xbe15feea	-0.14648023
84	0x3d1a5f29	0.037688408
85	0x3dee2c3c	0.11629531
86	0xbdef406a	-0.11682208
87	0x3d5578c6	0.05211713
88	0xbd9860d6	-0.07440345
89	0xbd83cefa	-0.06435962
90	0x3e5d5188	0.21613133
91	0x3c348144	0.011017147
92	0x3d3b6281	0.045748238
93	0xbe093ee4	-0.13402897
94	0xbcbdd856	-0.023174446
95	0xbda15fb1	-0.0787958
96	0xbd74511d	-0.05964767
97	0x3d753d44	0.05987288
98	0xbdbf0906	-0.09327893
99	0xbdad341d	-0.084572054
100	0x3e045475	0.12922843
101	0x3de347b8	0.11097664
102	0x3e10d468	0.14143527
103	0x3d462bca	0.048381604
104	0xbdd5b907	-0.10435682
105	0xbd860e31	-0.065456755
106	0xbd0ac537	-0.033879485
107	0xbc3f3bac	-0.011671942
108	0x3e479a32	0.19492415
109	0xbdcc5e00	-0.099788666
110	0xbe099e6f	-0.13439344
111	0x3c6d2dee	0.0144762825
112	0x3db3386d	0.08750997
113	0x3e27d650	0.16390347
114	0xbc885736	-0.016643148
115	0x3e2fc2b2	0.17164114
116	0x3d79f23b	0.061022025
117	0xbe213959	-0.15744533
118	0xbd92928a	-0.07156856
119	0xbdb986ea	-0.09058936
120	0x3d936897	0.07197683
121	0x3da777e2	0.08177163
122	0x3de22fb3	0.11044254
123	0xbe07493b	-0.13211529
124	0x3c5209c7	0.012819714
125	0x3dbde18a	0.09271534
126	0xbde33122	-0.11093356
127	0x3dd910c4	0.10598901
128	0x3c4dc89c	0.012560036
129	0xbdd6ed1a	-0.10494442
130	0x3e2f2c2b	0.17106692
131	0x3c900f12	0.017585311
132	0xbe30effd	-0.17279048
133	0x3da094dc	0.07840893
134	0xbd3b2f83	-0.045699608
135	0x3e1f5319	0.15559043
136	0xbdb3f86f	-0.08787619
137	0xbd8de61a	-0.06928654
138	0x3d99327d	0.07480333
139	0xbd7a4294	-0.06109865
140	0x3e039c2a	0.1285254
141	0xbda58501	-0.08082009
142	0xbd67c730	-0.056586444
143	0xbcd2ff62	-0.025756542
144	0x3dca98cd	0.09892426
145	0x3d3f5930	0.046715915
146	0x3d976114	0.07391563
147	0xbd2e36e0	-0.0425328
148	0xbe50d6ec	-0.20394486
149	0x3e122bb1	0.1427448
150	0x3dae5392	0.085120335
151	0x3d325468	0.043537527
152	0xbdbb38e8	-0.091417134
153	0x3cfe6b3a	0.031056989
154	0x3dd90e3b	0.10598417
155	0x3d841c55	0.064507164
156	0xbd9cb2e0	-0.07651305
157	0x3cb9fb82	0.022702936
158	0x3e0e43da	0.13893071
159	0x3aadfb9b	0.0013273837
160	0xbd6ddca3	-0.058071744
161	0xbe0797a2	-0.13241437
162	0x3db7ead2	0.08980335
163	0x3cf63dec	0.030058824
164	0xbc363b12	-0.011122482
165	0xbdf12ae1	-0.117757566
166	0xbc62bce5	-0.013838981
167	0xbd54037c	-0.051761135
168	0xbdc92e31	-0.098232634
169	0xbdfddf78	-0.12396139
170	0x3d53a680	0.05167246
171	0xbd854174	-0.06506625
172	0x3df6ab21	0.12044359
173	0xbdb5e8b7	-0.088822775
174	0xbdc9e554	-0.09858194
175	0x3dbf553e	0.093424305
176	0x3e2037c5	0.15646274
177	0x3c9cced0	0.019141585
178	0x3dc261a0	0.09491277
179	0x3ddcf5c9	0.10789067
180	0xbce1ca01	-0.027562143
181	0x3d4c5c3a	0.04989264
182	0xbdb56390	-0.08856881
183	0x3ce7c3e5	0.028291652
184	0xbddefe5f	-0.10888361
185	0xbe0978a2	-0.13424924
186	0x3cf97ade	0.030454095
187	0x3b0d087a	0.0021519945
188	0x3e34a0cc	0.17639464
189	0xbde9a0db	-0.11407634
190	0x3dde765d	0.1086242
191	0xbde54fdc	-0.111968726
192	0xbc6add8f	-0.01433505
193	0xbdc53f3c	-0.096312016
194	0xbe0e7d48	-0.13914979
195	0x3aadcbf5	0.0013259636
196	0x3c88762e	0.016657915
197	0xbd11aafd	-0.035563458
198	0x3dc7aaee	0.09749399
199	0xbda0861f	-0.078380816
200	0xbcaef90c	-0.02135899
201	0x3d988147	0.07446533
202	0x3e18e898	0.14932477
203	0xbd342579	-0.04398105
204	0xbda51270	-0.08060157
205	0x3d6bed19	0.05759916
206	0x3da2e2b8	0.079533994
207	0xbe25bbec	-0.16184968
208	0x3de56c23	0.11202266
209	0xbd50b159	-0.050950382
210	0xbe0c7f4c	-0.13720435
211	0x3e108c03	0.1411591
212	0x3d1ee8b1	0.03879613
213	0x3cb87d82	0.022520784
214	0xbdc481d6	-0.09595077
215	0xbd86151d	-0.06546996
216	0xbd3c6824	-0.045997754
217	0xbdb2855b	-0.08716842
218	0xbca2030c	-0.019776843
219	0x3d2c57b1	0.042075817
220	0xbcb6e29c	-0.022324853
221	0x3de171de	0.110080466
222	0x3e1946db	0.14968435
223	0x3d05d184	0.032670513
224	0xbb525c70	-0.0032098554
225	0xbc4ea873	-0.012613404
226	0x3e231378	0.15925395
227	0x3e20d160	0.1570487
228	0x3d913a9c	0.07091257
229	0x3af9d843	0.0019061643
230	0x3d68802c	0.05676286
231	0xbdd93cfe	-0.106073365
232	0x3dab3a5b	0.0836074
233	0x3d1e5f48	0.038665086
234	0x3e16d5f6	0.14730057
235	0x3d9a6a33	0.07539787
236	0xbcde15bd	-0.027109975
237	0xbdb874e9	-0.09006674
238	0x3e2916ed	0.16512652
239	0x3d89fa9a	0.067372516
240	0x3dd34017	0.103149585
241	0xbcfe493f	-0.031040786
242	0x3d8270c9	0.06369168
243	0x3c472a8d	0.012156141
244	0x3e0735d3	0.13204126
245	0x3dd7e68a	0.10542019
246	0x3c4bac75	0.012431254
247	0x3c441d97	0.011969945
248	0xbc40d16d	-0.011768681
249	0xbd5dfab5	-0.05419417
250	0x3eb5735e	0.3543958
251	0x3ddfb5f7	0.10923379
252	0x3c2426c8	0.010019012
253	0xbd61c5a9	-0.055120144
254	0x3cd76043	0.026291018
255	0x3e0c8ae9	0.13724865

lstm.bias_ih_l0 f4 [200]
0	0xbd1a1190	-0.037614405
1	0x3e27b093	0.16375951
2	0x3c4cbe05	0.012496476
3	0x3baf2c64	0.005345868
4	0x3c72eee5	0.014827465
5	0x3e02c615	0.12770875
6	0x3d06b361	0.032885913
7	0x3e463cbb	0.19359104
8	0xbd7c2cbd	-0.061566103
9	0x3e162c2b	0.14665286
10	0xbda11199	-0.078646846
11	0x3d9457ed	0.07243333
12	0x3c22e195	0.009941478
13	0x3dba1a80	0.09087086
14	0x3e4f4e60	0.20244741
15	0x3dcd5f92	0.10027994
16	0x3e8796ae	0.26482147
17	0x3d9efba1	0.07762838
18	0x3e46583d	0.19369598
19	0x3d1bb24d	0.038011838
20	0xbdd01ee1	-0.1016214
21	0x3cf604a9	0.030031519
22	0x3db9276e	0.09040724
23	0x3c9e0638	0.019290075
24	0x3e1987cb	0.14993207
25	0x3e6f3bfd	0.23362727
26	0x3e12da0b	0.1434099
27	0x3e0b7793	0.13619833
28	0x3e1130f1	0.14178826
29	0x3d55ea10	0.052225173
30	0x3d440c07	0.047863033
31	0xbcf062c6	-0.029343974
32	0xbd3ffed9	-0.0468739
33	0xbd3e75e9	-0.046499167
34	0xbc766dca	-0.015040824
35	0x3ec062b2	0.375753
36	0x3d013801	0.03154755
37	0xbe030946	-0.12796506
38	0xbd3ddc65	-0.046352763
39	0xbc02d3bb	-0.007985051
40	0x3d1ab418	0.037769407
41	0xbd288f8c	-0.041152522
42	0x3d5101a6	0.051026963
43	0xbdb67221	-0.08908487
44	0x3e2cf555	0.16890462
45	0x3d31ed33	0.0434391
46	0x3d81020c	0.062992185
47	0x3d7be3d1	0.06149656
48	0x3c26b2aa	0.010174433
49	0x3c653e29	0.013991871
50	0x3c48d540	0.012257874
51	0x3c6642a8	0.014053978
52	0xbdc8f63b	-0.0981259
53	0x3dac7655	0.084210075
54	0x3d870190	0.06592095
55	0x3de7594b	0.11296328
56	0x3d10b06c	0.0353245
57	0x3e3216b9	0.1739148
58	0x3d4ba7ee	0.049720697
59	0xbe019504	-0.12654501
60	0x3d7b0bae	0.061290435
61	0xbdc90b73	-0.09816637
62	0x3e02209b	0.1270775
63	0xbd6b857a	-0.05750034
64	0xbd0ab669	-0.033865366
65	0x3d0da9bd	0.034585703
66	0x3d05806d	0.03259318
67	0xbdcf23da	-0.1011426
68	0xbce5110f	-0.027962236
69	0xbe02ef43	-0.12786584
70	0x3db32184	0.08746627
71	0xbe1839f8	-0.14865863
72	0xbca28d8f	-0.019842891
73	0x3da94be2	0.082664266
74	0xbdbf86a1	-0.0935185
75	0xbe376c29	-0.17912354
76	0x3d5fa07d	0.054596413
77	0xbe265783	-0.1624432
78	0xbdf1d0ae	-0.118073806
79	0xbe0ab9d6	-0.13547453
80	0xbd0ff545	-0.035146017
81	0x3daf8387	0.08570009
82	0xbdeb4c7e	-0.11489199
83	0xbdcecdb0	-0.100978255
84	0xbdfe868d	-0.12428007
85	0xbdd6b55d	-0.10483811
86	0x3d388814	0.04505165
87	0xbdc63109	-0.096773215
88	0xbe0792b5	-0.13239558
89	0xbb9adbc7	-0.0047259065
90	0xbdeb6dfe	-0.11495589
91	0x3d645934	0.055749133
92	0xbd0bed39	-0.03416178
93	0xbd2482fc	-0.04016398
94	0xbe16c6bf	-0.14724253
95	0xbbcf8a1e	-0.0063336035
96	0xbd867c82	-0.06566717
97	0x3c11802a	0.008880654
98	0xbca1d347	-0.019754065
99	0xbdea3e2e	-0.11437641
100	0x3d218d35	0.039441306
101	0x3d83b991	0.06431878
102	0xbd3e720c	-0.046495482
103	0x3d977711	0.07395757
104	0xbd842489	-0.06452281
105	0x3d66e355	0.056369144
106	0xbd3d6c38	-0.046245784
107	0xbd9b45c5	-0.07581667
108	0x3d943b84	0.07237914
109	0xbd987283	-0.074437164
110	0xbd921c6e	-0.07134329
111	0x3d246ddb	0.04014383
112	0xbdb27a02	-0.087146774
113	0xbd657810	-0.056022704
114	0x3b4f9661	0.0031675326
115	0xbc2ec326	-0.010666644
116	0xbd53e518	-0.051732153
117	0xbcf66221	-0.030076088
118	0xbc6cbb67	-0.014448977
119	0xbd81963f	-0.06327485
120	0x3caaccd7	0.020849628
121	0xbdd0dae8	-0.10198003
122	0x3d69ebbc	0.05710958
123	0xbc61660b	-0.013757239
124	0x3dba6444	0.091011554
125	0x3d86961e	0.06571601
126	0x3dae1f29	0.08502037
127	0x3da1c3b0	0.078986526
128	0xbd383a68	-0.044977576
129	0x3d0a7d89	0.033811126
130	0x3da44805	0.08021549
131	0x3cf02493	0.029314315
132	0x3d83f96b	0.06444057
133	0xbda8f782	-0.08250333
134	0xbdf7002f	-0.12060582
135	0x3d9fffdd	0.07812474
136	0x3ca44922	0.020054404
137	0x3c94bdc7	0.0181569
138	0xbda9ad70	-0.08285034
139	0xbd16c59f	-0.03680956
140	0xbcd101f2	-0.025513623
141	0x3b997c94	0.0046840403
142	0xbc610a6d	-0.013735396
143	0xbde8e538	-0.11371845
144	0x3d93cdd4	0.07216993
145	0xbbce6d21	-0.0062996303
146	0x3c5cef94	0.013484854
147	0xbd0c4531	-0.034245674
148	0x3da44056	0.080200836
149	0x3d31d41e	0.04341518
150	0x3e3f8917	0.1870464
151	0x3d69fb60	0.057124496
152	0xbd13093d	-0.035897482
153	0xbd8dd9da	-0.069263175
154	0x3dea466c	0.11439213
155	0x3da725df	0.0816152
156	0xbdbdea14	-0.092731625
157	0xbcf2218f	-0.029557018
158	0xbc13510a	-0.008991489
159	0xbdd6bb49	-0.104849406
160	0xbcbad30a	-0.02280571
161	0x3e48944c	0.19587821
162	0x3d1b3fb9	0.037902568
163	0x3da8e206	0.082462355
164	0x3e006f96	0.12542567
165	0xbd3a0360	-0.045413375
166	0x3e5a1798	0.21298063
167	0x3dafd9a9	0.08586437
168	0x3e283b01	0.16428758
169	0x3ceb4ef7	0.028724177
170	0x3e049dec	0.12950867
171	0xbdad31df	-0.08456778
172	0x3e315383	0.17317013
173	0xbd3e9467	-0.046528246
174	0x3d69c124	0.05706896
175	0x3e4f9227	0.20270596
176	0x3e1447a7	0.14480458
177	0x3d95bbad	0.07311187
178	0x3e2bc10f	0.16772865
179	0x3e497071	0.19671799
180	0xbd2fb6ab	-0.042898815
181	0x3cc27713	0.02373842
182	0xbbe6127c	-0.0070212465
183	0xbcb6f08c	-0.022331499
184	0xbd1313b9	-0.03590748
185	0x3e3959a4	0.18100601
186	0x3d0998d5	0.033593018
187	0xbd483b4c	-0.048884675
188	0x3e127829	0.1430365
189	0xbcfc0431	-0.030763717
190	0xbc908da8	-0.017645672
191	0x3de1dc2e	0.11028324
192	0xbcd600a2	-0.026123349
193	0x3e07f14b	0.1327564
194	0x3e3ef618	0.18648565
195	0xbe07ad65	-0.13249739
196	0x3d98fe82	0.074704185
197	0x3d896a61	0.06709743
198	0x3df2cb96	0.11855237
199	0xbd3cc4f2	-0.04608626

lstm.bias_hh_l0 f4 [200]
0	0x3e27e7e0	0.16397047
1	0x3e1c490b	0.15262239
2	0xbd8e83e6	-0.069587514
3	0x3c5f9e51	0.013648585
4	0x3e0b0957	0.13577782
5	0xbcecaf8c	-0.028892301
6	0x3e34f047	0.17669784
7	0x3e3b13a3	0.1826921
8	0x3e029ab8	0.12754333
9	0xbdbe435e	-0.09290193
10	0x3dc62ce6	0.096765324
11	0x3e59bb18	0.21262777
12	0x3e406ce5	0.1879154
13	0x3daf915a	0.085726455
14	0x3e9982b4	0.2998253
15	0x3c5d3286	0.013500815
16	0x3e7f1761	0.24911262
17	0x3dba0530	0.09083021
18	0x3dacb6f7	0.08433335
19	0xbd65cf10	-0.056105673
20	0x3ddca63f	0.107738964
21	0x3e0d93d6	0.13825926
22	0x3dc4505a	0.09585638
23	0xbcae3a49	-0.021268027
24	0x3cbfe0c1	0.0234226
25	0x3ce420a9	0.027847605
26	0x3d3aa442	0.045566805
27	0x3e093f19	0.13402976
28	0x3e201011	0.15631129
29	0x3dad99ac	0.08476576
30	0x3e1ea0be	0.15491006
31	0x3d83997b	0.064257585
32	0xbb7534c1	-0.0037415477
33	0xbc940143	-0.018067008
34	0xbdc8ac01	-0.09798432
35	0x3e649f8c	0.22326487
36	0xbd28ab1d	-0.04117881
37	0xbd3b403a	-0.045715548
38	0x3e4f3379	0.20234479
39	0xbd493d1d	-0.049130548
40	0xbdd12b26	-0.10213308
41	0x3e2944fc	0.16530222
42	0xbde2ef15	-0.110807575
43	0x3e172e3b	0.1476373
44	0x3e268bb7	0.16264234
45	0xbdf0e7af	-0.1176294
46	0x3de4d2a7	0.11172991
47	0x3e13d2b1	0.14435841
48	0x3e3c55d7	0.1839212
49	0x3d4dcf50	0.050246537
50	0x3dfa4f8c	0.122222036
51	0xbdadad8a	-0.084803656
52	0x3ca9b47d	0.020715946
53	0x3d359c63	0.044338595
54	0xbd192029	-0.037384186
55	0xbdbd24a3	-0.092355035
56	0xbe14ea20	-0.14542437
57	0xbd85e223	-0.06537273
58	0x3d046c29	0.032329712
59	0x3d1bf71a	0.03807745
60	0xbd4d3c2b	-0.05010621
61	0x3d39ab49	0.045329366
62	0xbdfb1e26	-0.1226161
63	0x3d2e7043	0.04258753
64	0x3d6aa22c	0.057283565
65	0xbd9eff35	-0.07763521
66	0x3de97c27	0.11400633
67	0xbd824f1c	-0.06362745
68	0xbc5f07e6	-0.013612723
69	0xbe16b4fe	-0.1471748
70	0xbe142ac4	-0.14469439
71	0x3a84a7c0	0.0010120794
72	0xbddb854d	-0.107187845
73	0xbd296c1b	-0.041362863
74	0xbd817e4e	-0.06322919
75	0xbe212563	-0.15736918
76	0xbe39a76f	-0.18130277
77	0x3d01cba5	0.03168835
78	0xbe0ea80b	-0.13931291
79	0x3df058f9	0.1173572
80	0xbdf2e573	-0.1186017
81	0xbd61f364	-0.055163756
82	0x3cca9b3f	0.02473223
83	0xbcc06f20	-0.023490489
84	0xbd4a9f9a	-0.049468614
85	0xbe12e8b9	-0.14346589
86	0xbdabc55b	-0.08387252
87	0xbd624eaa	-0.0552508
88	0xbdd9800c	-0.10620126
89	0xbe1836cb	-0.14864652
90	0x3dd93ff8	0.10607904
91	0xbe2bb3d9	-0.16767825
92	0x3dd647e9	0.104629345
93	0x3cfb31ae	0.030663338
94	0xbe10b51b	-0.14131586
95	0xbe1a1a75	-0.15049155
96	0xbda08cbe	-0.078393444
97	0x3da532dc	0.08066341
98	0xbc09326f	-0.008373841
99	0x3d531e3b	0.051542502
100	0x3e1ed10f	0.15509437
101	0x3d7be090	0.061493456
102	0x3d8fb21a	0.07016392
103	0x3caf6b59	0.021413492
104	0xbc332e5e	-0.010936348
105	0xbc60e14d	-0.013725591
106	0xbca4c267	-0.02011223
107	0xbd60a500	-0.054844856
108	0x3d9ab63c	0.0755429
109	0x3de78457	0.11304539
110	0x3c9c0122	0.019043509
111	0xbbec2880	-0.0072069764
112	0x3d65b3de	0.056079738
113	0xbe257a69	-0.16159977
114	0xbcc8f2f1	-0.024529906
115	0xbd4ee2fc	-0.050509438
116	0x3dd8ee6a	0.10592349
117	0x3d79a02a	0.06094376
118	0xbd44c7d5	-0.048042137
119	0x3c1b5311	0.009480254
120	0xbddfc297	-0.10925787
121	0x3d7b415b	0.061341625
122	0xbd33b767	-0.043876078
123	0x3d636ce5	0.05552377
124	0x3d0c9af2	0.034327455
125	0xbd9f5d50	-0.0778147
126	0x3db1fa01	0.086902626
127	0xbda1ccbb	-0.07900377
128	0xbc9fd469	-0.019510465
129	0x3c9b98ff	0.018993853
130	0xbcef7a85	-0.029233227
131	0xbdf512b9	-0.11966462
132	0xbc011913	-0.007879513
133	0xbd2702ba	-0.040774085
134	0x3da0af27	0.07845908
135	0xbdfcd6f7	-0.12345689
136	0xbcd66699	-0.02617197
137	0x3d136733	0.03598709
138	0x3d725969	0.0591673
139	0x3a9b285d	0.0011837591
140	0x3dba4e2c	0.09096941
141	0xbda9e52d	-0.08295665
142	0x3ce69c61	0.02815074
143	0x3d8b54a1	0.06803251
144	0x3c9a357e	0.018824335
145	0xbd9e5ca7	-0.07732516
146	0x3d03c176	0.03216692
147	0xbc2ae84e	-0.010431362
148	0x3c12e60b	0.008965979
149	0xbce1d5fb	-0.027567854
150	0xbcc09594	-0.023508824
151	0xbda7046f	-0.081551425
152	0x3d684449	0.056705747
153	0xbdd616a0	-0.10453534
154	0xbd803e59	-0.06261892
155	0x3e36fd09	0.17869963
156	0xbc2210e6	-0.009891724
157	0xbc959596	-0.018259805
158	0xbb5a06ff	-0.003326833
159	0xbdc38b46	-0.09548049
160	0x3dae89b2	0.08522357
161	0x3e116333	0.14197998
162	0x3e1d9d5b	0.15392058
163	0xbd501298	-0.050798982
164	0x3dd44789	0.10365207
165	0xbc053c94	-0.008132119
166	0x3cf7cb28	0.03024824
167	0x3e49a68f	0.19692443
168	0x3e1df22c	0.15424412
169	0xbdb3099c	-0.08742067
170	0x3e0f7a85	0.14011581
171	0xbc3ae0f6	-0.011406174
172	0xbc8bba35	-0.017056564
173	0xb9c17650	-0.00036899978
174	0xbd3ed771	-0.04659218
175	0x3e7b5c23	0.24546866
176	0x3e054a0e	0.13016531
177	0x3e1858eb	0.1487767
178	0x3e556134	0.20837861
179	0x3e09b53c	0.13448042
180	0x3d6905e8	0.0568904
181	0x3de41e14	0.111385494
182	0xbd830f33	-0.063993834
183	0xbd466b98	-0.048442453
184	0x3dfd6551	0.1237284
185	0x3ea52a04	0.32258618
186	0x3d8351e5	0.064121045
187	0xbd073b0d	-0.0330153
188	0x38468601	4.733168e-05
189	0x3d80ed83	0.06295302
190	0x3d3be9ca	0.045877255
191	0xbd3e7ddf	-0.04650676
192	0xbd93729c	-0.071995944
193	0x3e3ddedf	0.1854205
194	0x3e0ea0e7	0.13928567
195	0xbdd9b9df	-0.10631155
196	0xbb9dec18	-0.0048194043
197	0x3d86cba7	0.06581812
198	0x3e3a5603	0.18196873
199	0xbd4575f7	-0.048208203

lstm.weight_ih_l1 f4 [200, 50]
0	0xbd7da824	-0.06192793
1	0xbe16ff3e	-0.14745805
2	0xbdc658b4	-0.096848875
3	0xbdb2b9d4	-0.0872685
4	0xbdc0f3db	-0.09421512
5	0x3b8f4768	0.004372526
6	0x3cca2236	0.024674516
7	0x3daccf83	0.08438017
8	0x3da8301f	0.08212303
9	0x3d548b1e	0.051890485
10	0x3d0082df	0.03137481
11	0x3d424ef4	0.047438577
12	0x3d8a802e	0.067627296
13	0xbc80809f	-0.015686331
14	0x3d85c54a	0.065317705
15	0x3e09295d	0.13394685
16	0x3d5e893d	0.0543301
17	0xbd0e9c24	-0.034816876
18	0x3db6d621	0.089275606
19	0xbd5e37d6	-0.054252468
20	0xbc981e9e	-0.018569287
21	0x3cfd24a4	0.03090126
22	0xbdbab6ff	-0.09116935
23	0xbdeb2238	-0.11481136
24	0x3d60d4c5	0.054890413
25	0xbc5fae56	-0.013652405
26	0xbbd7785d	-0.0065756277
27	0xbd824c05	-0.06362156
28	0x3d49607f	0.04916429
29	0xbdf9d077	-0.12197965
30	0x3d2a142f	0.041523155
31	0x3d4ffa33	0.050775718
32	0x3d62514a	0.055253305
33	0xbcfae021	-0.030624451
34	0xbd110d86	-0.035413288
35	0x3e1912aa	0.14948526
36	0xbcb25fb4	-0.02177415
37	0x3e16ad07	0.14714442
38	0xbd51c298	-0.05121097
39	0xbdc7d593	-0.09757533
40	0xbdbfa257	-0.09357136
41	0xbdcdb9db	-0.10045215
42	0x3dba184e	0.09086667
43	0xbd1b0d4b	-0.037854474
44	0x3d2cb6c2	0.04216648
45	0x3c60ddfe	0.013724802
46	0x3c7370e3	0.014858457
47	0x3c74cf8b	0.01494206
48	0xbd7cf6cf	-0.061758813
49	0xbdb6c418	-0.08924121
50	0x3d7c0195	0.061524946
51	0xbe50c4e9	-0.20387615
52	0x3d3cdc2d	0.046108413
53	0x3da93218	0.08261508
54	0x3cfc95ec	0.030833207
55	0x3d231e59	0.039823864
56	0xbcea4bef	-0.028600661
57	0xbc421de3	-0.011847946
58	0xbd4a1bd0	-0.04934293
59	0x3bce26f5	0.006291265
60	0x3d37a601	0.044836048
61	0x3d0d6988	0.03452447
62	0xbdb9a7c8	-0.09065205
63	0x3aea6856	0.0017883878
64	0xbd3824cf	-0.04495698
65	0x3d2de8eb	0.042458456
66	0xbe9f2f3b	-0.3109072
67	0xbddb304b	-0.107025705
68	0x3de95685	0.113934554
69	0xbdb814d5	-0.089883484
70	0x3e09a140	0.13440418
71	0x3ddf4b75	0.10903064
72	0x3cd119a4	0.025524922
73	0xbd784209	-0.06060985
74	0xbd84c820	-0.06483483
75	0x3dd8f1eb	0.10593017
76	0xbe2ca68d	-0.16860409
77	0xbd95d77d	-0.07316492
78	0x3e1ee4f5	0.15517028
79	0x3d6f4ae1	0.05842102
80	0xbc332012	-0.010932939
81	0x3c235a6e	0.009970291
82	0x3d907980	0.07054424
83	0xbd16355c	-0.03667198
84	0x3dc8430e	0.09778415
85	0x3dd18416	0.102302715
86	0xbcca2766	-0.02467699
87	0xbc547962	-0.012968393
88	0xbb802ef6	-0.003911848
89	0xbaa819fc	-0.0012825127
90	0xbd62f33b	-0.055407744
91	0xbd77a336	-0.060458384
92	0xbd9e8f68	-0.07742196
93	0x3e2034f9	0.15645207
94	0x3d5a003a	0.053222872
95	0xbde33f18	-0.110960186
96	0x3ca9ef68	0.02074404
97	0xbdb3ba66	-0.08775787
98	0xbd35c4bd	-0.044377077
99	0xbdd50e4b	-0.10403117
100	0x3d4a430c	0.049380347
101	0xbdbc2c8b	-0.091881834
102	0x3e192edf	0.14959286
103	0x3c960bf5	0.018316248
104	0x3e09cf75	0.13458045
105	0xbda9d7eb	-0.08293136
106	0x3db39973	0.087695025
107	0x3da300c7	0.07959133
108	0xbe12736f	-0.14301847
109	0x3db3adc6	0.08773379
110	0xbe215fa3	-0.15759139
111	0x3d54228b	0.051790755
112	0x3d81d52a	0.06339486
113	0xbe5685d4	-0.20949489
114	0xbe1e51e9	-0.15460934
115	0x3e2a1549	0.16609682
116	0xbe8ec3c1	-0.27883723
117	0xbdee8a64	-0.1164749
118	0x3e28ae2d	0.16472693
119	0x3e0250dc	0.12726158
120	0xbd162609	-0.036657367
121	0x3cbe2c84	0.023214586
122	0x3d55c30c	0.052187964
123	0xbdbd869b	-0.092541896
124	0xbd1f7192	-0.03892667
125	0xbe2eabeb	-0.17057769
126	0xbdcacdbe	-0.099025235
127	0x3bef3d34	0.007300997
128	0x3c0f5bae	0.0087498855
129	0xbdc90cad	-0.09816871
130	0x3db8dc6a	0.09026416
131	0x3df08e15	0.1174585
132	0x3c8e2fd1	0.017356785
133	0x3d0680ee	0.0328378
134	0x3acf7ed8	0.0015830649
135	0x3e1d5c73	0.15367298
136	0x3da519fe	0.08061598
137	0x3e0dbdcd	0.13841935
138	0x3e2b7f8b	0.16747873
139	0xbdb7f9e4	-0.0898321
140	0x3dd14600	0.102184296
141	0xbdf34a6a	-0.11879428
142	0xbca57b8a	-0.02020051
143	0x3d9d876a	0.07691844
144	0xbba511cf	-0.0050375233
145	0xbdf85ad1	-0.12126697
146	0xbd93f2ad	-0.07224021
147	0x3db0eecb	0.08639296
148	0xbd838dec	-0.06423554
149	0x3e046bcf	0.1293175
150	0x3dd62828	0.10456878
151	0xbe12c9dc	-0.14334816
152	0x3cf13838	0.029445753
153	0xbd14d3f9	-0.036334965
154	0xbc2af161	-0.010433526
155	0x3de8faf8	0.113759935
156	0xbd22ce2a	-0.039747395
157	0xbc242031	-0.010017441
158	0xbd14401f	-0.036193963
159	0xbd2e676a	-0.042579092
160	0xbd6e60fe	-0.058197968
161	0x3e02a572	0.12758425
162	0x3dcdb208	0.100437224
163	0x3d91eebc	0.07125613
164	0x3e01e5a1	0.12685253
165	0x3d49b818	0.04924783
166	0x3d8903c0	0.066901684
167	0x3d7a8983	0.061166298
168	0xbdef4f03	-0.11684992
169	0x3d468780	0.048469067
170	0x3db50ad0	0.08839953
171	0xbe13f8f9	-0.14450444
172	0x3d90bee3	0.07067659
173	0x3c6c0556	0.014405569
174	0xbd937ca9	-0.072015114
175	0xbd547a7a	-0.051874615
176	0x3c837434	0.01604662
177	0xbcabee71	-0.020987721
178	0xbbee9e6f	-0.0072820703
179	0xbb419e53	-0.0029543831
180	0x3d993dc3	0.07482483
181	0xbd924302	-0.07141687
182	0x3cd9f6a3	0.026606863
183	0x3db6172c	0.088911384
184	0xbe009786	-0.12557802
185	0x3e239cf8	0.15977848
186	0x3d840c41	0.0644765
187	0x3e2e97a3	0.17050032
188	0x3d787153	0.06065495
189	0x3d97daf9	0.074148126
190	0x3dd93669	0.10606081
191	0x3e12852e	0.14308617
192	0xbe190b65	-0.14945753
193	0x3db40002	0.08789064
194	0x3dacb5cc	0.084331125
195	0x3e100c71	0.14067246
196	0xbe018cab	-0.12651317
197	0xbce5cd87	-0.028052105
198	0x3df6cadb	0.1205041
199	0x3ce47272	0.027886603
200	0x3d26c95e	0.040719382
201	0xbd18cc3b	-0.037304144
202	0x3dcb1f6a	0.09918101
203	0x3ddd88aa	0.10817082
204	0xbddac54f	-0.10682165
205	0x3da2796c	0.07933316
206	0x3daf0d9e	0.08547519
207	0xbb465c21	-0.0030267315
208	0x3da90c22	0.08254267
209	0xbd95e599	-0.07319183
210	0x3bd83cd5	0.0065990486
211	0x3e20122f	0.15631936
212	0xbde434a3	-0.11142852
213	0x3d92f206	0.071750686
214	0xbd98896d	-0.07448087
215	0x3cd50370	0.026002616
216	0xbd7f49ae	-0.062326126
217	0xbb78b856	-0.003795167
218	0x3c9f12d7	0.019418163
219	0x3d9beac8	0.0761314
220	0x3deca0dd	0.1155412
221	0x3d93eccb	0.07222899
222	0x3dfb5751	0.12272514
223	0x3d196d68	0.037457854
224	0xbdb95b11	-0.09050573
225	0x3d5daa4a	0.05411748
226	0xbdc473b6	-0.095923826
227	0x3dd8b843	0.1058202
228	0x3c8ad442	0.016946916
229	0xbde7033d	-0.112799145
230	0xbc7d9fa4	-0.015479956
231	0x3de094e8	0.109659016
232	0xbdd5995e	-0.10429643
233	0xbcf897bf	-0.030345796
234	0xbddb90b0	-0.10720956
235	0x3e4102eb	0.1884877
236	0xbdef029f	-0.11670422
237	0x3df1b0d2	0.11801304
238	0x3e24dcf0	0.16099906
239	0x3d0eb5f1	0.03484148
240	0x3db17de2	0.08666588
241	0xbd98a266	-0.0745285
242	0xbcad0342	-0.021119718
243	0xbe042436	-0.12904438
244	0x3dfc07c2	0.12306167
245	0x3dcbc946	0.09950499
246	0x3e0cdec7	0.13756858
247	0xbcb68300	-0.022279263
248	0xbd16ba00	-0.036798477
249	0x3d863780	0.065535545
250	0x3dfe1e67	0.124081425
251	0xbe409f54	-0.18810779
252	0x3d6925b9	0.05692074
253	0xbde37ac1	-0.11107398
254	0x3d9eae96	0.077481434
255	0xbd098065	-0.033569712

lstm.weight_hh_l1 f4 [200, 50]
0	0xbd8d8bf1	-0.06911457
1	0x3d7f9b5f	0.062404033
2	0x3e241e30	0.1602714
3	0x3d4804fd	0.048832882
4	0xbd633db9	-0.055478785
5	0xbd4a2039	-0.049347136
6	0x3c538376	0.012909761
7	0x3c6e3991	0.014540092
8	0xbde7fc78	-0.113274515
9	0x3d76374c	0.06011133
10	0xbe071e5d	-0.13195176
11	0x3e13094e	0.14359018
12	0x3e06fc73	0.13182239
13	0x3d160a35	0.036630828
14	0x3d92b8f8	0.07164186
15	0xbdf429c4	-0.11922029
16	0xbd4838b2	-0.048882194
17	0x3d7e1223	0.062029015
18	0x3db13a68	0.08653718
19	0xbdfce982	-0.123492256
20	0x3da32644	0.07966283
21	0x3c0e2b40	0.008677304
22	0xbd92d57b	-0.071696244
23	0x3ad26797	0.0016052601
24	0xbde04879	-0.10951323
25	0xbdc492bc	-0.095983
26	0x3d9b85e7	0.07593899
27	0xbda8e2a7	-0.082463555
28	0xbd7fc525	-0.06244387
29	0x3da97cee	0.082757816
30	0xb9b19351	-0.0003386983
31	0xbe3062db	-0.1722521
32	0xbdb47486	-0.088112876
33	0x3cfff3f3	0.031244254
34	0x3db6cb07	0.08925443
35	0xbd62e320	-0.055392385
36	0x3dbb6cf3	0.0915164
37	0xbd7caa45	-0.06168582
38	0xbdfbc444	-0.12293294
39	0x3ddc19f0	0.10747135
40	0xbd37f31a	-0.044909574
41	0xbce3c91b	-0.027805855
42	0x3d9ffb1d	0.07811568
43	0x3c024214	0.007950325
44	0x3dbe1c72	0.09282769
45	0xbe224e3d	-0.15850158
46	0xbdad3204	-0.08456805
47	0x3ce8eccf	0.028433232
48	0x3e0d4a8b	0.13797967
49	0x3e1efd30	0.15526271
50	0xbd56a6c1	-0.052405123
51	0xbd1332f6	-0.035937272
52	0xbd8d3585	-0.06894974
53	0x3a059d44	0.0005096982
54	0x3df12065	0.11773757
55	0xbe0c140e	-0.13679525
56	0xbe0843e2	-0.13307145
57	0x3e34d3f5	0.1765898
58	0x3df5af47	0.11996322
59	0xbcd78733	-0.026309585
60	0x3dc68575	0.09693424
61	0xbc9c8b6e	-0.019109454
62	0x3dfe8d36	0.124292776
63	0xbcc4de74	-0.024031855
64	0x3d9961a4	0.074893266
65	0x3dc5d77b	0.0966024
66	0xbd36df5a	-0.0446466
67	0xbd7e93bc	-0.06215261
68	0xbdd22aa1	-0.10262037
69	0x3dd0c2c1	0.10193396
70	0x3e693900	0.2277565
71	0x3e015c20	0.12632799
72	0xbdf6d244	-0.12051824
73	0xbdafd84a	-0.08586176
74	0x3e0248ec	0.1272313
75	0x3e01c3fc	0.12672418
76	0x3dafc9e9	0.08583433
77	0xbdad3a41	-0.08458377
78	0x3da9dfe0	0.08294654
79	0xbcf12749	-0.029437678
80	0x3d7e6220	0.062105298
81	0x3caef442	0.021356706
82	0x3cc585b6	0.02411161
83	0x3dc7aabe	0.09749363
84	0xbdb165fd	-0.08662031
85	0xbd97a896	-0.07405202
86	0x3ab8b966	0.0014093339
87	0x3ddb8b14	0.107198864
88	0x3d8e4fc7	0.0694881
89	0x3de77e6a	0.113034084
90	0x3df54480	0.11975956
91	0x3ddd4e62	0.10805966
92	0xbe0c8b93	-0.13725118
93	0xbd8c0952	-0.06837715
94	0x3d5e22a3	0.05423225
95	0x3c1375e8	0.009000279
96	0x3cb5e5b1	0.022204252
97	0x3e0ee54e	0.1395466
98	0x3e07b6ad	0.13253279
99	0xbdb888e8	-0.09010488
100	0x3b49554b	0.0030721005
101	0xbd2a381a	-0.04155741
102	0xbdbb16c6	-0.09135203
103	0xbbd08723	-0.006363766
104	0xbd57cc27	-0.05268493
105	0x3d91c81a	0.071182445
106	0xbd8cfdc5	-0.0688434
107	0x3d39b0e3	0.045334708
108	0xbd7d896c	-0.061898634
109	0x3dfadb6f	0.12248885
110	0x3d8980ad	0.06713996
111	0xbe053710	-0.13009286
112	0x3da48fef	0.08035266
113	0x3d9dfd2c	0.07714304
114	0x3d9ad39e	0.07559894
115	0xbc93d7e7	-0.018047286
116	0x3d3d26d1	0.046179596
117	0x3d4d2cdd	0.050091613
118	0xbd72b4a4	-0.059254304
119	0x3df519ef	0.11967837
120	0x3e644be6	0.22294578
121	0xbcd94add	-0.026524955
122	0xbbbb0540	-0.005707413
123	0x3db34bfa	0.08754726
124	0xbc4b9f16	-0.012428066
125	0x3da1eb82	0.07906248
126	0xbde5cac3	-0.11220314
127	0x3df389e9	0.11891539
128	0xbe0124db	-0.12611715
129	0x3e113b24	0.14182717
130	0xbdbc0618	-0.0918085
131	0xbd9c9e00	-0.076473236
132	0xbd1b863c	-0.037969813
133	0x3d7d2cc4	0.06181027
134	0xbdbe2c07	-0.09285741
135	0x3cf011e6	0.02930541
136	0x3c32f7eb	0.010923366
137	0xbe2f06c6	-0.17092428
138	0xbd848118	-0.06469935
139	0x3e2b6864	0.1673904
140	0x3d02495c	0.031808242
141	0xbdf66ffd	-0.12033079
142	0x3b851091	0.0040608128
143	0x3cad188f	0.021129875
144	0xbd4f568a	-0.05061964
145	0xbe52b0a6	-0.20575199
146	0xbddfa5e1	-0.10920311
147	0xbe02fc6f	-0.12791608
148	0x3d0c8d9e	0.034314744
149	0x3de26520	0.11054444
150	0xbd855443	-0.06510212
151	0x3ba6c5e3	0.005089508
152	0x3e09a981	0.13443567
153	0x3df0bed7	0.1175515
154	0xbdedded3	-0.11614766
155	0x3de3b0d7	0.11117714
156	0xbe3aeb9d	-0.18253942
157	0x3dc3e37c	0.095648736
158	0x3d458ef8	0.04823205
159	0xbe28633a	-0.16444102
160	0xbd30d4b3	-0.043171596
161	0xbd96d047	-0.073639445
162	0xbdb4d457	-0.08829563
163	0xbcc33b07	-0.023831857
164	0xbd56af55	-0.052413303
165	0xbe2811ed	-0.16413088
166	0xbde1f9a1	-0.11033941
167	0xbdf9c3a8	-0.121955216
168	0xbd046c6c	-0.03232996
169	0xbe288cf4	-0.1646002
170	0xbc5b4275	-0.013382544
171	0x3d67b319	0.056567285
172	0x3dbe2ceb	0.09285911
173	0x3e5b29fc	0.21402735
174	0xbd887d02	-0.06664468
175	0x3cd5ff5c	0.026122741
176	0xbab3c432	-0.0013715087
177	0xbe2aa268	-0.16663516
178	0xbdbeff31	-0.09326018
179	0x3c371f7a	0.011176938
180	0x3c109721	0.008825094
181	0x3dde4476	0.10852902
182	0x3e1faec7	0.15594016
183	0xbd872d34	-0.06600419
184	0xbda02c5a	-0.078209594
185	0xbe1a7848	-0.15084946
186	0x3d08b201	0.033372883
187	0x3da755b0	0.081706405
188	0xbde314dd	-0.11087964
189	0x3dbff4a4	0.09372833
190	0xbd3596f4	-0.044333413
191	0x3dfef7af	0.12449586
192	0xbd9df684	-0.07713035
193	0x3e01ceb0	0.12676501
194	0xba0a0187	-0.000526451
195	0xbdecdd43	-0.1156564
196	0xbd7155cd	-0.058919717
197	0x3d91d387	0.07120424
198	0x3d87b9f1	0.066272624
199	0x3e214277	0.1574801
200	0x3d878686	0.06617455
201	0x3c3ed8ba	0.011648351
202	0x3d08151c	0.033223256
203	0xbc85f493	-0.016351974
204	0xbe27194c	-0.16318244
205	0xbd52a105	-0.05142309
206	0xbd35883b	-0.044319373
207	0x3cd64c22	0.02615935
208	0xbc1cf2b1	-0.0095793465
209	0xbd3bebbd	-0.045879114
210	0xbcf5abd4	-0.02998916
211	0xbcd106da	-0.025515962
212	0x3d9b13c1	0.07572127
213	0xbda03674	-0.07822886
214	0xbe0419d6	-0.1290048
215	0xbbe1659e	-0.006878569
216	0x3bafffe9	0.005371083
217	0x3d32bd17	0.04363736
218	0xbd0b4f3f	-0.03401112
219	0xbbf4dbad	-0.0074724765
220	0x3e25eddf	0.16204022
221	0xbd256c21	-0.040386323
222	0xbd27b421	-0.04094327
223	0xbd164469	-0.036686335
224	0xbbc48222	-0.0059969584
225	0x3d248168	0.040162474
226	0x3c1445f6	0.009049883
227	0xbdee1c8a	-0.11626537
228	0x3d8387f9	0.06422419
229	0xbdd99523	-0.10624149
230	0xbd8ded53	-0.069300316
231	0xbd4d252d	-0.05008428
232	0x3d354cd2	0.044262715
233	0xbe26fea7	-0.1630808
234	0xbe170cb6	-0.14750943
235	0xbddf7d36	-0.10912554
236	0x3dd85201	0.10562516
237	0xbde89323	-0.11356189
238	0x3da2b004	0.079437286
239	0xbc27c048	-0.0102387145
240	0xbdb00a0f	-0.085956685
241	0x3cafc8e6	0.0214581
242	0xbcb27efb	-0.021789065
243	0xbde8045c	-0.113289565
244	0x3e0e18d1	0.13876654
245	0xbc3acc9b	-0.011401321
246	0x3c71b20d	0.014751923
247	0xbe0cdfc8	-0.13757241
248	0x3dddf8ce	0.10838471
249	0x3c53f167	0.012935973
250	0x3d35513e	0.04426693
251	0xbdc2f5bb	-0.095195256
252	0x3cd92c08	0.026510254
253	0x3d925d8c	0.07146749
254	0xbd6d22f0	-0.057894647
255	0xbd279072	-0.04090924

lstm.bias_ih_l1 f4 [200]
0	0xbd47fd93	-0.04882581
1	0x3e3374f9	0.1752509
2	0x3d692303	0.056918155
3	0x3da203ac	0.079108566
4	0x3daa2b07	0.08308988
5	0x3e2506fe	0.16115949
6	0xbc53342c	-0.012890857
7	0x3db2db47	0.0873323
8	0x3de7081b	0.11280843
9	0xbe0ffb6f	-0.14060758
10	0x3dbdb6be	0.09263371
11	0xbcbffe5f	-0.023436723
12	0x3a293b02	0.0006455631
13	0x3d0db7e1	0.03459919
14	0x3d883b0a	0.06651886
15	0xbda83b58	-0.08214444
16	0x3d680f86	0.05665543
17	0xbdcf120f	-0.10110866
18	0xbdc6702c	-0.09689364
19	0x3d4008eb	0.046883505
20	0x3d58803a	0.05285666
21	0xbcb1bf55	-0.02169768
22	0x3db2d2db	0.08731624
23	0xbde3dbdc	-0.11125919
24	0xbdbb9cb6	-0.091607496
25	0xbddf194a	-0.108934954
26	0x3e118def	0.142143
27	0xbd56ab43	-0.05240942
28	0xbcb410bf	-0.021980641
29	0x3e673e70	0.22582412
30	0x3d992d34	0.07479325
31	0xbd98f9ab	-0.074694954
32	0x3d8368a2	0.064164415
33	0xbd0fa424	-0.035068646
34	0xbd30477c	-0.043036923
35	0xbdab11d4	-0.0835301
36	0x3e085897	0.13315044
37	0xbd81e302	-0.063421264
38	0x3cda4169	0.026642518
39	0x3d868c6b	0.06569751
40	0x3cf88111	0.030334981
41	0x3b3b74c7	0.002860354
42	0x3d345e0f	0.044035014
43	0xbd47145f	-0.04860341
44	0xbdc7b47e	-0.09751223
45	0xbdcb6acc	-0.09932479
46	0x3de0585e	0.10954355
47	0x3dfd1e0f	0.12359249
48	0xbcaf08b7	-0.02136646
49	0x3e078695	0.13234933
50	0x3ce1c500	0.027559757
51	0xbdc9357d	-0.09824655
52	0xbe345f67	-0.17614518
53	0xbd31f54c	-0.043446824
54	0x3cee8644	0.029116757
55	0x3ab789eb	0.0014002895
56	0xbd795aa8	-0.060877472
57	0xbd5218d5	-0.051293213
58	0x3cff175d	0.03113907
59	0x3dba21ca	0.09088476
60	0x3d4c34a0	0.049854875
61	0x3dda903c	0.10672042
62	0x3d53e0a0	0.05172789
63	0xbb47da7c	-0.0030495217
64	0x3e04e12e	0.12976524
65	0xbcffbd39	-0.031218158
66	0x3c4c7632	0.012479352
67	0xbdd5a2ef	-0.10431468
68	0x3dda3dc7	0.10656314
69	0xbb1c17b8	-0.0023817848
70	0x3defda96	0.11711614
71	0x3d117376	0.035510503
72	0x3e123c0f	0.14280723
73	0xbe12265f	-0.1427245
74	0xbdfb2681	-0.122632034
75	0x3d640d2e	0.05567663
76	0x3daf1a4c	0.085499376
77	0x3d49ede2	0.04929913
78	0xbda79818	-0.081833065
79	0x3d3779bd	0.044793833
80	0x3d852646	0.06501441
81	0xbd5885ee	-0.0528621
82	0xbd094f1b	-0.033522706
83	0x3c455dbd	0.012046275
84	0x3db38af1	0.08766735
85	0xb9f6136a	-0.0004693524
86	0xbd209b42	-0.039210565
87	0x3c7d557f	0.015462278
88	0x3e0a4ee9	0.13506664
89	0x3c3a70b5	0.0113794105
90	0x3d804ace	0.06264268
91	0x3e0497bf	0.12948512
92	0x3dfd2659	0.1236083
93	0x3deb980d	0.11503611
94	0xbd341dc0	-0.043973684
95	0x3d8cde60	0.06878352
96	0xbd8bdf42	-0.068296924
97	0x3dcbb21a	0.099460796
98	0x3d81154a	0.06302889
99	0xbd682b55	-0.05668195
100	0x3d588506	0.052861236
101	0x3cfbfe3a	0.030760873
102	0x3d2367ee	0.039894037
103	0xbbc2b956	-0.005942504
104	0x3d814243	0.063114665
105	0xbd98af1d	-0.07455275
106	0x3d3dba4b	0.04632024
107	0x3d0b394c	0.03399019
108	0xbd9e2d27	-0.07723456
109	0xbddd6771	-0.108107455
110	0x3dbc7ba0	0.09203267
111	0x3cdaa725	0.026691029
112	0x3d8a9b7e	0.06767939
113	0xbd4b76f6	-0.049673997
114	0x3c8d8845	0.017276892
115	0x3c95b289	0.018273609
116	0x3de56d01	0.112024315
117	0x394115f3	0.00018414091
118	0x3c8ef894	0.017452516
119	0x3dad75fb	0.084697686
120	0x3d9631c3	0.0733371
121	0xbd9b322f	-0.07577931
122	0x3cf4a54c	0.029863976
123	0x3d94a169	0.07257349
124	0x3be87873	0.007094437
125	0x3daad579	0.08341498
126	0xbcf84121	-0.030304493
127	0xbd90c39b	-0.07068559
128	0x3daa3dd7	0.08312576
129	0xbba467c2	-0.0050172517
130	0xbcadff58	-0.021239921
131	0xbd985c54	-0.07439485
132	0xbd4c5188	-0.04988244
133	0xbdf8a325	-0.12140492
134	0x3d6c2ec6	0.057661794
135	0xbd502e0f	-0.050825175
136	0x3de92cfa	0.11385532
137	0xbdecd62d	-0.11564288
138	0x3c43242e	0.011910481
139	0x3c8195ee	0.015818562
140	0xbd0c1c8a	-0.034206904
141	0x3d82d343	0.06387951
142	0x3d965130	0.07339704
143	0xbd53c501	-0.05170155
144	0x3d3744b2	0.044743247
145	0xbd9fa4a2	-0.07795073
146	0x3dc68d04	0.09694865
147	0xbdada7cc	-0.0847927
148	0x3d49b9ed	0.04924958
149	0x3d849ce6	0.064752385
150	0x3df4122a	0.11917527
151	0x3e363748	0.17794526
152	0xbc8d5d72	-0.017256472
153	0x3e1386ed	0.14406939
154	0xbd99af1a	-0.07504101
155	0x3d94691f	0.07246613
156	0x3c0c8fbe	0.008579193
157	0x3e0f57b7	0.13998304
158	0x3e388671	0.18020035
159	0xbd5137b4	-0.051078513
160	0x3cd72589	0.026263015
161	0xbd55f28a	-0.052233256
162	0x3d666cf4	0.05625625
163	0xbda353e0	-0.07974982
164	0x3d79ff5b	0.06103454
165	0xbdb3ca75	-0.0877885
166	0xbdc8551a	-0.09781857
167	0x3dbdf968	0.09276086
168	0x3d57ca71	0.052683298
169	0x3d8b70ca	0.06808622
170	0x3d3426d5	0.043982346
171	0x3da0c2b2	0.07849635
172	0xbdc54889	-0.096329756
173	0xbd6bc058	-0.05755648
174	0x3dca7101	0.09884835
175	0x3e061bf1	0.13096596
176	0x3d82b5fc	0.06382367
177	0xbdc764c8	-0.097360194
178	0x3e244964	0.16043621
179	0x3a328aea	0.0006810861
180	0x3e0e3f4a	0.1389133
181	0x3e05a4ba	0.1305112
182	0x3d9c1497	0.07621115
183	0xbda31196	-0.079623386
184	0x3d26d043	0.040725958
185	0x3de437bd	0.11143444
186	0xbbce22dd	-0.006290777
187	0xbdfc7571	-0.12327088
188	0x3e17c3a0	0.14820719
189	0xbd867c2d	-0.065666534
190	0x3de55528	0.11197883
191	0xbc167410	-0.009182945
192	0xbd3d9f29	-0.046294365
193	0x3e14a4c0	0.14515972
194	0x3d732049	0.05935696
195	0x3c78612b	0.015159885
196	0x3caf84ec	0.021425687
197	0x3de533cd	0.11191521
198	0x3dbd1ae9	0.09233648
199	0xbdf77677	-0.12083142

lstm.bias_hh_l1 f4 [200]
0	0xbbcad054	-0.0061893854
1	0x3db1e763	0.08686712
2	0xbd65c223	-0.056093346
3	0xbdfee8fa	-0.124467805
4	0x3e3aac76	0.18229851
5	0xbd94985d	-0.072556235
6	0xbd8d4d51	-0.068995126
7	0x3dc99729	0.09843285
8	0xbd9a2b8f	-0.075278394
9	0x3cce6fd9	0.025199817
10	0x3e134681	0.14382364
11	0x3d1497d0	0.036277592
12	0x3db13510	0.08652699
13	0xbc6dce54	-0.0145145245
14	0x3e1b70d0	0.15179753
15	0x3da9fb58	0.08299893
16	0x3e0787ff	0.13235472
17	0x3e0646ca	0.13112941
18	0x3db568c0	0.0885787
19	0xbbbb072d	-0.0057076425
20	0xbd1deeca	-0.038557805
21	0xbd5e4704	-0.054266945
22	0x3d02f4e7	0.03197184
23	0x3dbec849	0.09315545
24	0x3c0d7b61	0.008635373
25	0xbd6a92b4	-0.057268813
26	0xbd134f87	-0.035964515
27	0xbdd415b3	-0.10355701
28	0x3de633be	0.11240338
29	0x3c33eba5	0.010981475
30	0x3d6dc601	0.05805016
31	0x3e12f6cd	0.1435196
32	0xbd58d7ec	-0.052940294
33	0x3d02b9bb	0.031915408
34	0x3d6e7b05	0.05822279
35	0xbd5b0b91	-0.053477827
36	0x3e2b535a	0.16731015
37	0xbd8cccd7	-0.068750076
38	0x3d328cfe	0.043591492
39	0x3cab0e35	0.020880798
40	0xbcd35f7a	-0.025802363
41	0x3dfc55de	0.12321065
42	0xbd9f657c	-0.077830285
43	0x3dad5ece	0.08465348
44	0x3e16bc32	0.14720228
45	0x3d430284	0.04760982
46	0xbd5810ed	-0.052750517
47	0x3c25d095	0.010120531
48	0x3e00500d	0.12530537
49	0xbd4d7d58	-0.050168365
50	0x3d443a80	0.047907352
51	0xbcdd9e86	-0.027053129
52	0x3db31d72	0.087458506
53	0x3d08d7e1	0.033409003
54	0x3dbd236f	0.09235274
55	0xbdf26483	-0.11835577
56	0xbd52467b	-0.051336747
57	0x3d3fec98	0.046856493
58	0xbdaf26a5	-0.08552293
59	0xbcb5cb4c	-0.022191666
60	0xbd686c0d	-0.05674367
61	0x3e3a51e4	0.18195301
62	0xbcbda577	-0.023150189
63	0xbdfe41aa	-0.12414868
64	0x3e07189c	0.13192981
65	0x3d16e9ac	0.03684394
66	0xbdd3de1d	-0.10345099
67	0xbe0d0af8	-0.13773715
68	0x3c4f3577	0.012647024
69	0xbd07f76a	-0.033194937
70	0xbdef8c2b	-0.11696657
71	0xbdd749b9	-0.10512108
72	0xbd8ce0b4	-0.06878796
73	0xbdf85bda	-0.12126894
74	0x3d24730c	0.04014878
75	0x3e0483ad	0.12940855
76	0xbd5ef885	-0.054436225
77	0xbd7b0de3	-0.06129254
78	0x3d3f69f6	0.04673191
79	0x3db152b2	0.08658351
80	0x3e13944e	0.14412042
81	0x3d9748ef	0.07386958
82	0xbdb02ea1	-0.08602644
83	0x3d282ac0	0.041056395
84	0x3dff764a	0.12473734
85	0x3d4e6dcb	0.050397675
86	0xbc6b3939	-0.014356905
87	0x3dc123cf	0.09430658
88	0xbdc2e05b	-0.09515449
89	0xbdebe68c	-0.11518583
90	0x3db0fa43	0.08641484
91	0x3d30b42f	0.043140586
92	0x3dd2c307	0.10291105
93	0xbd2af837	-0.041740622
94	0xbdbed42f	-0.093178146
95	0x3ccff608	0.025385872
96	0xbcad7234	-0.02117262
97	0x3d86d711	0.065839894
98	0x3c53fa72	0.012938129
99	0x3dd68fd5	0.104766525
100	0xbd3e41bc	-0.046449408
101	0xbde42016	-0.111389324
102	0xbdd449f9	-0.10365672
103	0x3d69dd3f	0.057095762
104	0xbde5af5c	-0.11215088
105	0x3de4952c	0.11161265
106	0xbbf74e66	-0.0075471876
107	0x3dcbea0b	0.099567495
108	0x3c98d367	0.018655492
109	0x3e10f533	0.14156036
110	0xbde32150	-0.11090338
111	0x3d6faa8f	0.058512267
112	0x3cd154e7	0.02555318
113	0x3cfdd0db	0.03098338
114	0xbda27abe	-0.079335675
115	0x3bcc513c	0.00623527
116	0xbd9bbedb	-0.07604762
117	0xbd587413	-0.052845072
118	0xbd643b82	-0.055720814
119	0xbd6c1577	-0.057637658
120	0xbd1ac929	-0.037789498
121	0xba3e882c	-0.0007268216
122	0x3dafdc09	0.0858689
123	0xb9e6f838	-0.00044053956
124	0xbd99b21f	-0.07504677
125	0x3d93f6fb	0.07224842
126	0xbd9c1279	-0.07620711
127	0x3d1a6b77	0.037700143
128	0xbdf2c7dd	-0.11854527
129	0x3c782e12	0.015147703
130	0x3d0358cd	0.03206711
131	0x3db097a3	0.086226724
132	0x3d0e2681	0.03470469
133	0x3d8147c5	0.06312517
134	0xbdce2a91	-0.10066713
135	0xbb2361a3	-0.0024930022
136	0xbd3bc458	-0.045841545
137	0x3db7c6a3	0.08973434
138	0xbd54fcba	-0.05199883
139	0x3d828223	0.06372478
140	0x3b6b657f	0.003591865
141	0x3c65ee21	0.014033825
142	0xbdb173dd	-0.08664677
143	0xbdbb4895	-0.09144703
144	0x3c2bb86d	0.010480982
145	0xbd31dc01	-0.043422703
146	0xbdfed460	-0.12442851
147	0x3c456b14	0.012049455
148	0xbc0cf1dd	-0.008602587
149	0xbd8237d7	-0.06358307
150	0x3dd61c0e	0.1045457
151	0x3e37aed3	0.17937784
152	0x3c0b5012	0.008502977
153	0x3dd6fe1f	0.104976885
154	0x3cdc8983	0.02692104
155	0x3c61c2c9	0.013779351
156	0xbd1810ab	-0.03712527
157	0x3b9e55f4	0.0048320238
158	0xbc481d79	-0.012214058
159	0xbc979df1	-0.01850793
160	0x3d00902b	0.03138749
161	0x3ce12426	0.027483057
162	0x3d8e960e	0.069622144
163	0x3dac8c7d	0.084252335
164	0xbb907d12	-0.004409441
165	0xbd190764	-0.037360564
166	0xbd6f6791	-0.058448378
167	0x3d29dcee	0.04147046
168	0xbdcc9040	-0.09988451
169	0x3d9c4c35	0.07631723
170	0xbd930e06	-0.07180409
171	0xbd899f6a	-0.06719859
172	0x3c9f06df	0.019412456
173	0xbd099903	-0.03359319
174	0x3da52591	0.08063806
175	0x3c8a32e4	0.01686997
176	0xbc802fcb	-0.01564779
177	0x3d420643	0.047369253
178	0x3daac564	0.083384305
179	0x3e0645db	0.13112585
180	0x3c455b77	0.012045733
181	0x3c95b0f4	0.018272854
182	0x3dda3b86	0.106558844
183	0xbabdf54e	-0.0014492662
184	0xbd448348	-0.047976762
185	0xbdd92914	-0.10603538
186	0x3dc9e0ab	0.09857305
187	0x3ddb0c4d	0.106957056
188	0x3deab723	0.11460712
189	0x3d854c54	0.06508699
190	0xbc81361b	-0.01577287
191	0xbc7c925b	-0.015415753
192	0x3d8a1e76	0.06744091
193	0x3dbc1a95	0.091847576
194	0xbd08ecd1	-0.03342897
195	0x3d94732b	0.07248529
196	0x3e22eaa1	0.15909816
197	0x3e0f21c1	0.1397772
198	0x3dd0a5e1	0.10187889
199	0x3dd68ef2	0.104764834

fc.1.weight f4 [1, 50]
0	0x3dcfc79c	0.10145494
1	0x3e2a6ad0	0.16642308
2	0x3e242b6f	0.16032194
3	0xbe047e3e	-0.12938783
4	0x3dd53c2f	0.1041187
5	0x3e1fd2a9	0.15607704
6	0xbe008abd	-0.12552924
7	0xbdbe03a4	-0.09278038
8	0x3e00ba02	0.12570956
9	0xbdb82e15	-0.089931644
10	0xbe0153f1	-0.12629677
11	0x3d919d42	0.07110073
12	0xbe167dea	-0.1469647
13	0x3e3e39a2	0.18576673
14	0xbde67b0c	-0.11253938
15	0xbe28b22c	-0.16474217
16	0xbe11f006	-0.14251718
17	0x3de28b18	0.11061686
18	0xbe281e50	-0.16417813
19	0xbdc7145d	-0.09720681
20	0xbe1ee08e	-0.15515348
21	0x3e01ab4d	0.12663002
22	0x3dae68f8	0.08516115
23	0x3e20bdd8	0.1569742
24	0xbdc41d42	-0.09575893
25	0xbdca3ff0	-0.09875476
26	0xbdd9c58c	-0.10633382
27	0xbe065aa3	-0.13120513
28	0x3dd5255b	0.104075156
29	0x3e3638fd	0.17795177
30	0xbdc08947	-0.094011836
31	0xbe322531	-0.17397
32	0x3de021d6	0.10943954
33	0x3ddc2392	0.10748972
34	0x3dfebf25	0.12438802
35	0xbe03359b	-0.12813418
36	0xbdf99991	-0.121874936
37	0x3e18ce01	0.14922334
38	0xbdfc604b	-0.12323054
39	0xbdf4f372	-0.11960496
40	0xbdfb0294	-0.12256351
41	0x3e06354b	0.13106267
42	0xbe1f4798	-0.15554655
43	0x3dbabe68	0.09118348
44	0x3e0e2566	0.13881454
45	0x3e088955	0.13333638
46	0x3db2d687	0.08732324
47	0x3de4d245	0.11172918
48	0xbdb312ad	-0.087437965
49	0x3df60840	0.12013292
