trained-models/last_lstm.pt (torch, 390606 bytes, 27 tensors)

lstm.weight_ih_l0 f4 [200, 4]
000000 0b c9 3a bd 24 2d 29 be 9b d0 35 bd 59 27 8e bd
       -0.045601886 -0.16521126 -0.044388395 -0.06941099
000010 0d 2c 18 be 10 45 26 be df 7a 7a be cb 93 2a 3b
       -0.14860554 -0.16237283 -0.24460934 0.0026028033
000020 ff e1 fa bc 0b f5 15 3e 86 a4 a3 3d 8b a6 1f 3e
       -0.030625341 0.14644258 0.07990365 0.15590875
000030 77 26 3b 3d 53 8a b8 3d 82 01 b2 bd 27 85 b2 bd
       0.04569098 0.09010758 -0.08691694 -0.08716803
000040 da 84 3c bd 0a 16 cf 3d 3a 60 59 bd b6 89 9a bd
       -0.046025135 0.101116255 -0.053070284 -0.075457975
000050 23 73 94 bd 68 b6 df bd 18 6e 2c be fb 3f 9a 3d
       -0.07248523 -0.10923463 -0.16838872 0.075317346
000060 82 c1 73 3d a8 1f d4 3d db 20 71 3d 61 8a d2 3d
       0.059510715 0.103576005 0.058869224 0.102803
000070 8d e2 0b bd cd 20 05 be 82 d2 a5 3d 5b 8d e9 bc
       -0.034151603 -0.13000794 0.08096792 -0.028509786
000080 2c ab 12 3e 5f 5f 25 bd 12 0f c2 3d a5 b5 06 3e
       0.1432311 -0.040374156 0.09475531 0.1315523
000090 3c b7 03 bd 33 8c 09 be 07 bd 38 bd cd 80 86 3d
       -0.032157168 -0.13432388 -0.045102146 0.065675355
0000a0 34 3e 91 3d 24 cd dd 3d 94 bf f4 bd c4 6c 89 bd
       0.070919424 0.10830143 -0.11950603 -0.067101985
0000b0 07 25 2a bd c2 7a e9 bc 4a 0a 9c 3c 0f 6f 60 3d
       -0.04153922 -0.028500918 0.019047875 0.054793414
0000c0 73 c4 1c 3e f9 44 9b 3d 3a 9d d8 3d cc bd 8c bd
       0.15309314 0.07581515 0.105768636 -0.068721384
0000d0 56 4e 86 3d 2e d2 3a ba bf e5 06 3e 0d 5e 4d 3d
       0.0655791 -0.0007126656 0.13173579 0.050138522
0000e0 a2 5b 95 3d 01 00 9c 3d 54 ae 15 3e 01 3f 90 bd
       0.07292868 0.07617188 0.14617282 -0.07043267
0000f0 70 96 ac 3c bb 33 29 3d 2d c4 d4 bd 95 8f c7 3d
       0.021067828 0.0413091 -0.1038898 0.09744183
000100 23 b4 1d 3c ff ca 5c bd 9d 47 53 bc 7a 14 c1 3d
       0.0096254675 -0.05390453 -0.012895492 0.09427734
000110 d5 57 26 bd 10 4f 43 3c 5b b5 b7 bc 75 a6 30 3d
       -0.040611107 0.011920705 -0.022425344 0.043127496
000120 a2 73 3f bd 47 6e 01 3e e6 ce 90 bd 61 76 a6 bc
       -0.046741135 0.12639724 -0.07070713 -0.02032012
000130 93 a0 fd bd 17 49 1e be 82 98 51 3c ec bb 47 3d
       -0.12384143 -0.15457569 0.012792708 0.0487632
000140 77 55 b2 bc db 26 5b bd 2f 39 96 bd 8a cd 96 bd
       -0.021769268 -0.053503852 -0.07335126 -0.07363422
000150 60 0a 81 bc ea c8 01 be 2c 9a d8 bc 40 50 cc 3d
       -0.015752017 -0.12674299 -0.026440702 0.09976244
000160 ce 7f cf bc a1 8f d1 3d 37 66 e5 3d d4 bb 86 3d
       -0.025329497 0.10232473 0.112011366 0.06578794
000170 7a 0f 3a 3d 5e b7 5a 3e 1e 5e a0 3d ca fc 69 3e
       0.045424916 0.21359012 0.078304514 0.22850338
000180 64 43 b9 bd a5 5d af bd 02 35 45 bd b8 54 07 be
       -0.09046057 -0.08562783 -0.048146255 -0.13215911
000190 f6 d9 2e bd 1d 16 17 be 38 a6 2b bd a4 7a fc 3b
       -0.042688332 -0.1475453 -0.041906565 0.0077050496
0001a0 38 1a 9d bc a8 47 1b 3e 8e 2d 97 3c c6 e8 a8 bc
       -0.019177541 0.15164053 0.01845434 -0.020618808
0001b0 6e fd 3f 3e 62 da 5e 3e 41 35 08 3e 24 34 30 3d
       0.1874902 0.21762994 0.13301565 0.043018475
0001c0 d2 7a b5 bd dd 0c d1 3d 4b 74 09 bd 4f e7 f7 bd
       -0.08861317 0.102075316 -0.03355817 -0.121046655
0001d0 18 de 95 bd 6b 3f 3f be bf 62 dd bd 45 68 20 be
       -0.07317752 -0.18676536 -0.1080985 -0.15664776
0001e0 a3 19 3e bd 1d af 08 3e 8e d7 66 3d ab 8c e0 bc
       -0.046411168 0.1334805 0.056357913 -0.027410826
0001f0 c0 f0 62 bd 7b 92 93 3d cd 5a 07 3e 59 22 61 3d
       -0.05540538 0.07205673 0.13218231 0.054964397
000200 b9 68 ab bc b8 cd 81 3d 01 20 4e bc a4 1e 15 3e
       -0.02092396 0.06338066 -0.0125808725 0.1456247
000210 dd 4d dd 3d bc 05 8d bb 1b ff f5 3c 1f 42 10 3e
       0.10805867 -0.004303662 0.03002887 0.14087723
000220 03 e6 62 be 2e 39 58 bd 78 03 d0 bd 6b be 88 bd
       -0.22158055 -0.052788906 -0.101569116 -0.06676944
000230 6e c3 2f bd ed 96 06 3d 8d d4 dc bc 3d c9 30 bd
       -0.042910986 0.032858778 -0.02695682 -0.043160666
000240 e6 6e 02 be 10 dd af bd e1 d6 93 3d cc ab 06 3e
       -0.12737617 -0.08587086 0.07218719 0.13151473
000250 5c a0 0f be 2c ec ee 3c 7f 43 20 be 1a a7 80 bd
       -0.14026016 0.02916535 -0.15650748 -0.06281872
000260 7a c5 55 3d eb 18 f9 bb 27 29 2b 3e 73 ad 05 3d
       0.05219028 -0.0076018474 0.16714917 0.032636117
000270 57 54 15 3e 59 08 77 3b 9e 4c 82 3d 1d 7d 80 bd
       0.14582954 0.0037694185 0.0636227 -0.062738635
000280 0a f8 f0 3c 66 b1 6b 3d 5c 2c 6e 3c d0 34 37 be
       0.02941515 0.057542227 0.014536943 -0.1789124
000290 8e fc 29 bd 3a 77 14 3e 5c 62 da bd fd 9d 8c bd
       -0.04150062 0.14498606 -0.10663292 -0.068660714
0002a0 ba 22 ba bd 1d ff 34 be 22 8e 39 3d 25 b0 0d be
       -0.09088655 -0.17675443 0.045301564 -0.13836725
0002b0 9e f7 38 3e cf 32 33 3e 1b d1 18 3e ab 18 3a 3e
       0.18063208 0.1749985 0.14923517 0.18173473
0002c0 48 eb 22 bd d2 b2 f3 bc aa 38 90 bc a2 64 0e 3d
       -0.039775163 -0.029748354 -0.017605145 0.03476394
0002d0 00 ee fe bc ac e7 87 bc 9e 23 e8 3d cd 77 c7 3d
       -0.031119347 -0.016589962 0.113349184 0.09739647
0002e0 87 5e 53 bd 84 cf bd bd f3 78 63 bd 7f 32 80 bc
       -0.05160382 -0.09268096 -0.055535268 -0.015649078
0002f0 71 05 16 3c 9c 4f a6 3d e9 b8 6e 3c 89 04 bf 3d
       0.009156571 0.08120653 0.014570453 0.09327037
000300 ac 42 3a bd f8 05 a2 3c c9 ee 07 3d 58 14 a1 3d
       -0.04547374 0.019778237 0.033186708 0.078652084
000310 dc 53 48 3d 1f f0 9f 3d 2b e0 c4 bc fc d3 b2 bd
       0.0489081 0.07809471 -0.024032673 -0.08731839
000320 7f f4 b3 bd 30 3c 39 be 16 4f 06 3d ee b4 0c bc
       -0.08786868 -0.18089366 0.032790266 -0.008588059
000330 b4 cd ec bd 48 6a 88 bd 6c 38 cb 3c f7 96 34 be
       -0.11562672 -0.066608965 0.024807177 -0.17635714
000340 e7 e2 be bd eb 97 3d bb 30 cb 66 3d ee 40 15 3e
       -0.09320622 -0.0028929661 0.05634612 0.1457555
000350 37 2d 99 3d a4 3f 2f be 07 9e ad 3c 86 65 37 3c
       0.07479327 -0.1711412 0.021193517 0.011193639
000360 dd 75 18 bc 3d 16 b7 bd 07 14 7d 3c f8 93 9c bc
       -0.009305445 -0.089397885 0.015446669 -0.019113526
000370 cf d9 c0 bc e6 ce 6d bd da 29 16 be c1 ac 48 bd
       -0.02354136 -0.05805864 -0.14664403 -0.048992876
000380 3d 14 0e 3d fb da c9 bc d5 86 48 3d cc 16 a9 bc
       0.03468727 -0.02464055 0.04895671 -0.020640753
000390 9e 69 5b 3c 98 62 ef bd f0 82 b4 bd 9c 86 c1 bd
       0.01339188 -0.11688727 -0.08814037 -0.09449503
0003a0 a9 50 20 3d c7 89 54 3d 98 e0 0e bb d7 49 38 bd
       0.039139424 0.051889207 -0.0021801349 -0.044992294
0003b0 20 89 93 bd 58 f4 16 3d d4 45 e8 bc 29 be 12 be
       -0.07203889 0.036854118 -0.02835361 -0.14330353
0003c0 ed 6b a2 3d f9 ad 0d 3e 1b 4d 0a 3e 83 28 61 bd
       0.079307415 0.13835897 0.13505976 -0.054970276
0003d0 0e 80 3a bd da ec c1 3d ae 39 f6 3d 62 fd b4 bd
       -0.04553228 0.09469004 0.1202272 -0.088373914
0003e0 d7 69 ba 3d 63 b1 8b 3d 6b 78 05 be bb 08 86 3c
       0.091022186 0.06820943 -0.13034217 0.016361585
0003f0 d0 e1 c2 3c cd a0 2b bd 0d 8c ad 3d 5c 43 04 3e
       0.023789316 -0.0419014 0.08473978 0.1291632

lstm.weight_hh_l0 f4 [200, 50]
000000 09 61 65 3d 16 e0 b6 3d 94 dd 08 3e 66 13 1b 3e
       0.056000743 0.0892946 0.13365775 0.15144119
000010 2d 4b dd bd 4d ff 2e 3e 4f c1 4a bd ad c3 a8 3d
       -0.10805354 0.17089577 -0.04950076 0.08240447
000020 21 01 8e bd 6c bf da 3d 7b 86 13 be 4d 69 6f 3d
       -0.06933809 0.10681042 -0.14406769 0.058450032
000030 e3 09 24 3d 40 4a 0a 3d a6 56 a6 bc 7e 31 2b 3d
       0.04004849 0.033762217 -0.02030499 0.041795246
000040 8f 2c 26 3e dd 8a 57 3d 34 6b 91 bd 58 56 96 3b
       0.16227935 0.052622665 -0.071005255 0.0045879297
000050 59 60 2c bd 3a 2e 32 3d 43 2e 3b 3d 75 bb 75 bd
       -0.04208407 0.043501116 0.045698415 -0.059993226
000060 39 9c 82 3b 49 64 a0 3d 39 58 e0 bd ef 80 6f bd
       0.0039859083 0.07831628 -0.10954327 -0.05847257
000070 5c 5b 6a 3c 02 b4 3b be 6d 23 1c bd 4a 5f 0d bd
       0.014304008 -0.18330386 -0.038119722 -0.034514703
000080 b6 33 44 3e 56 15 57 3e 13 ca ef bd 8a 78 2d 3e
       0.19160351 0.21004233 -0.117084645 0.16940513
000090 fc 0a f5 bd 76 4a f8 3d 3c e6 65 3e 00 0f be bd
       -0.11964986 0.12123577 0.22451109 -0.09280205
0000a0 bb db 53 bc d3 6a 03 bd 9c 89 0c 3e bb 5c 03 3e
       -0.012930806 -0.032084297 0.13724369 0.12828343
0000b0 b4 b2 a8 3c c1 d2 de 3d 29 88 ff 3d 89 70 15 3e
       0.020593025 0.10880042 0.12477142 0.1459371
0000c0 ac 58 e3 3c e4 00 17 be 77 84 ab bd 67 9f c1 bc
       0.027752243 -0.14746433 -0.08374875 -0.02363558
0000d0 bc 7d f0 bd 26 56 97 3c 98 9d 2c 3d 09 ee 43 3e
       -0.11742732 0.018473696 0.04214248 0.19133772
0000e0 c9 ea d1 bc d4 a7 2b bd eb b4 f8 3d 96 5a b3 3c
       -0.02562465 -0.0419081 0.12143882 0.02189378
0000f0 d6 63 3a be db 5b 6d be 80 7b 1b bd ff a8 22 be
       -0.18202147 -0.23179571 -0.037959576 -0.1588478
000100 f5 f1 b9 3d a3 52 a4 3d 87 a9 29 3d 00 1a 1a be
       0.09079353 0.08023574 0.04142144 -0.1504898
000110 b0 3d 7e 3d d2 33 3e 3c 15 59 4f be ce 17 07 3d
       0.06207055 0.011609035 -0.20248826 0.032981686
000120 62 b9 ff 3d 2c 8c b6 bd 78 8c 55 3c 56 35 49 3e
       0.12486531 -0.089134544 0.013033979 0.19649252
000130 89 2c 44 3a f6 aa 35 be e0 4c e6 bd 2d bc 10 be
       0.0007483443 -0.17740998 -0.112451315 -0.14134283
000140 fb 22 39 3d 8e 47 f1 3d 50 a2 7f bd 28 1b d4 3c
       0.045199376 0.11781226 -0.062410653 0.025891855
000150 a5 62 ec 3b af 6f 84 3c 7f 79 2a 3e b6 d8 2c 3e
       0.007213908 0.016166536 0.1664791 0.16879544
000160 a0 89 98 3b 05 d4 70 3d fe 8d 41 bb 00 5b 5b 3e
       0.004655078 0.058795948 -0.0029534097 0.21421432
000170 2c d5 ea 3d 1a ce 26 3e fc a6 4e be 50 58 4c 3e
       0.114664406 0.16289559 -0.20180887 0.19955564
000180 2a 26 2a 3e fb 75 7f bd fd d5 84 3d d1 9c 32 be
       0.16616121 -0.062368374 0.064861275 -0.17442633
000190 44 58 24 3e 3d 69 8e bd a2 b0 02 be 8e 8f 02 be
       0.16049296 -0.06953666 -0.12762693 -0.12750074
0001a0 0e fd 8b 3d 1d d2 fa bd 8c 91 48 3e bb 74 f2 bd
       0.06835376 -0.12247107 0.19586772 -0.11838671
0001b0 09 ba 11 3e 3f fa 2e be 04 98 09 3e 40 a2 ff 3d
       0.14231123 -0.17087649 0.13436896 0.124821186
0001c0 fc 2f 7d 3d 21 81 83 3d 33 47 c0 bd 6e db 3d be
       0.06181334 0.06421114 -0.0938858 -0.18540737
0001d0 25 74 b2 3d b2 e9 48 bd b6 a1 17 3e 94 ab 2b bd
       0.08713559 -0.049050994 0.14807782 -0.041911677
0001e0 27 29 a2 3d 43 f8 cb bc 26 c1 bf bd 40 ef c3 bb
       0.079180054 -0.024898654 -0.09363012 -0.0059794486
0001f0 cc 29 7d bd c6 82 d3 bd 5d 08 e8 3d 0c c6 c2 bd
       -0.06180744 -0.103276774 0.1132972 -0.09510431
000200 5e 23 b2 3d db ee 38 3e ce a7 07 be d9 75 b2 3d
       0.08698152 0.18059866 -0.13247606 0.08713884
000210 1e de cf bd 28 00 0f be ff 1a 15 3e b3 ef 6f bd
       -0.10149787 -0.13964903 0.1456108 -0.058578204
000220 dd 92 14 bb d6 f8 99 3d ef 66 81 be 53 3e 0f 3e
       -0.0022670545 0.07518165 -0.25273845 0.13988619
000230 ed 48 90 bd 54 82 fb bd 94 34 62 bc 8d a2 53 3e
       -0.070451595 -0.122807175 -0.013806481 0.20667477
000240 0e e9 7b 3d c1 6b aa bd c9 2e f1 3c 35 f7 ef 3c
       0.061501555 -0.08321334 0.029441254 0.029292682
000250 8d 18 96 3d 3c 6b 2a 3d a7 73 41 be 52 76 60 3e
       0.073289014 0.041606173 -0.18891774 0.21920136
000260 11 b6 85 be 2d 2f 84 3d 42 30 c4 bc 6e 15 e1 3d
       -0.26115468 0.064543106 -0.023948792 0.109904155
000270 26 79 88 be 11 c3 ee 3c 0b 9d 20 be ba 03 2c 3e
       -0.2665493 0.02914575 -0.15684907 0.16798297
000280 5c 89 a2 3b ec 90 48 3e 1d 60 c4 be 68 eb e5 bd
       0.004960222 0.19586533 -0.3835458 -0.11226541
000290 7a 9f 24 3e aa 4e 8c 3d 75 28 b6 bc f1 8b f2 bd
       0.1607646 0.068509415 -0.022236088 -0.11843098
0002a0 63 ed 0a bc fe 3e 83 3d 94 86 10 be a7 72 b8 bc
       -0.008479449 0.06408499 -0.14113837 -0.022515608
0002b0 c3 54 3f 3e c8 eb 9f bd ad 85 37 be 78 fc 27 3e
       0.18684678 -0.078086436 -0.17922087 0.16404903
0002c0 e5 d8 cc bd a3 8f 15 3d 0e 76 33 bd 59 71 60 bd
       -0.10002307 0.036513936 -0.043813758 -0.054795597
0002d0 c5 87 71 be c5 16 81 3d 47 df 13 be 30 fa 1b 3e
       -0.23586948 0.06303171 -0.14440642 0.15232158
0002e0 75 58 46 3e 6b df 0b bd f0 86 19 3e 61 27 5c 3e
       0.19369681 -0.034148615 0.14992881 0.21499397
0002f0 63 8f c6 3e 00 0d 25 be c2 97 55 be 7f 73 e0 3c
       0.3878127 -0.1611824 -0.20858672 0.027398823
000300 68 3f ed 3d 4c c8 7d be 8a c2 b3 bd 3d 34 52 3e
       0.115843594 -0.24783438 -0.0877734 0.2052774
000310 58 d3 8b 3e 62 49 58 bd c0 88 2a 3e 4e f4 17 be
       0.2730968 -0.05280436 0.16653728 -0.14839289
000320 12 74 c3 bc 6f 61 5c 3e fc 6d 08 3e 7d ba f7 3d
       -0.023859058 0.21521543 0.13323206 0.12096117
000330 08 94 bf 3d ed 0c 5e 3e a4 9a f2 bb 68 a3 b5 3d
       0.093544066 0.21684618 -0.0074036885 0.08869058
000340 38 1e 1e be 9f cd 3b 3e 32 1e 93 3d 83 f8 10 3e
       -0.15441215 0.18340157 0.07183494 0.141573
000350 b6 27 f4 3c 86 46 fc 3c 74 cf a7 3c 7d 19 f3 3d
       0.029804092 0.030795347 0.020484664 0.11870096
000360 6f 74 5a 3e ba a7 f2 bc 2a 2c 26 be 55 67 b9 bc
       0.21333478 -0.029620994 -0.16227785 -0.02263228
000370 59 9a 11 be 7e c7 86 bd fa e4 f8 3c b8 9d dd 3d
       -0.14219035 -0.06581019 0.030382622 0.10821098
000380 82 3e 81 be ed 21 9f 3c e1 3a 43 be fb 8d da 3d
       -0.25243002 0.019425357 -0.1906543 0.10671612
000390 7e 75 8e be eb fb 29 be ee e4 93 bd 57 37 fe 3d
       -0.27824014 -0.16600005 -0.07221399 0.12412899
0003a0 30 4f 23 3e c8 63 a9 bd 52 fc 4a be bb 2e 24 3e
       0.15948176 -0.08270985 -0.19822815 0.16033451
0003b0 84 f2 28 3e e7 ef a4 3d fc 7f fb 3d fe fb 0f bd
       0.16498762 0.0805357 0.122802705 -0.035152428
0003c0 4f 85 26 be 28 54 dd 3d 1f d7 48 3e 30 f3 a2 3d
       -0.1626179 0.10807067 0.19613312 0.079565406
0003d0 2c 86 3d be e5 00 59 3d b9 2e 8c bd 41 38 48 be
       -0.18508214 0.05297937 -0.06844849 -0.19552709
0003e0 9b 3c 65 3d c3 1b e6 3c 24 9c 4e 3d d6 23 c1 3d
       0.055966 0.02808941 0.050441876 0.09430663
0003f0 ef e7 fc bb b1 96 e1 3d a9 29 94 3d 99 1e ed 3d
       -0.0077180783 0.1101507 0.072345085 0.11578102

lstm.bias_ih_l0 f4 [200]
000000 1b 04 fc 3d 2b f4 c0 3d ab 23 d5 bd 7f 67 07 3f
       0.123054706 0.09421571 -0.10407194 0.528923
000010 b0 df b6 bc 9e ad 5b bd e2 cf 7c 3d a9 c8 57 3e
       -0.02232346 -0.05363237 0.06172169 0.2107264
000020 1c ab 7d 3e ec 30 07 3f 03 6f f3 3d 54 ec 04 3c
       0.24772304 0.52809024 0.11886408 0.008112986
000030 ad c5 03 3d 98 7d 1b bb 1e 92 fd 3c 47 c9 e3 3e
       0.03217094 -0.0023725983 0.030953463 0.444895
000040 e5 3a 26 3e af 19 8d bd c5 8b 94 3d 67 c3 69 3c
       0.16233404 -0.068896644 0.072532214 0.014267779
000050 eb c7 02 3e 53 4f 58 bd e3 f0 9f 3d e3 73 29 3c
       0.12771575 -0.052810024 0.07809617 0.010342571
000060 97 a1 d6 bd b9 d8 27 3e 57 eb d8 3d cc 53 9a 3d
       -0.104800396 0.16391267 0.105917625 0.07535514
000070 2f 1e 17 3e bb 30 b9 bc 84 93 d0 3d 1b c0 99 3d
       0.14757608 -0.022606244 0.101843864 0.07507344
000080 5b a9 32 3e 96 b7 94 3c 31 c3 08 be 46 18 36 3d
       0.17447416 0.018153947 -0.1335571 0.044456743
000090 a0 28 78 3d c2 16 ed 3d 27 76 22 3e 14 16 ed 3e
       0.060585618 0.11576606 0.15865384 0.46305907
0000a0 d0 84 e8 bd 8b ae 90 3c f2 83 c2 3c 1e ed 16 3e
       -0.11353457 0.017661354 0.023744557 0.1473889
0000b0 20 c5 d8 3e 75 d8 d3 3e e6 86 5e 3e 9b 2d 43 3f
       0.42337894 0.4137608 0.21731147 0.76241463
0000c0 28 d1 a8 bd b3 63 79 3c a2 b2 54 be e2 13 9a bd
       -0.082430184 0.015221524 -0.20771268 -0.075233236
0000d0 f4 7e e7 bd 37 9d c2 be 15 88 a8 bd 92 6b 02 be
       -0.11303511 -0.3801057 -0.082290806 -0.12736347
0000e0 fa 43 2e 3d 0a 1b 06 be 82 57 83 3d f2 46 94 be
       0.042545296 -0.13096252 0.06413175 -0.28960377
0000f0 6d 9c 21 be dc 2c 23 be ed 5f fd bc b6 a2 39 be
       -0.15782328 -0.15935081 -0.03092953 -0.18128476
000100 14 a3 89 be 47 aa 96 be 8b 29 2f be 20 61 81 bd
       -0.2688223 -0.29426786 -0.17105691 -0.06317353
000110 de d2 79 be 5b 5b 79 be 77 11 6d be 18 de 6b bd
       -0.24396846 -0.24351256 -0.23151194 -0.057584852
000120 32 78 33 be 87 24 b5 bd 62 32 d0 3c 18 9e 15 3e
       -0.1752632 -0.08844858 0.02541465 0.14611089
000130 9d e3 3b be fc f6 cc bd b0 4f b3 bd 25 5a 5b be
       -0.18348546 -0.10008046 -0.087554336 -0.21421106
000140 ff 37 ed bd bc b0 50 be 19 d1 21 be 74 ef 6d bd
       -0.11582946 -0.20379919 -0.1580242 -0.05808969
000150 06 d3 d1 bd db 46 21 be 38 63 8a bd 1e a5 79 3c
       -0.10245328 -0.15749685 -0.06757206 0.015237121
000160 1b bb 09 bc 97 6b 84 be 78 dd 84 bd 2e b3 58 be
       -0.008406426 -0.25863335 -0.06487554 -0.21162102
000170 5c ba 72 be 17 36 a0 be c6 16 83 be f5 77 5e be
       -0.23703903 -0.31291267 -0.25603312 -0.21725447
000180 81 8d 23 be 6d 17 bf be 04 33 e2 bd f3 33 01 bd
       -0.15971948 -0.3732256 -0.11044887 -0.031543683
000190 3b 05 2a bd e8 47 c4 3d 3b 2a 57 bd ab 05 29 3d
       -0.041508894 0.095840275 -0.05253051 0.04126517
0001a0 ea 7f 57 3d 4f 5a 6a 3b 19 42 8b bc 4d 2e 01 bd
       0.052612223 0.0035759395 -0.016999291 -0.031538296
0001b0 ef ce f7 bd 2e 04 4d 3d 04 d1 82 3d bb e8 d3 3d
       -0.12100016 0.050052814 0.06387523 0.10347124
0001c0 42 11 1a be 4c 8d 11 bd 20 3c e6 3d fd 20 6f 3d
       -0.15045646 -0.03553514 0.11241937 0.05838107
0001d0 c1 4f 22 3e 43 0f 49 3d bd 00 c2 bd fb 26 4f 3d
       0.15850736 0.04908682 -0.09472797 0.050574284
0001e0 ca 72 64 3d fb 97 9a bc ea a3 a9 3d 3f 4b e0 3c
       0.055773534 -0.018871298 0.08283217 0.02737963
0001f0 05 ca 37 bd 79 24 02 bc 22 bd 55 bd cb 4c d5 3d
       -0.044870395 -0.007943266 -0.052182324 0.10415038
000200 91 17 43 bd b1 0f 36 bc d2 f9 55 bc 96 d2 72 bd
       -0.047629897 -0.01111214 -0.01306005 -0.05928286
000210 a3 72 41 be ed f8 78 ba e1 9c 19 3e c6 06 8f bc
       -0.18891387 -0.0009497542 0.15001251 -0.017459285
000220 f8 d0 d9 bd ed 6f a1 3d bb 5c 96 3d d2 98 b4 3c
       -0.10635561 0.07882676 0.07341906 0.022045527
000230 42 53 d4 bc a2 09 a4 3c 6b 8e 68 bd 8f 5a f6 bd
       -0.025918607 0.020024125 -0.056776445 -0.120289914
000240 fc 2d 34 3d cb 02 62 3d 1b 09 8c 3d b4 15 f3 b8
       0.043989167 0.055178445 0.06837674 -0.000115911855
000250 3c d8 8c bd 91 dd 9f bd 03 da 46 3c 50 b2 47 bd
       -0.06877181 -0.07805932 0.012136939 -0.048754036
000260 2a 09 03 be 5b c4 e0 3e e5 98 06 be d6 7c ea bd
       -0.12796465 0.43899807 -0.13144262 -0.11449592
000270 92 d8 a4 3d 55 51 f1 3d 8f 83 9f 3e c6 bf 00 3f
       0.0804912 0.11783091 0.3115506 0.50292623
000280 6d dc 20 3b 57 d3 61 3d 1c 41 9c bd 68 ad d0 3d
       0.0024545447 0.05513319 -0.07629606 0.101893246
000290 18 d0 88 bb d6 10 9b 3e ac 5d a7 3c 56 d7 c5 bd
       -0.0041751973 0.30286282 0.020430408 -0.09660213
0002a0 34 15 6a 3d b9 05 d3 bd bf 0f e7 bc 9f 0c 13 3e
       0.057149127 -0.10303826 -0.02820575 0.14360283
0002b0 7b df ca 3d 54 8f 4e 3e 31 a5 14 bd 83 5d ec 3d
       0.09905907 0.20171863 -0.03629035 0.115412734
0002c0 6c e7 4a 3e 7c 25 ba 3d 17 48 cb 3d 5a 5f 30 bd
       0.19814843 0.09089181 0.099258594 -0.043059684
0002d0 f3 8c a0 3e c1 f1 05 3e 2d ab 9f 3c 70 fb 30 be
       0.31357536 0.13080503 0.019490803 -0.17283416
0002e0 d3 46 c2 3c 72 92 a6 3d f7 c3 ad 3d 81 7f 83 bd
       0.023715412 0.08133401 0.08484643 -0.06420804
0002f0 dd 21 7f 3e 6e 13 9c 3e eb 45 33 be 39 47 ee 3d
       0.24915262 0.30483574 -0.1750714 0.116346784
000300 d2 51 e5 bd 0b 6a ee 3d b1 1c b3 3e 05 a8 ae 3e
       -0.111972466 0.1164132 0.34982827 0.34112564
000310 8d a4 e1 3d 53 38 29 3f d3 1f 17 3e 12 f4 54 3e
       0.11017714 0.6610157 0.14758234 0.2079623

lstm.bias_hh_l0 f4 [200]
000000 05 26 34 3e 3a 01 a2 3c 7e 6a 1e bb 15 02 d8 3e
       0.17592628 0.019775975 -0.002417236 0.42189088
000010 8b 4f d5 3d f7 82 ab 3d f7 33 cf bd 9e dd 27 bd
       0.10415562 0.08374589 -0.101173334 -0.040982835
000020 be b5 e4 3d 06 a3 f1 3e 04 a3 44 3e 9a 53 25 be
       0.11167477 0.4719469 0.1920281 -0.16145173
000030 8b 31 13 3d 3a ea 04 3e b4 66 49 3d 15 b7 bb 3e
       0.03593592 0.12979975 0.04917021 0.36663118
000040 7c 1c 15 3d cd 7c e8 3d cd de 5b 3e a8 a9 67 bd
       0.036404118 0.11351929 0.2147171 -0.05655828
000050 c9 97 22 bd 2f 6a 02 3e ae 7c af 3d 91 1e a4 3d
       -0.039695535 0.12735818 0.08568703 0.080136426
000060 51 0c 08 be 3f d5 08 3e 2b 46 83 3e da f9 e7 3d
       -0.13285948 0.13362597 0.2563947 0.11326952
000070 f3 0a bc 3e 91 34 11 3d 02 78 08 3e 4a a7 6a bd
       0.36727104 0.03545052 0.1332703 -0.057288446
000080 ab f9 98 3e 56 e1 87 bd f1 fe 0e be 29 0e d7 3d
       0.29877982 -0.06634776 -0.1396444 0.10500748
000090 92 d0 19 3e 9e 1d f1 3d a7 aa 18 3a 97 ef de 3e
       0.1502097 0.11773227 0.0005823769 0.43542168
0000a0 88 08 10 3d fc 10 0c 3e ee c2 16 be 92 e9 2d 3d
       0.035164386 0.13678354 -0.14722797 0.042459078
0000b0 eb 82 da 3e 4f 66 ac 3e 08 6b 76 3e 95 55 2e 3f
       0.42678007 0.33671805 0.24064267 0.6809934
0000c0 a4 58 8b 3d 41 71 1c bd 27 d7 59 be 98 84 38 bd
       0.06804016 -0.038193945 -0.2127348 -0.045048326
0000d0 40 4a 5d be d5 2c be be e9 de 30 bd b3 64 68 bd
       -0.21610355 -0.3714358 -0.043181334 -0.05673666
0000e0 a6 7d e5 bd a6 67 70 be 8d fe 63 3e 12 2c cf be
       -0.11205606 -0.23477039 0.22265072 -0.4046331
0000f0 dc 51 35 be 03 5b 4f be 77 51 13 be 59 56 4e be
       -0.17707008 -0.20249562 -0.14386545 -0.20150127
000100 e1 69 e5 bc 50 07 a0 be 53 4a b4 bd ca 32 a0 bd
       -0.028004589 -0.3125558 -0.08803239 -0.07822187
000110 98 0e 47 be b0 25 ef bd 1f b1 f9 bd 8d 50 f1 bd
       -0.19439161 -0.1167711 -0.12191986 -0.11782942
000120 9f f9 60 be a4 a0 45 be 3a 48 33 bd e3 20 2d 3e
       -0.21970223 -0.19299561 -0.043770052 0.16907077
000130 a2 7a 8d be 63 11 7e be d7 91 15 be 4b 13 34 bb
       -0.27632624 -0.2481132 -0.14606415 -0.002747732
000140 9c 64 03 be 1c 5e 83 be a8 8d 0c be 83 3d 30 be
       -0.12831348 -0.25657737 -0.13725913 -0.17210965
000150 82 3e c7 bd 6e 7e 34 be f7 3b b3 bd 13 70 cd bd
       -0.09728719 -0.17626354 -0.08751672 -0.10031142
000160 c1 16 65 3e 37 f5 3a be 44 2e 06 be 7e 11 48 be
       0.22371961 -0.18257605 -0.13103586 -0.19537923
000170 a4 08 4b be ab 58 a3 be ad f8 8b be 25 b0 94 be
       -0.19827515 -0.31903586 -0.27338162 -0.29040638
000180 eb d7 03 be 26 25 04 bf c0 b5 24 bc d0 8f 75 bd
       -0.12875335 -0.51619184 -0.010053098 -0.059951603
000190 9b 34 46 bd 8d ec ab 3d af af 0d be b1 b0 71 3d
       -0.048390012 0.08394728 -0.13836549 0.059006397
0001a0 70 37 ec bd 6e 5d 5a 3b 05 47 56 3d 75 75 6b 3d
       -0.11534011 0.0033319849 0.052313823 0.057485063
0001b0 6b 02 94 bd 82 01 9c 3d ac 25 15 be b4 7a 98 bd
       -0.07227024 0.07617475 -0.14565152 -0.07445279
0001c0 f5 f9 0d be 91 73 ce 3c 80 30 eb ba 00 98 00 bd
       -0.13864882 0.02520159 -0.0017943531 -0.03139496
0001d0 57 36 a3 bd e0 40 ae bd a0 55 8c 3c 14 a3 83 3d
       -0.07969349 -0.08508468 0.017130673 0.06427589
0001e0 3a 05 48 bd c8 2c 17 3d 55 21 09 bc 0b 38 18 be
       -0.04883311 0.03690794 -0.008369763 -0.14865129
0001f0 c6 96 2b 3d 64 3f e2 3d cc 5a 34 3d ac 22 1a bc
       0.041891836 0.11047247 0.044031903 -0.0094076805
000200 61 c5 57 bd dd 36 08 3d 60 c4 a6 bd 28 a1 d2 3d
       -0.05267847 0.033255447 -0.08142924 0.10284644
000210 79 ee 12 3d b1 dd c1 3c c4 70 15 3e d3 70 89 3d
       0.035871956 0.023665281 0.14593798 0.06710973
000220 ee 22 cd 3d fb f6 3f bd b9 db f6 bc b8 3b da bd
       0.10016428 -0.0468664 -0.030134069 -0.10655922
000230 26 bb fc 3c ec d3 9c bd b5 14 c3 3d 68 2e 8c bd
       0.030850958 -0.076576084 0.09525434 -0.06844789
000240 9a a0 bc bc 0c d3 bb 3d f3 bb dc 3c 02 fb ba bd
       -0.0230258 0.09171113 0.02694509 -0.09129907
000250 a9 74 b5 3d 90 96 27 bc d6 79 c9 3d 45 79 14 3c
       0.08860142 -0.010228768 0.098376915 0.009062116
000260 0a eb b7 3b 39 9f f5 3e a5 f6 af 3d 1e 41 9b 3d
       0.0056127356 0.4797304 0.085919656 0.075807795
000270 e6 36 e6 bd d3 80 63 3d 42 5d cc 3d bb 4b ad 3e
       -0.1124094 0.05554278 0.09978725 0.3384684
000280 b9 d2 a6 3d ad f2 c5 bd 4f 4c c9 3d 24 bc 2e 3e
       0.08145661 -0.09665427 0.09829008 0.17063957
000290 9b a0 1c 3e 3d 96 9c 3e 90 0e 87 bd e8 50 a4 3d
       0.15295641 0.30583373 -0.065945745 0.08023244
0002a0 92 54 9d 3d c2 6f 24 bc 35 d6 b7 3c be 6f e9 3b
       0.07682146 -0.010036411 0.022441009 0.0071239164
0002b0 ad 45 d4 3d 00 6e 7e 3e 86 5b d7 3c 1e d4 6b 3e
       0.10364852 0.24846649 0.026288759 0.23030135
0002c0 58 ad 78 3c 9f c6 2e 3e ec 14 aa 3d 28 23 1d 3d
       0.015178047 0.17067955 0.08304772 0.038363606
0002d0 46 c3 74 3d f2 79 23 3e 34 5b 8b 3d 18 0a 39 bd
       0.05975654 0.15964487 0.06804505 -0.04517564
0002e0 a5 d4 85 3c 7c 46 d1 3d af 59 09 bd 85 3d 8b 3d
       0.016336748 0.10218522 -0.033532795 0.06798843
0002f0 0f 85 81 3c 2f 6c 03 3f 27 7c 07 be c1 07 36 bd
       0.015810518 0.5133695 -0.13230954 -0.04444099
000300 c4 ff a3 bc f3 0c 84 3e 74 e7 ad 3e da 8b 45 3e
       -0.02001942 0.2579113 0.33965647 0.1929163
000310 43 34 12 3e 06 aa 6c 3f 98 d9 c2 3d 87 6e bd 3c
       0.14277749 0.92446935 0.09514159 0.023123993

lstm.weight_ih_l1 f4 [200, 50]
000000 29 61 97 3d be 14 c2 3d ee 35 60 3e cb 35 08 be
       0.07391579 0.094766125 0.21895573 -0.1330177
000010 e4 89 1f 3e a3 02 0f be b3 8f 39 3c 02 c3 64 3d
       0.15579945 -0.1396585 0.0113257645 0.055850036
000020 e2 5e 2e 3a 66 f3 7e 3d 9a 66 e8 3d ed 23 b0 bd
       0.0006651712 0.06224384 0.11347695 -0.08600602
000030 26 19 8a 3e d1 fb 8d bc 0b 79 21 be 3e 7d c1 bd
       0.26972312 -0.01733199 -0.1576883 -0.09447716
000040 13 69 e1 bd 5e c8 7a 3d cc b0 ab bc a9 4a 6f 3a
       -0.110063694 0.06122624 -0.020958327 0.00091282517
000050 e6 1f 12 be cf db 30 be 17 cb c9 bd 46 86 5f 3d
       -0.14269981 -0.1727135 -0.098531894 0.054571413
000060 9c 91 9d 3c 9e fe b0 3b 0a 23 bd 3b 93 69 34 bd
       0.019234471 0.0054014465 0.0057719992 -0.044045996
000070 df 6d 89 bc 4c 02 d6 3d 5b f1 11 3e 0e 24 b0 bd
       -0.016776023 0.10449657 0.14252226 -0.08600627
000080 ea b7 6a 3e 56 2c 3e bc 92 57 04 bd 03 37 55 bd
       0.2292172 -0.01160725 -0.032310076 -0.052054416
000090 37 95 ae 3c 28 20 8f bd ff 0f 38 3c 4e 88 ef 3d
       0.021311386 -0.06988555 0.0112342825 0.1169592
0000a0 ab 92 87 3d 3f 70 a6 bd a9 13 a1 3d b3 56 ab 3e
       0.066197716 -0.08126878 0.07865078 0.33464584
0000b0 5f e5 01 3e ba 44 08 be 57 3e c2 bc 1e ef 6b 3d
       0.12685154 -0.13307467 -0.023711367 0.057601087
0000c0 bc 1e 6e 3d 02 76 2a 3e 7f a9 3c bd 7b 2b 89 bd
       0.05813478 0.16646579 -0.04606008 -0.06697746
0000d0 f4 a3 51 bc fa c4 f4 bd 1d 7f 53 3c e4 9f b2 bd
       -0.012795437 -0.11951633 0.012908724 -0.08721903
0000e0 fa 9c 71 3b f2 9c 36 3d 91 85 89 bc c9 d8 da bc
       0.0036867247 0.04458327 -0.016787322 -0.0267147
0000f0 45 6c 48 be c0 72 a1 bd 8e 45 ea bd df 0a 47 bd
       -0.19572552 -0.07883215 -0.11439048 -0.04859435
000100 4a 9f fd 3d 81 03 47 3c 77 8a b3 3c 03 57 e9 3d
       0.123838976 0.0121468315 0.021916611 0.11393549
000110 85 2a 45 3d dc 54 e7 3d 57 b2 fb bd 98 65 ec ba
       0.048136253 0.112954825 -0.12289875 -0.0018035648
000120 01 ac b6 bc 47 9f c7 bd 7d 84 43 3d 9d 43 53 3d
       -0.022298815 -0.097471766 0.047733773 0.051578153
000130 1e ea 83 bc a5 6d 0a bd 04 ba 6c 3b 2d 1a 42 be
       -0.016102847 -0.03379597 0.0036121616 -0.18955298
000140 c9 ef 2d be 85 68 c4 bd bf a4 ab bc cd 21 5c bd
       -0.16986002 -0.09590248 -0.02095258 -0.053743172
000150 9b 68 3d 3d 96 51 9c 3d 4e 5d e5 3d 41 00 f3 bc
       0.046242338 0.07632749 0.11199437 -0.029663207
000160 0c d1 c5 bd 5a 05 1e be 29 9b 89 3c 0f c6 8a bc
       -0.09659013 -0.15431729 0.016797619 -0.016940145
000170 2a 89 97 3d f7 2e 8b bd c8 ac 61 bd d9 c6 ae bd
       0.07399209 -0.06796067 -0.055096418 -0.08534021
000180 8f 31 a7 bb c1 e3 91 3d 2d 49 b7 bd 9f e1 35 bc
       -0.0051023434 0.07123519 -0.08949504 -0.011101156
000190 eb ca f8 bd 3e a4 bc 3d 60 05 f3 3d b3 4c c3 bd
       -0.121480785 0.09211014 0.118662596 -0.095361136
0001a0 db 67 27 bd 6b ee ca bd 7a f4 90 bd 4d e7 38 bd
       -0.04087053 -0.09908756 -0.0707788 -0.04514246
0001b0 0b 92 cb 3d 86 fd 3e 3d 5d 96 d9 3d 47 ab e3 ba
       0.09939965 0.046628498 0.10624383 -0.001736977
0001c0 fc ba 21 3d fb 81 bd bd 65 04 57 bd 32 e4 4c be
       0.039484963 -0.092533074 -0.052494425 -0.20008925
0001d0 af 0a b6 3d 16 cc de 3d 29 58 5e 3d df 59 40 bd
       0.088887565 0.1087877 0.054283295 -0.046960708
0001e0 f7 0c c9 3c be 54 42 3d 1d 95 e1 3c 1c f5 80 3d
       0.024542315 0.047444098 0.027536923 0.06296751
0001f0 aa a7 cd 3d 7a 99 13 3d 7b 51 46 bc 5e 58 a1 3d
       0.10041745 0.03603504 -0.012104387 0.07878183
000200 c4 22 8b 3d 12 cd dd bd 69 9c c4 3d 5f a5 5d bd
       0.067937404 -0.1083013 0.09600145 -0.05411279
000210 64 5b 6d 3e 96 50 bb 3d 68 8b b9 bd 12 81 99 3d
       0.23179394 0.0914623 -0.09059793 0.07495321
000220 c1 e0 0e be e7 86 12 3d 48 61 8c 3d 99 64 f9 3d
       -0.13952924 0.035773184 0.068544924 0.121773906
000230 e0 c4 d5 bd 56 f5 1a be 9c 9c 87 3c 53 22 61 3e
       -0.104379416 -0.1513265 0.01655417 0.2198575
000240 28 9a 45 3d 56 20 9e bc 7e 43 d2 bd 4c 9a 4e 3d
       0.048242718 -0.019302528 -0.10266779 0.050440118
000250 6f d7 99 bd 8b 71 a3 3d f0 67 7d bd c4 cc 0f be
       -0.07511794 0.07980641 -0.0618667 -0.14042956
000260 d0 e9 88 3e 6b fb d1 bd 62 42 2e 3e 12 39 10 bd
       0.26740885 -0.10253032 0.1701751 -0.035210676
000270 06 73 df bd c6 81 ab 3c 25 54 0f 3e 10 b0 05 3d
       -0.10910611 0.020935904 0.13996942 0.03263861
000280 95 53 8c 3d 64 32 f0 3d da 26 b5 3d b2 63 c4 3d
       0.068518795 0.11728361 0.08845301 0.09589328
000290 98 5d 40 be da 0b f5 bd c1 f9 ef bd 86 05 77 3d
       -0.18785703 -0.11965151 -0.11717559 0.060308002
0002a0 b5 9d 27 3e 17 33 87 bc c8 1a 57 bd 2a 7d 32 3c
       0.16368754 -0.016503854 -0.052515775 0.010894099
0002b0 30 d7 df bd ff 97 b0 3d 88 cb bf 3d 2e c3 46 be
       -0.10929716 0.08622741 0.093649924 -0.19410393
0002c0 c1 db 08 3e 44 4c 85 be 50 99 aa 3d d2 69 cc bd
       0.1336508 -0.2603475 0.08330023 -0.09981121
0002d0 16 69 47 3d e6 9f fe bd 73 71 63 3e 8b 24 58 b9
       0.048684202 -0.12432842 0.22211246 -0.00020612979
0002e0 4a 07 5d bc 0a 59 45 bd cb c8 f8 3d a7 cb c9 3d
       -0.013490507 -0.048180617 0.12147673 0.09853297
0002f0 ac 20 ad 3c e2 0c 7c 3d 8c 56 96 3b 98 0c dd 3b
       0.021133743 0.061535724 0.004587954 0.006745886
000300 f2 7d 0b be d4 3c 94 3e b7 e3 9c 3d 0a cd e7 bd
       -0.13622263 0.28952658 0.07660621 -0.11318405
000310 ff 1f c5 bd c4 23 96 3d a3 ac 49 be b9 98 c1 bd
       -0.096252434 0.073310405 -0.19694762 -0.09452958
000320 56 6b 14 be 90 72 9e bd ee 45 48 3d 08 a6 ff 3b
       -0.1449407 -0.07736695 0.048894815 0.007801775
000330 00 1e 1d 3e c6 67 20 3e f6 bc 1e bd 81 61 b8 3d
       0.15343475 0.15664586 -0.038754426 0.090029724
000340 60 41 9c bd f7 8e dd bd 33 0d dc 3d e1 10 d7 bd
       -0.07629657 -0.10818284 0.10744705 -0.10501266
000350 92 48 0c 3e 89 3e 01 3e a7 75 89 3c bd 1d c5 3c
       0.13699558 0.12621512 0.016779734 0.024062032
000360 22 0d 36 bd a5 03 a4 3c ab 1c a6 bd 7d a2 47 bd
       -0.04444612 0.02002127 -0.08110937 -0.048738945
000370 61 bd 1e be 63 12 b4 3d 37 6e 5f bd 6e 26 22 3e
       -0.1550193 0.087925695 -0.05454847 0.15834972
000380 30 6d 65 3d a8 9b 82 bc 9b 3b 14 bd 60 c2 a0 bd
       0.056012332 -0.015943363 -0.036189657 -0.07849574
000390 af 87 46 be f3 e0 cd bd ee d7 bd 3d da c2 ac bd
       -0.19387697 -0.10052671 0.09269701 -0.084356025
0003a0 b2 cb a4 bc fb ca 14 3e d9 b4 57 be 43 5b 00 3e
       -0.02011666 0.14530556 -0.21065082 0.12534814
0003b0 f1 85 ca bd 6a 56 2c 3e 64 d5 ee 3d 59 53 a7 bd
       -0.098888285 0.1682984 0.11661795 -0.08170194
0003c0 10 56 df 3b dd 05 83 3d 0d 60 63 bd e2 b6 07 3e
       0.0068156794 0.06397603 -0.055511523 0.13253358
0003d0 06 50 26 bd 63 67 de bd 6e 88 bb 3d 11 af 4d bd
       -0.04060366 -0.10859563 0.09156881 -0.050215784
0003e0 56 8b 85 3d fd a3 b4 bc ea 3d b0 3d dc 45 f2 bd
       0.06520717 -0.022050852 0.08605559 -0.11829731
0003f0 1f 94 56 3d b1 52 a7 3d d9 98 3b bd 5e 02 90 3d
       0.052387353 0.08170069 -0.045800064 0.070317015

lstm.weight_hh_l1 f4 [200, 50]
000000 b5 41 89 3d bd 23 29 be 93 92 84 3d 5a a3 50 3c
       0.06701986 -0.1651754 0.06473269 0.012734259
000010 7b 85 07 3e 58 75 8c b8 42 9a 51 be 79 67 36 be
       0.13234513 -6.697577e-05 -0.20469001 -0.17812909
000020 cf 56 c4 3c eb 06 08 3d ce ab 53 bd de 55 25 3e
       0.023967175 0.033209722 -0.051677518 0.16146037
000030 47 37 85 3d 9b fa 08 bd 7b 3c ad bc 2d 85 a6 3d
       0.06504684 -0.03344212 -0.021147003 0.0813087
000040 46 d2 89 bd 65 8b fb bd 13 62 dd bc 48 fc d7 bc
       -0.067295596 -0.12282447 -0.027024304 -0.026365414
000050 27 af 1e 3e 26 a8 86 bd 00 88 66 3d a3 3a 5f bd
       0.15496503 -0.065750405 0.056282043 -0.05449928
000060 00 bb 35 bc c8 f5 1f 3d 84 dd 6e 3d 1f 2d 4d bd
       -0.011091948 0.039052755 0.058316723 -0.05009186
000070 21 7b ef 3d af 01 fc bc 94 b5 3f be 55 77 d6 3d
       0.11693407 -0.030762522 -0.1872161 0.104719795
000080 97 ed 28 3d d7 ff 49 bd b1 17 9a bb b0 49 64 3e
       0.04124221 -0.049316254 -0.0047025313 0.22293735
000090 78 a3 61 bd fd 9c fb bd 36 10 41 3d 50 31 d2 3c
       -0.055087537 -0.122858025 0.0471346 0.02565828
0000a0 99 0b be 3d ce 9c 22 3d bf 71 90 bd 3c 7f cb 3d
       0.09279556 0.03970032 -0.07052945 0.099363774
0000b0 6e d3 9e bd 97 50 88 3d 12 06 c5 3d 84 68 16 3e
       -0.07755171 0.06655996 0.096202984 0.14688307
0000c0 01 53 09 3d 86 bb 32 3c 10 64 eb 3d 34 5d 9c 3b
       0.033526424 0.010908967 0.11493695 0.004771853
0000d0 63 98 a2 3d 75 5c c8 3d fd 85 14 3c a8 d4 e1 3d
       0.07939222 0.0978326 0.009065148 0.11026889
0000e0 5f 7a 55 bd 40 9d 86 3a 59 f1 2c 3e de 90 b9 3c
       -0.052118655 0.0010270253 0.16888942 0.022652086
0000f0 99 4a f4 3b d5 ae ce bc 9a 22 0c bd 78 11 0e be
       0.007455182 -0.02522985 -0.034212686 -0.13873851
000100 59 06 95 bd 8a 74 a2 bd d9 ff 0f bd ac 3d 81 3d
       -0.07276601 -0.07932384 -0.035156105 0.06310591
000110 da 3b d1 bd 16 2d 8a 3d 15 ae 9b bd 8c 98 d9 bc
       -0.10216494 0.06746881 -0.07601563 -0.026561998
000120 4d d4 da bc 0f da dd 3c 62 02 6e 3d e6 98 54 be
       -0.026712561 0.027081518 0.05810774 -0.20761451
000130 63 cf b2 3d d1 5d 53 3d a0 5c 0c 3d 32 aa fe 3c
       0.08730962 0.051603142 0.03426802 0.031087015
000140 10 40 c6 bd a0 9c 32 3e 91 22 f9 bd 4d a4 9a bd
       -0.09680188 0.1744256 -0.12164796 -0.07550869
000150 08 c2 b3 bc ca 40 0d 3e 49 69 cc 3d e4 8f dc 3d
       -0.021943107 0.13794246 0.09981019 0.107696325
000160 da 1c 22 be 3e 76 57 bc ac 01 e0 3d c0 09 22 bd
       -0.15831318 -0.01315075 0.10937819 -0.03956008
000170 01 94 08 bd db 85 a6 bc da ac 14 bd 4f 3c b3 3d
       -0.033344273 -0.0203275 -0.036297657 0.08751737
000180 ca 20 82 bd c2 f5 c2 3d 83 d5 08 3e 2f b7 0e 3e
       -0.0635391 0.09519531 0.13362698 0.13937066
000190 b8 72 be 3d ef 57 22 bd 69 8c f5 bd b4 c3 2a be
       0.092992246 -0.03963464 -0.11989672 -0.16676217
0001a0 96 80 2a 3c d0 09 99 bd ce 91 14 be 53 85 02 be
       0.010406634 -0.07472575 -0.14508745 -0.12746172
0001b0 43 6c 54 bd 67 f0 24 bc cc 8b 0d 3d 4a d8 d3 3d
       -0.05186106 -0.010067082 0.03455715 0.10343988
0001c0 68 de 81 bd 07 4e 42 be 85 a5 9a 3d e0 dd 98 bd
       -0.06341249 -0.18975078 0.075511016 -0.07464194
0001d0 30 7c a8 bd 97 02 a9 bd d3 34 fe 3d d9 c9 c1 bd
       -0.08226812 -0.08252447 0.12412419 -0.094623275
0001e0 07 17 d8 3d fb 1c 5e bd 06 ee 10 be 41 52 fa bd
       0.10551267 -0.054226857 -0.14153299 -0.1222272
0001f0 3e 3c 82 3c 81 7d 3e 3c 30 30 9c bd 42 b3 60 bd
       0.015897866 0.011626602 -0.076263785 -0.054858454
000200 1b 43 dc bc b2 d7 07 3d df 6b 0d be 6e 7c 91 3c
       -0.026887467 0.033164687 -0.13810681 0.017759528
000210 68 ce 9c 3d b8 54 0c be 1a 30 ff bc 33 bd 64 3e
       0.07656556 -0.13704193 -0.031150866 0.22337799
000220 d3 46 52 bd e9 54 9b bc 54 ca 43 be 4f 06 2e be
       -0.051337074 -0.018961387 -0.19120151 -0.16994594
000230 c3 13 07 bd 95 1c 44 bc 8f b0 0e 3e 8a 18 30 3e
       -0.03297783 -0.011969705 0.1393454 0.17196861
000240 22 41 1d 3e 3e 62 35 bd 2d 39 3a 3e 9a c6 49 bd
       0.15356877 -0.044283144 0.18185873 -0.049261667
000250 ed 3c e5 3d a2 fd 60 3e 4a 3a a3 bc e4 d7 64 3d
       0.11193261 0.21971753 -0.019925255 0.05586995
000260 d0 96 be 3c 63 c6 0e be 4b 41 17 3e 51 ae 71 bd
       0.023265272 -0.13942866 0.14771001 -0.05900413
000270 ec c6 dd bd d5 f3 ec bc 45 9b e5 3d a2 c0 be 3d
       -0.10828957 -0.028924862 0.11211256 0.093140855
000280 6c b8 f5 bd 52 a3 06 3e a8 87 15 3e e9 19 9a 3d
       -0.11998066 0.1314824 0.1460253 0.07524473
000290 56 28 a3 3a 9c e0 7e bd c1 b3 cc 3c 37 fc 5e bd
       0.0012447934 -0.062225923 0.024988057 -0.05443975
0002a0 47 8d 54 bc fe 87 00 3e dd c9 a2 3d 76 f1 ff bd
       -0.012973136 0.12551877 0.079486586 -0.12497227
0002b0 07 76 a0 3d 65 61 da bd 51 fa 20 3d 60 4b 92 bd
       0.07835012 -0.10663108 0.03930122 -0.07143283
0002c0 07 56 86 3d 7e 6f cc bd 1e 32 d4 3b 83 76 a4 bd
       0.06559377 -0.09982203 0.006475701 -0.08030417
0002d0 ed 96 5e bd 8a 7a 03 be be 2c 16 bd 1f 92 99 bd
       -0.054343153 -0.12839714 -0.036663763 -0.074985735
0002e0 d9 01 6e bc 21 59 52 bd 56 cf b7 bd e3 0b 33 bd
       -0.014526808 -0.05135453 -0.08975093 -0.043712508
0002f0 df d4 e0 bd b7 ab 0e be 90 bf e5 3d f0 0a 08 3d
       -0.10978102 -0.13932692 0.11218178 0.033213556
000300 c6 97 c9 3d 3c b9 b6 bd 0a da 19 3c 7b 08 0c 3e
       0.098434016 -0.089220494 0.0093903635 0.1367511
000310 f3 f3 0e 3e f4 13 8c bd a4 cd 20 bd 5c e3 be bd
       0.13960247 -0.06839743 -0.039258614 -0.09320709
000320 a4 90 ca 3d a8 cf a5 3d 8e b8 ac 3d 0f 3e 3c bd
       0.09890869 0.08096248 0.084336385 -0.04595762
000330 3c 55 11 3c 4d 3e 0a 3e f6 1f d0 bd 9f 55 58 3d
       0.008870419 0.13500328 -0.10162346 0.05281603
000340 4b d2 0a 3e 83 34 1a 3e 54 d3 1d be 74 1f 08 3e
       0.13556783 0.15059094 -0.15412647 0.13293248
000350 ef e8 03 be fd 92 a1 bb 07 f1 af bc 21 f8 b9 bd
       -0.12881826 -0.0049308524 -0.021477235 -0.0908053
000360 c7 d4 7a 3d 3e 1c a4 bd ee 23 8b bd da 27 77 bc
       0.061238077 -0.08013199 -0.067939624 -0.015085185
000370 70 fe fc bc f8 4f a7 3c 84 ce 21 bd 07 2e 9f bd
       -0.030883044 0.020423874 -0.03950359 -0.07772451
000380 13 07 0e 3e fb f9 f4 3c 46 08 3e bd 5b d2 b1 bd
       0.13869886 0.029904356 -0.04639461 -0.086827
000390 0b 8f 3c 3d d8 e7 e2 3b 8f 60 c0 3d 2d 64 4e 3d
       0.046034854 0.0069246106 0.09393417 0.050388504
0003a0 0b 0a 8a 3d 29 be 45 3c 24 ea 87 bd 2f ab 1e 3e
       0.06740197 0.0120692635 -0.06636456 0.15494989
0003b0 ef 7a a4 3d de 6d 2c be d2 cb 07 bd 5d 86 85 bd
       0.0803126 -0.16838786 -0.033153363 -0.065197684
0003c0 33 d7 c4 3d 5e 32 0a bc 5a 53 e6 bc 7c 98 82 3d
       0.096113585 -0.00843486 -0.028115917 0.0637674
0003d0 9e 3d 15 bd 88 e5 e9 bc 29 7a 43 bd 88 cf b9 bd
       -0.036435716 -0.028551832 -0.047723923 -0.090727866
0003e0 b6 e6 4d 3d d9 6b 06 3e b8 79 47 3d 4d 44 a1 3d
       0.05026885 0.13127078 0.048700064 0.078743555
0003f0 da 3e 15 be 94 ae aa 3d 95 18 a7 bd e0 6f b2 3b
       -0.14574757 0.083340794 -0.081589855 0.0054454654

lstm.bias_ih_l1 f4 [200]
000000 bb 67 2a 3d ca 0c 50 bc ae 70 ad bb 35 2a c6 bd
       0.04160283 -0.012698362 -0.0052929735 -0.09676019
000010 a8 63 22 bd 6d f5 cf 3d 18 fa 95 3d 8e 05 87 3d
       -0.03964582 0.10154233 0.07323092 0.06592856
000020 5b e2 ca bd 43 eb 9f bd 8c 42 90 bc ee ed 02 be
       -0.09906455 -0.078085445 -0.017609857 -0.12786075
000030 43 43 77 3d 6c 8c e8 bd 6d 8f cb 3d ca eb e6 3c
       0.06036688 -0.11354908 0.09939466 0.028188605
000040 3e c4 15 3d 7f 3c 14 3d 10 33 e7 bc 93 28 c9 bd
       0.036564104 0.036190506 -0.02822259 -0.09822192
000050 53 5c e7 3d f4 bc 46 3c 71 19 ba 3d 9a 4f 57 3d
       0.11296906 0.012130011 0.09086884 0.05256615
000060 06 08 80 3d 31 22 de bc a5 58 a1 3d 0f 0c 06 3e
       0.0625153 -0.027115913 0.07878236 0.13090537
000070 bd 9c 6f 3d 24 b6 17 bb fb 51 1a 3d cd 1e 07 3d
       0.058499087 -0.0023149336 0.03767584 0.03298836
000080 65 fc 92 bd ad e2 47 3d f1 b1 e7 bd 87 05 36 3e
       -0.07177047 0.04880016 -0.113132365 0.17775546
000090 ba 07 f8 bd e4 66 b3 3d ed e8 1e bd 56 1d 15 be
       -0.12110849 0.08759859 -0.038796354 -0.14561972
0000a0 c7 0b 0e 3d 63 18 f9 bd bb 39 70 3b f1 9d 9b bd
       0.0346792 -0.121628545 0.0036655504 -0.07598484
0000b0 f3 73 f2 3b 88 de a5 bd e6 98 ba 3d 4a a7 47 3c
       0.007399076 -0.08099085 0.09111194 0.012185881
0000c0 70 7d 3d bd 56 2e c6 3d 4a 10 30 3d 10 32 39 be
       -0.046262205 0.09676807 0.042984284 -0.18085504
0000d0 e7 86 d0 3d 25 be 82 bd 85 ec 28 3e e4 b3 92 3d
       0.101819806 -0.063839234 0.16496475 0.07163218
0000e0 4b a5 ae 3d 68 a2 ac 3c a6 03 53 3d 26 f4 af bd
       0.08527621 0.021073535 0.05151715 -0.085914895
0000f0 b6 9d 70 3d 0e d9 76 3d 9c 43 a6 3d bb ef 44 3c
       0.058744155 0.060265593 0.08118364 0.012020047
000100 29 1b a2 bd cc 63 16 3e 36 eb d0 bd f2 e5 5e bd
       -0.07915337 0.14686507 -0.10201113 -0.05441851
000110 36 4e ac bd 35 80 94 3c a9 11 b6 3d 2e ac 70 3d
       -0.08413355 0.01812754 0.08890087 0.058757953
000120 32 1e 8c 3d 3d 94 b0 bc 46 4b 96 bd 0f 64 49 bb
       0.06841697 -0.02155506 -0.07338576 -0.0030729806
000130 fb 01 f9 bc 22 94 e0 3d d6 84 73 bd e6 ec f5 bd
       -0.030396452 0.10965754 -0.059452854 -0.120080754
000140 29 ef e3 3c 02 6e f2 bd 74 94 94 3d 54 8b fc b9
       0.027824001 -0.118373886 0.07254878 -0.00048168993
000150 88 33 ee bd c0 ad 11 be 45 93 a1 bd 75 7e d9 bd
       -0.116309226 -0.14226437 -0.078894176 -0.10619823
000160 64 d2 0f 3e 58 71 14 bd 1e f5 43 3d f0 04 a3 3d
       0.14045101 -0.036240906 0.047841184 0.07959926
000170 d5 c5 49 3d a9 8b b3 3d d4 6b 87 bd 8c 93 cf bd
       0.049260933 0.087668724 -0.066123635 -0.10135564
000180 09 a3 f6 3c d6 08 5f bc 4b 30 26 bc 5a bb d8 3d
       0.030107038 -0.0136129465 -0.01014335 0.105826095
000190 6d 1d c1 3d 27 68 61 3d f6 0b e4 bd 18 9a 1c bd
       0.09429441 0.055030968 -0.11135094 -0.038232893
0001a0 66 3e 50 3d 16 37 c2 bd 91 7d 72 3d e8 7b 8f 3c
       0.050840758 -0.09483163 0.05920178 0.017515138
0001b0 66 95 80 3d 66 99 a1 bd f7 bb 91 bd 68 33 b2 bd
       0.062784955 -0.078905866 -0.071159296 -0.08701211
0001c0 d1 e0 fc 3c fd c1 e1 bd e1 f0 37 3d 20 c0 3e bd
       0.03086892 -0.110233285 0.044907454 -0.046569943
0001d0 47 18 e0 bc a9 73 f3 bd 63 fb 01 3d e8 63 ca 3d
       -0.027355326 -0.11887295 0.03173388 0.09882337
0001e0 18 60 b8 bd 5d d2 98 3b 20 b6 fb bc 87 56 cc bd
       -0.090027034 0.004663749 -0.030726492 -0.09977441
0001f0 db da c5 bb 94 5a 97 bd 6c 46 1e bc 1b 31 12 bd
       -0.0060380525 -0.07390323 -0.009660345 -0.035691362
000200 2f 40 09 be 2c 89 b0 bd 9a 5f 8f bd 08 15 a1 3d
       -0.1340339 -0.086199135 -0.070006564 0.078653395
000210 44 e1 92 bd 0e 9b 54 bd 06 db 7a 3d fd 23 6a 3d
       -0.07171872 -0.051905684 0.061244033 0.057163227
000220 a6 e6 09 be 9f 18 18 3d a2 fb a8 3d 55 e8 3f bd
       -0.13466892 0.037132856 0.0825112 -0.04685243
000230 9d 32 e9 bb fb eb 8f bb ec 52 b2 3d 82 83 17 3c
       -0.0071166293 -0.0043921447 0.08707222 0.0092476625
000240 58 03 e4 bd f5 37 3b 3d 0d a6 7a 3b 8d bf b8 3c
       -0.1113345 0.04570766 0.0038245947 0.022552276
000250 ae 71 f0 bb 46 de 06 3d 88 2a f5 bd 80 fa b5 3d
       -0.0073377704 0.03292682 -0.11971003 0.0888567
000260 dc 39 17 3d 27 70 09 bd 43 4e 01 3e b6 ae d7 3d
       0.036920413 -0.033554222 0.1262751 0.1053137
000270 3e 5d 87 3d 4a 31 34 3c bb 91 1f bb 6d d4 77 bd
       0.066095814 0.01099808 -0.0024348337 -0.06050532
000280 d6 60 8f bd 2c 4a 9d 3c cb c4 4e bd 2c 95 95 bc
       -0.07000892 0.019200407 -0.050480645 -0.018259607
000290 57 d1 e7 bc 7c dc 97 3d ca 0b 6a 3d a3 ce fc bd
       -0.028298063 0.07415101 0.05714015 -0.123441
0002a0 b5 10 15 be 78 18 f5 bc 10 bd 0d be 70 30 31 be
       -0.14557154 -0.029918894 -0.13841653 -0.17303634
0002b0 b4 b0 2a be 55 bf 04 3e 6b 2d c7 bd 94 37 d4 3d
       -0.1666897 0.12963612 -0.0972546 0.10362163
0002c0 14 93 a9 3d bc fc 49 3d 3d 8c e1 bd 45 8d 8f bc
       0.08280006 0.049313292 -0.110130765 -0.017523417
0002d0 80 cd 2a be 0b 5e 98 3c 50 ae cc bd 0d 47 1d be
       -0.16679955 0.01859953 -0.09994185 -0.15359135
0002e0 9e 35 03 bd a9 2c a8 3d 65 f6 5a 3d 81 ab 46 bc
       -0.032033555 0.08211643 0.053457636 -0.012125851
0002f0 07 0a 57 bd cb d5 23 3d 1e d3 cd bd 68 ce 98 bb
       -0.052499797 0.03999881 -0.10050033 -0.0046632774
000300 e3 bd f5 bd 85 2d 9b bd 66 8c 86 bb b5 bf 67 3d
       -0.11999109 -0.075770415 -0.0041060923 0.05657931
000310 16 91 da 3d 6c 03 0f be e2 80 8e bd b9 9f 23 be
       0.10672204 -0.13966149 -0.06958176 -0.15978898

lstm.bias_hh_l1 f4 [200]
000000 58 59 a2 bd cc 15 22 3e 68 81 52 bd 59 a2 a4 3d
       -0.07927197 0.15828627 -0.051392943 0.08038778
000010 98 17 e3 bc ce 22 92 3d 6e 51 28 bd 6d f6 46 bc
       -0.027721211 0.07135545 -0.041093282 -0.012143713
000020 00 78 d1 3d 6e c9 1b 3e e9 bf 9d 3d 27 3e b7 3d
       0.10227966 0.15213558 0.077026196 0.089474015
000030 0c fa 10 3e 2d b4 8c 3c 69 01 c4 3d ae 57 85 bd
       0.14157885 0.017175758 0.095705815 -0.06510864
000040 d7 b1 f3 bd f4 8a 9f bd bf b3 0f be 60 6d da 3d
       -0.11899155 -0.07790175 -0.14033411 0.10665393
000050 10 11 19 3e f0 2a 81 bd 79 9d 58 bd 5b 27 fb bc
       0.14947915 -0.06307018 -0.052884553 -0.030658415
000060 80 61 c3 bd cd 47 e1 3d a3 59 8e 3d cd d3 aa bd
       -0.09540081 0.11000023 0.069506906 -0.08341179
000070 a9 fd 12 3c 17 68 6f bc a9 f7 15 3e 4a 11 69 b8
       0.00897161 -0.014612219 0.14645256 -5.556763e-05
000080 c0 d9 1a 3e ed e0 67 3d 90 59 5f bd 44 e3 94 bc
       0.15122128 0.05661099 -0.054528773 -0.018174775
000090 8f 6a 0b be 8d be 84 3d 34 f5 30 3e 2a 4f 2a 3d
       -0.13614868 0.06481657 0.17281038 0.041579403
0000a0 05 a0 df bd a3 5c 27 3d 4c fb b7 3d 42 18 6b 3c
       -0.10919193 0.04085983 0.08983478 0.014349045
0000b0 3d 59 15 3e 3b 18 b2 bd 26 f3 41 bd 55 0a a2 3c
       0.14584823 -0.08696028 -0.047351025 0.019780317
0000c0 bf aa 8b bd b1 0a 05 be d2 6f fa bb cf da bc bd
       -0.068196766 -0.1299236 -0.0076427246 -0.09221422
0000d0 5b 55 20 be 4b 94 57 bd 63 3e 17 bd b7 5c 6f bd
       -0.1565756 -0.052631658 -0.03692473 -0.05843803
0000e0 35 8f b8 3d 4b 30 6d ba c3 1e 05 be fc 8e 3d 3d
       0.090116896 -0.0009048029 -0.13000016 0.04627894
0000f0 08 58 46 bc 49 cd b6 3c 65 44 88 3d 56 c2 d3 bc
       -0.012105949 0.022314684 0.0665367 -0.025849503
000100 4f e8 35 bd d0 99 21 3c 4d 77 5b bd c6 64 b5 bd
       -0.044411 0.009863332 -0.05358057 -0.08857112
000110 bc 00 80 3d 0c d4 2c be c7 8e a9 3d 67 af d3 3c
       0.0625014 -0.16877764 0.08279186 0.025840474
000120 8c d9 97 bd 44 42 2e 3e 03 8b a1 bd 07 0e bb bd
       -0.07414541 0.17017466 -0.078878425 -0.09133535
000130 2c a3 87 bd d5 e5 67 3c 1b 28 ec bd e5 6c 3f bc
       -0.066229194 0.014153917 -0.11531087 -0.011683677
000140 19 69 bf bd 7f 60 4b 3b bf 5f 18 be d8 4d b6 bc
       -0.09346218 0.0031032858 -0.14880274 -0.022253916
000150 c7 a8 48 3d 59 f0 38 be 96 86 83 3c f2 9b be 3c
       0.048989084 -0.18060435 0.016055387 0.02326772
000160 7a 89 84 3d 1b 57 27 be 72 b7 a8 3d c3 4d 02 bd
       0.06471534 -0.16341822 0.082381144 -0.03181244
000170 8e 65 6a bd df f9 49 3d e2 51 91 bd 9f 65 35 be
       -0.057225756 0.04931056 -0.07095696 -0.17714547
000180 73 7a 0b bd 86 6c ea bd 42 05 4d bc 9f 5f d3 bd
       -0.034052324 -0.114464805 -0.012513461 -0.10320973
000190 09 05 79 bb c3 42 2d 3b df b6 7b ba ce d7 11 3e
       -0.0037997386 0.0026437498 -0.000960214 0.14242479
0001a0 72 be fc bd 11 cd 36 bc e8 3a 9e bc 0d 7e 15 3c
       -0.12341012 -0.01115729 -0.019315198 0.009124291
0001b0 7c da b7 3c fa 56 20 bc 63 4e be bd ce 8e 07 3d
       0.022443049 -0.009786362 -0.09292295 0.033095174
0001c0 1e ef 0f be 44 c2 04 3e ec c8 8b bd 94 73 80 3d
       -0.1405606 0.12964731 -0.06825432 0.06272045
0001d0 47 d6 2b bd 65 8b db bc cd c7 ba 3b 7c 24 11 3d
       -0.041952398 -0.026799867 0.0057000876 0.035435185
0001e0 56 bb bc 3c 01 1f be 3d 12 11 e7 3d ca 2d e7 bc
       0.023038547 0.09283257 0.11282553 -0.028220076
0001f0 5b b9 6b bd e3 87 1e bd fd 75 78 3d 40 74 ac 3d
       -0.057549816 -0.03870381 0.060659397 0.084206104
000200 45 50 91 3d c4 1f 67 3d 2b 37 d7 3d d0 bd 4f 3d
       0.07095388 0.05642678 0.10508569 0.05071813
000210 19 a4 23 3e f9 aa b3 3c 9c cd 05 bd 9d 6c 0a be
       0.15980567 0.021932112 -0.032666788 -0.13517995
000220 17 4e 24 3d 1d 3f 0c bd 58 77 45 bd cc de f4 3d
       0.040113535 -0.034239877 -0.04820952 0.11956558
000230 4b 08 43 bd 71 b8 ab 3d aa 65 1e be ee 24 be bb
       -0.04761533 0.08384789 -0.1546847 -0.005802742
000240 eb c6 1e bd 1f 5f a5 3d e6 ae 1d bd 5d dd 4c bd
       -0.03876392 0.080747835 -0.038496874 -0.050015796
000250 e2 33 a5 bd b7 1e cd bc 97 02 5a bd 57 17 82 3d
       -0.080665365 -0.02503906 -0.053225126 0.06352108
000260 d8 28 f7 3c 15 ab a6 3c ca e0 13 3e 01 52 d4 ba
       0.030170843 0.02034525 0.14441219 -0.0016198755
000270 68 01 1f 3d 46 38 b6 3d 6d 74 84 bd 40 8e 56 3c
       0.0388197 0.08897452 -0.06467519 0.0130954385
000280 87 f2 7c 3b 4e 8c 13 be 53 25 e9 bd ed 6b 8f 3d
       0.0038596706 -0.1440899 -0.11384072 0.07003007
000290 d4 99 0e bc a7 59 05 bd 6d f3 12 bb d8 3c 01 3d
       -0.008703668 -0.032556202 -0.0022422925 0.031552166
0002a0 fd fe fe bc b1 d1 6c 3d 16 cd 1b bd d2 06 2d 3d
       -0.031127447 0.057817165 -0.038037382 0.042242832
0002b0 3b e0 2a be 2a e8 d2 bd 99 42 b7 3d 28 8d b6 bd
       -0.166871 -0.10298188 0.08948249 -0.08913642
0002c0 d6 49 ad 3d 3d 03 2e 3d b3 75 c0 bd 37 b7 79 bd
       0.08461349 0.042483557 -0.09397449 -0.060965743
0002d0 36 97 86 bd 85 46 53 bd 5f ba d5 bc ef 60 0d be
       -0.0657181 -0.051580925 -0.026089845 -0.13806508
0002e0 99 b4 94 bd ff 25 8f 3d a0 78 8c bc 33 e9 64 3c
       -0.07261009 0.06989669 -0.017147362 0.013971615
0002f0 dc 30 16 3d eb ba fe bd 54 39 c5 bd 8f a0 9e bc
       0.03666769 -0.124379955 -0.09630075 -0.01936367
000300 26 5c f9 bd a0 31 fb 3a 4d 3e 55 bd 8e a6 f6 bd
       -0.12175779 0.001916457 -0.052061368 -0.120434865
000310 53 64 bb 3d ec 8d e3 3c 58 64 a2 bd 6c e7 b6 3d
       0.09149995 0.027777635 -0.07929295 0.08930859
