trained-models/last_lstm.pt (torch, 392910 bytes, 27 tensors)

lstm.weight_ih_l0 f4 [200, 5]
-0.00051285996 0.006777391 0.05386366 -0.10465216 -0.07927117 0.11518434 0.17054254 0.16618213
0.008777891 0.12369834 0.11517308 -0.040072523 0.051834766 0.19074982 0.2761868 -0.048696477
-0.03488726 0.05532256 0.16449547 0.14227532 -0.10860971 0.08682556 -0.020825444 0.16802937
0.14439496 0.04753802 -0.000779155 0.14945574 0.09583092 -0.01964953 0.15459025 0.18670972
0.062604904 0.07661953 -0.04258215 0.0017614702 -0.086262554 -0.012408115 -0.009408719 0.13155046
-0.1137725 -0.11019989 0.022674188 -0.002176359 0.08067745 -0.026001615 0.17764883 0.05601799
0.07341477 0.11325165 -0.18107113 -0.18939401 -0.1528781 -0.16641498 -0.14645757 0.06238598
0.08028575 0.06544837 0.0017409652 0.14590213 -0.029671473 0.14849927 0.0065725893 0.084532365
0.14477676 -0.16440366 -0.12554434 -0.131524 -0.065555155 0.13191926 0.061435603 0.05683445
0.12277039 0.20626673 0.0065170373 -0.009370342 0.07489282 0.033988416 0.09408514 0.08860706
0.27618504 0.13225147 0.13131644 0.13456038 0.18495545 0.01227121 0.017607221 0.21311562
0.081636846 0.23812948 0.10166107 -0.003300429 -0.11088748 0.016499061 -0.09155679 0.09623443
0.15866794 -0.035866104 0.028897634 -0.03199385 0.14392173 0.04225806 0.112764135 0.0028962684
0.06154121 0.088967 -0.019211503 0.095082685 0.10365736 -0.114054926 -0.14275518 0.06857118
-0.037127044 -0.13947561 0.166444 0.051599827 0.12525429 -0.029122293 0.037607953 0.000715439
-0.038171325 -0.18858916 -0.106020644 0.018919239 0.120143525 -0.09721103 0.123395585 -0.12221917
0.06790038 0.16052009 0.05853319 0.096648075 0.03648976 -0.046587836 0.21816288 0.08214987
0.015357077 0.08453419 -0.04814032 -0.16787909 -0.041082237 0.06948816 -0.027306208 0.08343373
0.028394321 -0.1100752 0.09245853 0.06897071 0.14681977 0.021930128 -0.0006241448 -0.0114636365
-0.10627165 -0.09469836 0.11941587 0.124463394 0.056453142 0.04008753 -0.0033652605 -0.01648219
-0.087694116 0.025644584 -0.10751373 0.08227237 -0.021335142 -0.09694806 0.07874189 -0.03563017
-0.13477185 0.18083769 0.11681793 0.088712156 0.10983209 0.007768894 -0.009595374 0.13882945
0.07194389 0.20397921 0.1361303 0.34340742 0.047360875 -0.035283655 0.14976385 0.0824496
-0.0796346 0.06434591 0.10235699 0.11012996 0.19626527 0.27892837 0.0297741 0.06841138
-0.14388774 -0.06637419 0.08050142 0.08570775 0.032720637 0.0035253777 0.064926155 -0.09109256
-0.057877086 -0.15393072 -0.15969813 -0.10010707 -0.13960393 0.08617464 0.10389092 -0.025166633
0.07673749 -0.1325834 -0.06880327 0.07437373 0.027913138 -0.003508048 -0.015560442 0.063030384
-0.05841565 0.0649847 0.018671513 0.021872006 0.0012224738 0.005959308 0.0870751 -0.014518705
0.049046423 -0.10659946 -0.082588874 0.06266838 -0.010873456 -0.1890787 0.018343035 0.080308795
0.19120678 0.059100006 0.13571326 0.060674876 0.1382776 -0.10371791 -0.10691031 0.016739676
0.012882529 -0.06949636 0.09905542 -0.035342354 -0.117884785 -0.015631028 0.115550004 0.1939352
0.07436039 -0.081321724 -0.09834834 -0.17164133 -0.22597167 -0.22697277 -0.0048276787 -0.05950665
00000000: 7371 06ba e014 de3b 24a0 5c3d df53 d6bd
00000010: ec58 a2bd c4e5 eb3d b4a2 2e3e a62b 2a3e
00000020: 25d1 0f3c 8e55 fd3d dddf eb3d 1623 24bd
00000030: b150 543d ec53 433e 5b68 8d3e f575 47bd
00000040: f2e5 0ebd e999 623d 8071 283e 9fb0 113e
00000050: c56e debd 99d1 b13d 1f9a aabc e40f 2c3e
00000060: 46dc 133e 3ab7 423d 3540 4cba ed0a 193e
00000070: 0043 c43d 0df8 a0bc e84c 1e3e d530 3f3e
00000080: 0037 803d b3ea 9c3d 9f6a 2ebd 22e1 e63a
00000090: 6caa b0bd 684b 4bbc 0727 1abc 2ab5 063e
000000a0: 8e01 e9bd 7bb0 e1bd 38bf b93c 3fa1 0ebb
000000b0: 383a a53d 5701 d5bc 93e9 353e 1f73 653d
000000c0: 7c5a 963d 7bf0 e73d b66a 39be 81f0 41be
000000d0: 148c 1cbe b068 2abe f9f8 15be 7188 7f3d
000000e0: db6c a43d cc09 863d 1931 e43a 5e67 153e
000000f0: 9711 f3bc 3110 183e e05e d73b 4e1f ad3d
00000100: 5c40 143e 6f59 28be b28e 00be 3aae 06be
00000110: c841 86bd d815 073e e6a3 7b3d 3ecb 683d
00000120: 0b6f fb3d 9637 533e df8c d53b 1086 19bc
00000130: 6861 993d 7037 0b3d b6af c03d 9e77 b53d
00000140: 2068 8d3e ee6c 073e d177 063e 32ca 093e
00000150: f664 3d3e 2f0d 493c 053d 903c fb3a 5a3e
00000160: 3831 a73d 37d8 733e ae33 d03d 034c 58bb
00000170: fa18 e3bd 0a29 873c 2082 bbbd 8f16 c53d
00000180: d979 223e 56e8 12bd bbba ec3c fc0b 03bd
00000190: 3860 133e ca16 2d3d e2f0 e63d 52cf 3d3b
000001a0: a312 7c3d 5534 b63d 7161 9dbc b6ba c23d
000001b0: 4f4a d43d a195 e9bd 6a2e 12be 0c6f 8c3d
000001c0: 8712 18bd b2d2 0ebe 4c70 2a3e 575a 533d
000001d0: a942 003e e091 eebc cc0a 1a3d 4c8c 3b3a
000001e0: 8959 1cbd 841d 41be 5a21 d9bd 85fc 9a3c
000001f0: cf0d f63d 9416 c7bd d3b6 fc3d 0b4e fabd
00000200: 5b0f 8b3d 615f 243e 80c0 6f3d 6def c53d
00000210: 4976 153d e3d2 3ebd 1766 5f3e 313e a83d
00000220: 409c 7b3c 4320 ad3d c92e 45bd 7fe8 2bbe
00000230: d945 28bd cf4f 8e3d 45b1 dfbc 4edf aa3d
00000240: 359b e83c 1b6f e1bd e65a bd3d 8440 8d3d
00000250: ec57 163e d0a6 b33c a69d 23ba fad1 3bbc
00000260: f3a4 d9bd 37f1 c1bd 4f90 f43d aae6 fe3d
00000270: 693b 673d d232 243d b48b 5cbb a805 87bc
00000280: f998 b3bd 9714 d23c 2930 dcbd 6b7e a83d
00000290: 09c7 aebc b48c c6bd 6e43 a13d f1f0 11bd
000002a0: a201 0abe 842d 393e 3d3e ef3d b8ae b53d
000002b0: a6ef e03d 3592 fe3b ea35 1dbc 4f29 0e3e
000002c0: 5157 933d eddf 503e be65 0b3e 19d3 af3e
000002d0: 7afd 413d 9885 10bd b25b 193e 56db a83d
000002e0: 7717 a3bd cac7 833d 8ba0 d13d d18b e13d
000002f0: c3f9 483e b3cf 8e3e d0e8 f33c 441b 8c3d
00000300: 4f57 13be 31ef 87bd eedd a43d 8b87 af3d
00000310: 1306 063d 060a 673b 01f8 843d bc8e babd
00000320: 8610 6dbd 04a0 1dbe e887 23be ef04 cdbd
00000330: 55f4 0ebe 547c b03d c3c4 d43d 412a cebc
00000340: 8c28 9d3d f1c3 07be bbe8 8cbd 4151 983d
00000350: 18aa e43c 47e7 65bb 39f1 7ebc 1316 813d
00000360: 4045 6fbd b316 853d 00f5 983c ec2c b33c
00000370: 6a3b a03a 4c46 c33b 6e54 b23d dddf 6dbc
00000380: e7e4 483d d150 dabd 5b24 a9bd 4858 803d
00000390: 9426 32bc d99d 41be 2244 963c f078 a43d
000003a0: b6cb 433e d912 723d 6bf8 0a3e 3886 783d
000003b0: a598 0d3e 0e6a d4bd cbf3 dabd a521 893c
000003c0: 3e11 533c 1c54 8ebd 91dd ca3d 25c3 10bd
000003d0: 946d f1bd a40c 80bc 7ba5 ec3d f396 463e
000003e0: 434a 983d 018c a6bd db6a c9bd bfc2 2fbe
000003f0: 1e65 67be 8d6b 68be 8131 9ebb 3fbd 73bd

lstm.weight_hh_l0 f4 [200, 50]
0.018615926 0.047438983 0.06122661 -0.049474917 -0.063254654 0.148744 -0.018425282 -0.044123393
0.15240455 0.077725135 -0.038666893 0.16106218 -0.08521602 -0.15895064 -0.03824921 0.09637078
-0.13301715 -0.21141705 0.042888414 -0.08736606 0.048973348 -0.014901769 -0.08771811 -0.09764828
0.12202754 -0.02334575 0.07534709 -0.22078523 -0.08292074 0.07451575 0.13013686 0.060963463
0.08716799 0.007359225 0.10171511 0.13482672 0.08916744 0.020306064 -0.074683905 -0.16405085
-0.06623856 -0.06040057 -0.12448501 -0.0006784995 0.16620794 -0.026704574 -0.07355844 0.0128574455
-0.07879719 0.010712594 0.016115947 -0.06028655 0.09738058 0.07300233 -0.07312925 -0.09133564
-0.012056134 -0.1748754 -0.012473083 -0.083980896 -0.0700047 0.029657422 -0.08912131 0.05463179
0.028236719 0.028760355 -0.095840186 -0.003319379 -0.10588146 -0.051705014 -0.084014125 -0.029844943
0.13544993 0.0645623 0.06240777 -0.17756623 0.10982871 0.043402173 0.055202693 -0.1218649
-0.0512007 0.002428008 -0.12332049 -0.1450253 0.038863193 0.11803682 -0.11738632 0.053148948
-0.07565601 -0.06519611 0.21779142 0.009305278 0.04601444 -0.13271968 -0.021614138 -0.07967744
-0.058981594 0.0599482 -0.095183395 -0.08303219 0.12320482 0.10745557 0.14921644 0.055225696
-0.10999806 -0.061606567 -0.038971964 -0.0055713984 0.18895395 -0.10416519 -0.12897795 0.019559573
0.09343078 0.16026004 -0.021258505 0.17575213 0.054222994 -0.16208658 -0.068104394 -0.08437308
0.07769787 0.088964276 0.10457917 -0.12540305 0.017321123 0.088202916 -0.11794883 0.10482427
0.017195906 -0.10788244 0.16532458 0.0236131 -0.16789699 0.084886044 -0.040121567 0.15950866
-0.0918444 -0.06429704 0.06937917 -0.065104134 0.12709479 -0.085073635 -0.052455705 -0.021131732
0.10473528 0.041874707 0.07897109 -0.045746446 -0.2102224 0.1491438 0.09099593 0.04439489
-0.09346566 0.029531192 0.10693366 0.063614756 -0.07554346 0.017633822 0.15018345 0.002205361
-0.06594616 -0.13380706 0.088767715 0.032715824 -0.010088962 -0.118858576 -0.0140614165 -0.050477948
-0.09974691 -0.12529281 0.0503394 -0.06743657 0.12257444 -0.09184985 -0.09946294 0.09452476
0.1600978 0.017880635 0.09373006 0.10873947 -0.0219215 0.048215885 -0.09081065 0.025173472
-0.11007059 -0.13559286 0.031498495 0.00099495 0.17856437 -0.11303456 0.11315775 -0.11121293
-0.01549283 -0.09780019 -0.14049381 0.0023478963 0.015545405 -0.0343733 0.0999341 -0.079868905
-0.020854514 0.075123 0.14721453 -0.044903383 -0.07881397 0.056527402 0.0803299 -0.16195393
0.110458985 -0.049283992 -0.13616239 0.14124788 0.03772108 0.016661631 -0.09623685 -0.06527249
-0.04593351 -0.08563726 -0.01945441 0.039625198 -0.022862446 0.10918921 0.15037915 0.030690508
-0.0021665252 -0.01215528 0.16084838 0.15570302 0.07087342 0.0024065145 0.056793254 -0.107869774
0.08349671 0.037470724 0.14489305 0.07455014 -0.025371067 -0.093408026 0.16613784 0.06762403
0.10238828 -0.030464033 0.0624537 0.011183158 0.13082935 0.10654834 0.010371411 0.0116438735
-0.008948326 -0.055028293 0.36477825 0.11019216 0.003706409 -0.05951373 0.029371135 0.13548744
00000000: 6d80 983c 614f 423d c1c8 7a3d 36a6 4abd
00000010: a88b 81bd 5950 183e 9ef0 96bc bbba 34bd
00000020: f00f 1c3e 5b2e 9f3d 2d61 1ebd 7ced 243e
00000030: bd85 aebd f5c3 22be 34ab 1cbd 0b5e c53d
00000040: a635 08be b67d 58be c3ab 2f3d faec b2bd
00000050: 4798 483d 8d26 74bc 8da5 b3bd d2fb c7bd
00000060: 93e9 f93d 963f bfbc 934f 9a3d 8615 62be
00000070: 59d2 a9bd b79b 983d 9942 053e d3b4 793d
00000080: 2285 b23d a725 f13b 0350 d03d 0410 0a3e
00000090: 6b9d b63d e758 a63c e0f3 98bd f2fc 27be
000000a0: 15a8 87bd 9766 77bd fff1 febd 55dd 31ba
000000b0: 6a32 2a3e 8dc3 dabc cfa5 96bd 09a8 523c
000000c0: 6c60 a1bd e083 2f3c 9705 843c 08ef 76bd
000000d0: 786f c73d 3f82 953d cac4 95bd 2e0e bbbd
000000e0: 1787 45bc 8912 33be e75b 4cbc 2dfe abbd
000000f0: a05e 8fbd 1ff4 f23c 3c85 b6bd 95c5 5f3d
00000100: b150 e73c d69a eb3c dc47 c4bd f089 59bb
00000110: 61d8 d8bd a3c8 53bd 990f acbd 627d f4bc
00000120: 63b3 0a3e 3d39 843d 4a9f 7f3d ecd3 35be
00000130: e0ed e03d 7ac6 313d 381c 623d 4e94 f9bd
00000140: d3b7 51bd 371f 1f3b 748f fcbd 8381 14be
00000150: 032f 1f3d 4abd f13d 3d68 f0bd b6b2 593d
00000160: 8af1 9abd 8a85 85bd b704 5f3e 2a75 183c
00000170: a379 3c3d abe7 07be 2210 b1bc ed2d a3bd
00000180: af96 71bd 3e8c 753d 83ef c2bd c80c aabd
00000190: cf52 fc3d aa11 dc3d 32cc 183e 5734 623d
000001a0: aa46 e1bd 2b57 7cbd 11a1 1fbd 4790 b6bb
000001b0: 257d 413e 8f54 d5bd cc12 04be 663b a03c
000001c0: a358 bf3d 351b 243e 5126 aebc 5ef8 333e
000001d0: ee18 5e3d 06fa 25be 517a 8bbd cbcb acbd
000001e0: 1020 9f3d e732 b63d 9b2d d63d a869 00be
000001f0: 07e5 8d3c bba3 b43d 288f f1bd 1bae d63d
00000200: 6ede 8c3c 78f1 dcbd d94a 293e 4370 c13c
00000210: 30ed 2bbe bcd8 ad3d 8356 24bd 3d56 233e
00000220: eb18 bcbd 2bae 83bd ab16 8e3d 5155 85bd
00000230: 2325 023e 163b aebd cbdb 56bd 741c adbc
00000240: 737f d63d d084 2b3d 98bb a13d a060 3bbd
00000250: 8a44 57be 27b9 183e 135c ba3d 6bd7 353d
00000260: ed6a bfbd 66eb f13c 0900 db3d 7448 823d
00000270: 88b6 9abd ce74 903c b1c9 193e d187 103b
00000280: c80e 87bd b804 09be d9cb b53d 0701 063d
00000290: 2c4c 25bc 206c f3bd db61 66bc f7c1 4ebd
000002a0: 1c48 ccbd c24c 00be b030 4e3d 2f1c 8abd
000002b0: 4f08 fb3d c61b bcbd 3ab3 cbbd 3396 c13d
000002c0: adf0 233e 697a 923c 8cf5 bf3d cdb2 de3d
000002d0: b894 b3bc 057e 453d effa b9bd 9938 ce3c
000002e0: b16c e1bd dbd8 0abe 9104 013d fb68 823a
000002f0: 94d9 363e aa7e e7bd 40bf e73d 9bc3 e3bd
00000300: a4d5 7dbc 774b c8bd 9cdd 0fbe 2adf 193b
00000310: 28b2 7e3c 04cb 0cbd 40aa cc3d 4f92 a3bd
00000320: 16d7 aabc 16da 993d 68bf 163e 9cec 37bd
00000330: 3869 a1bd 4789 673d 0184 a43d 40d7 25be
00000340: 5238 e23d 03de 49bd 276e 0bbe 49a3 103e
00000350: 6b81 1a3d f97d 883c d317 c5bd 95ad 85bd
00000360: c724 3cbd 9662 afbd db5e 9fbc 084e 223d
00000370: 064a bbbc 989e df3d fefc 193e a96a fb3c
00000380: 43fc 0dbb f126 47bc 70b5 243e 9d70 1f3e
00000390: 1526 913d 9db6 1d3b 0ba0 683d d4ea dcbd
000003a0: 5300 ab3d e77a 193d d85e 143e bead 983d
000003b0: fcd6 cfbc b54c bfbd 0a20 2a3e 787e 8a3d
000003c0: f2b0 d13d b58f f9bc 73cf 7f3d 9039 373c
000003d0: 21f8 053e 0436 da3d daec 293c f2c5 3e3c
000003e0: 009c 12bc 5965 61bd 37c4 ba3e 6dac e13d
000003f0: 39e7 723b abc4 73bd bc9b f03c 38bd 0a3e

lstm.bias_ih_l0 f4 [200]
-0.03511486 0.16380969 0.01499533 0.0066167633 0.014107793 0.12718433 0.035361663 0.19624224
-0.060981255 0.14598383 -0.07490383 0.077189565 0.010488469 0.09397867 0.20556085 0.09937658
0.26148498 0.08394248 0.19790304 0.036967978 -0.102841325 0.03186379 0.09057897 0.01834056
0.15446314 0.23645417 0.14636043 0.1367429 0.14233798 0.052977834 0.04999245 -0.028211437
-0.049867503 -0.04507114 -0.013837617 0.37914762 0.031772237 -0.12306357 -0.047328584 -0.009848848
0.038280543 -0.042684574 0.0519205 -0.090937294 0.17386015 0.043970738 0.0648348 0.061963927
0.012500773 0.016286243 0.013301236 0.013423804 -0.09818177 0.08450904 0.061650854 0.110564366
0.034587216 0.17591202 0.04905331 -0.12814216 0.06310712 -0.09715546 0.1256658 -0.053080738
-0.03823825 0.033355817 0.028122038 -0.10101082 -0.028094165 -0.13046649 0.086200565 -0.14846484
-0.02327394 0.08172829 -0.09506778 -0.18107954 0.052077584 -0.1651802 -0.1204387 -0.1366077
-0.035812907 0.08600931 -0.119010694 -0.1008742 -0.12330036 -0.11033313 0.04362188 -0.093624465
-0.13603939 -0.007276136 -0.11468553 0.053225927 -0.034052845 -0.04256589 -0.14540908 -0.006017999
-0.065949425 0.009646797 -0.018556645 -0.11597345 0.040228304 0.06095202 -0.04327278 0.07032123
-0.06641932 0.048585527 -0.047829073 -0.078179725 0.070518464 -0.07097483 -0.06800997 0.046105847
-0.09316544 -0.0579204 0.0044413195 -0.011052327 -0.044648234 -0.036885295 -0.014570352 -0.06587654
0.021597426 -0.100881286 0.055694353 -0.011664485 0.09774815 0.06467895 0.08260409 0.07947184
-0.04643061 0.035521965 0.08204159 0.029596394 0.06561562 -0.08066968 -0.1196343 0.07569733
0.019980421 0.024409369 -0.08593299 -0.03524969 -0.026736772 0.006593778 -0.01209338 -0.11427733
0.0719797 -0.0073911333 0.015456296 -0.034237616 0.08139269 0.038049012 0.18894221 0.056952458
-0.033982642 -0.06776398 0.113893434 0.08151845 -0.09210906 -0.02823081 -0.008630419 -0.105393134
-0.019550066 0.20123687 0.038160324 0.08503169 0.12926914 -0.046072755 0.21035822 0.092053086
0.16770697 0.027740592 0.1283186 -0.082703315 0.17320275 -0.043644223 0.061549447 0.20549901
0.14765447 0.07372687 0.16819808 0.19743396 -0.043164264 0.02479711 -0.009869958 -0.021047074
-0.034817535 0.18367879 0.033610012 -0.043847583 0.14190464 -0.032489013 -0.017174175 0.1087626
-0.025358232 0.13083327 0.19234806 -0.13197888 0.076469965 0.06735829 0.12080954 -0.043753654
00000000: 99d4 0fbd babd 273e f9ae 753c 6fd1 d83b
00000010: 5f24 673c 9c3c 023e 64d7 103d baf3 483e
00000020: 7bc7 79bd c97c 153e 2e67 99bd 9015 9e3d
00000030: d4d7 2b3c e477 c03d 8b7e 523e f385 cb3d
00000040: 5ce1 853e 09ea ab3d 18a7 4a3e bc6b 173d
00000050: 799e d2bd 9b83 023d 7881 b93d f13e 963c
00000060: 962b 1e3e 0b21 723e 82df 153e 5506 0c3e
00000070: 0cc1 113e 49ff 583d e2c4 4c3d ac1b e7bc
00000080: de41 4cbd 849c 38bd 2cb7 62bc a31f c23e
00000090: 9b23 023d c108 fcbd 9edb 41bd 105d 21bc
000000a0: 0fcc 1c3d 05d6 2ebd 97aa 543d 553d babd
000000b0: 6508 323e a91a 343d 1cc8 843d e3cd 7d3d
000000c0: 0bd0 4c3c ba6a 853c 6ded 593c 84ef 5b3c
000000d0: 8613 c9bd 1313 ad3d 9b85 7c3d 926f e23d
000000e0: 53ab 0d3d 4822 343e 20ec 483d b337 03be
000000f0: 4e3e 813d 71f9 c6bd 89ae 003e 306b 59bd
00000100: b69f 1cbd 1ca0 083d 3060 e63c c3de cebd
00000110: bc25 e6bc 0299 05be ec89 b03d 2b07 18be
00000120: fda8 bebc 2961 a73d e5b2 c2bd ea6c 39be
00000130: 4e4f 553d 0025 29be 91a8 f6bd e4e2 0bbe
00000140: 8eb0 12bd a625 b03d e1bb f3bd 2297 cebd
00000150: e684 fcbd 56f6 e1bd dbac 323d 2fbe bfbd
00000160: e94d 0bbe a76c eebb 3fe0 eabd 6e03 5a3d
00000170: ff7a 0bbd 9259 2ebd 1ee6 14be a232 c5bb
00000180: 7e10 87bd 990d 1e3c 1b04 98bc 7d83 edbd
00000190: 6fc6 243d d3a8 793d cc3e 31bd 9404 903d
000001a0: da06 88bd 9e01 473d 6be8 43bd b11c a0bd
000001b0: fc6b 903d 405b 91bd d048 8bbd 7cd9 3c3d
000001c0: 86cd bebd f13d 6dbd 7d88 913b d214 35bc
000001d0: 11e1 36bd 0915 17bd 7cb8 6ebc 48ea 86bd
000001e0: 16ed b03c d99a cebd c31f 643d 651c 3fbc
000001f0: 2f30 c83d 6676 843d 552c a93d 22c2 a23d
00000200: 062e 3ebd 7b7f 113d 6c05 a83d 2374 f23c
00000210: 7b61 863d 2536 a5bd d402 f5bd 3407 9b3d
00000220: fbad a33c 28f6 c73c a3fd afbd fb61 10bd
00000230: 1307 dbbc 9e10 d83b 5023 46bc 3c0a eabd
00000240: 186a 933d 5231 f2bb 673c 7d3c be3c 0cbd
00000250: 36b1 a63d 48d9 1b3d 117a 413e fb46 693d
00000260: 6231 0bbd d7c7 8abd f640 e93d 25f3 a63d
00000270: ada3 bcbd 4d44 e7bc 9a66 0dbc 5bd8 d7bd
00000280: 7627 a0bc 0a11 4e3e 004e 1c3d 1825 ae3d
00000290: 215f 043e c9b6 3cbd 2568 573e 5486 bc3d
000002a0: 60bb 2b3e 3d40 e33c f365 033e 5b60 a9bd
000002b0: 105c 313e 49c4 32bd 461b 7c3d 556e 523e
000002c0: bc32 173e 1dfe 963d 1e3c 2c3e 212c 4a3e
000002d0: 03cd 30bd 4f23 cb3c 9bb5 21bc ea6a acbc
000002e0: d59c 0ebd 4b16 3c3e a7aa 093d 8699 33bd
000002f0: 734f 113e 3313 05bd dbb0 8cbc edbe de3d
00000300: 11bc cfbc 28f9 053e e4f6 443e 7925 07be
00000310: 499c 9c3d 25f3 893d fe6a f73d 0837 33bd

lstm.bias_hh_l0 f4 [200]
0.16647 0.15267256 -0.06708866 0.014919483 0.1350581 -0.02941671 0.17917365 0.1853433
0.12812813 -0.09357098 0.10050834 0.21738401 0.1884624 0.08883427 0.30293882 0.012597463
0.24577607 0.097144306 0.08854042 -0.057149533 0.106519036 0.14009154 0.09602812 -0.022217542
0.027953675 0.030674508 0.04851725 0.13457434 0.156861 0.085518435 0.15703954 0.065390155
-0.0067351605 -0.016638976 -0.096781135 0.22665952 -0.040954117 -0.040814 0.20136903 -0.05099434
-0.10162193 0.16377011 -0.10991404 0.14578484 0.16759787 -0.11709779 0.11357253 0.14482577
0.18624754 0.05254092 0.12326541 -0.08543383 0.020660087 0.044637546 -0.041654296 -0.09475395
-0.1461617 -0.0633755 0.031662326 0.03648031 -0.048289534 0.046340253 -0.124027826 0.047007132
0.05291068 -0.07886511 0.10953521 -0.06349568 -0.013744651 -0.14977546 -0.14596003 0.0012058758
-0.11061886 -0.04229881 -0.06477846 -0.15932518 -0.18382162 0.02895137 -0.14167787 0.11622406
-0.11926859 -0.054854527 0.020613529 -0.023386415 -0.048488926 -0.1489609 -0.08530226 -0.052102007
-0.10984502 -0.15119675 0.1063494 -0.17020151 0.1047383 0.028261393 -0.13948241 -0.15017599
-0.0786757 0.08142956 -0.007176416 0.049945455 0.15588138 0.05812669 0.073386624 0.017777165
-0.012832851 -0.021509219 -0.021695515 -0.057207916 0.07368222 0.116507724 0.022376796 -0.0012449583
0.050061114 -0.16349745 -0.023256121 -0.050895113 0.11300741 0.05413455 -0.04816351 0.006878574
-0.10851005 0.06244039 -0.045291305 0.057616524 0.041064076 -0.07885176 0.08448634 -0.07851846
-0.020963501 0.02070469 -0.027407143 -0.11938254 -0.006704467 -0.03894038 0.079430595 -0.12588426
-0.026245952 0.042239565 0.056084648 0.0027436272 0.08974627 -0.08104689 0.029792758 0.06747363
0.018634126 -0.07841667 0.034138374 -0.010423308 0.010157846 -0.03293401 -0.021612983 -0.081723474
0.058620587 -0.10303614 -0.06311762 0.17860281 -0.009269179 -0.016933598 -0.002965764 -0.096024215
0.08847922 0.14733864 0.15417838 -0.048229646 0.10749553 -0.008791506 0.027625872 0.20311315
0.15766351 -0.08840427 0.13892573 -0.009541727 -0.017023968 0.0025150215 -0.04211169 0.2482617
0.1330152 0.1493917 0.20884804 0.13519639 0.05662495 0.112444155 -0.06684255 -0.047158036
0.12481836 0.32525894 0.06413804 -0.027978212 -0.0010844845 0.06122773 0.04634877 -0.048027385
-0.07123084 0.18349737 0.14514808 -0.10579308 -0.0030536316 0.06607898 0.18422589 -0.045875598
00000000: 1d77 2a3e 3256 1c3e c865 89bd d970 743c
00000010: ac4c 0a3e 50fb f0bc 4c79 373e a2ca 3d3e
00000020: 0534 033e 24a2 bfbd 51d7 cd3d ea99 5e3e
00000030: 4afc 403e beee b53d cc1a 9b3e 9765 4e3c
00000040: b9ac 7b3e 98f3 c63d ae54 b53d a115 6abd
00000050: a726 da3d 2874 0f3e 64aa c43d 9001 b6bc
00000060: 1bff e43c 1b49 fb3c 06ba 463d dbcd 093e
00000070: 2ca0 203e 4a24 af3d f9ce 203e 46eb 853d
00000080: 9fb2 dcbb 764e 88bc 3035 c6bd 6f19 683e
00000090: 81bf 27bd 952c 27bd af33 4e3e 71df 50bd
000000a0: 291f d0bd 5ab3 273e 9d1a e1bd 9f48 153e
000000b0: c79e 2b3e f7d0 efbd b798 e83d 354d 143e
000000c0: adb7 3e3e 2635 573d 9372 fc3d eff7 aebd
000000d0: 583f a93c dcd5 363d b29d 2abd 5c0e c2bd
000000e0: 6aab 15be 04cb 81bd 5bb0 013d 616c 153d
000000f0: 3fcb 45bd 47cf 3d3d 4d02 febd 8d8a 403d
00000100: dfb8 583d 0884 a1bd ff53 e03d 060a 82bd
00000110: 3f31 61bc bd5e 19be 8c76 15be 7a0e 9e3a
00000120: 248c e2bd 8441 2dbd 92aa 84bd 2426 23be
00000130: bc3b 3cbe 6c2b ed3c 0114 11be e106 ee3d
00000140: 1743 f4bd 24af 60bd b4dd a83c de94 bfbc
00000150: 539c 46bd 3589 18be f4b2 aebd ea68 55bd
00000160: 6df6 e0bd 52d3 1abe b7cd d93d 4e49 2ebe
00000170: 0981 d63d 7084 e73c 7ad4 0ebe bcc7 19be
00000180: ba20 a1bd 8bc4 a63d 2428 ebbb 9b93 4c3d
00000190: 5e9f 1f3e 4116 6e3d ba4b 963d 6ba1 913c
000001a0: e140 52bc 1a34 b0bc cbba b1bc d952 6abd
000001b0: b4e6 963d 9a9b ee3d 8b4f b73c de2d a3ba
000001c0: e20c 4d3d e06b 27be 9f83 bebc 6577 50bd
000001d0: 6e70 e73d 31bc 5d3d 1a47 45bd a965 e13b
000001e0: 843a debd 7fc1 7f3d 6083 39bd 4eff 6b3d
000001f0: ce32 283d 087d a1bd 2d07 ad3d 49ce a0bd
00000200: a6bb abbc e29c a93c f284 e0bc d57e f4bd
00000210: 25b1 dbbb f37f 1fbd 82ac a23d cee7 00be
00000220: c001 d7bc 6503 2d3d 04b9 653d 6dce 333b
00000230: e4cc b73d e9fb a5bd f10f f43c 9d2f 8a3d
00000240: 98a6 983c eb98 a0bd aed4 0b3d 86c6 2abc
00000250: 186d 263c d0e5 06bd b60d b1bc a35e a7bd
00000260: 241c 703d 9d04 d3bd d043 81bd a8e3 363e
00000270: c1dd 17bc 54b8 8abc 435d 42bb 58a8 c4bd
00000280: 9834 b53d f1df 163e f0e0 1d3e 738c 45bd
00000290: 9e26 dc3d 400a 10bc a74f e23c e5fc 4f3e
000002a0: 8b72 213e 4c0d b5bd 8c42 0e3e e754 1cbc
000002b0: d975 8bbc 0fd3 243b 4f7d 2cbd 5138 7e3e
000002c0: 2335 083e 23fa 183e 43dc 553e ec70 0a3e
000002d0: 90ef 673d 1f49 e63d bfe4 88bd c928 41bd
000002e0: c5a0 ff3d 5788 a63e ce5a 833d 9032 e5bc
000002f0: 4325 8eba eec9 7a3d 35d8 3d3d 5db8 44bd
00000300: 7ae1 91bd bce6 3b3e b3a1 143e 0baa d8bd
00000310: 701f 48bb 6b54 873d b6a5 3c3e 0de8 3bbd

lstm.weight_ih_l1 f4 [200, 50]
-0.061821766 -0.1487945 -0.09625672 -0.090894155 -0.0929649 0.0010458684 0.024785563 0.08304539
0.08270011 0.05257171 0.03094226 0.04860587 0.066692114 -0.014182447 0.0657372 0.13243435
0.056498572 -0.035582118 0.088637054 -0.057383135 -0.016259577 0.031808335 -0.09240875 -0.11560219
0.055188775 -0.012833003 -0.007396618 -0.06597398 0.047954895 -0.12070649 0.04150989 0.049135752
0.05463249 -0.032830473 -0.035622194 0.14842652 -0.021111226 0.15090738 -0.04931273 -0.0946553
-0.09241316 -0.09704302 0.08966896 -0.040356062 0.040429883 0.014111323 0.017282736 0.017438129
-0.060566377 -0.09077278 0.06721176 -0.20282839 0.04622616 0.08133363 0.029725466 0.036982723
-0.025363458 -0.015823027 -0.047827963 0.008765307 0.046636008 0.034771383 -0.092608996 -0.003080514
-0.04476217 0.040941626 -0.30477366 -0.10585149 0.11244094 -0.094542295 0.13503183 0.108883925
0.026043708 -0.05852703 -0.0642292 0.10640362 -0.16541643 -0.07195199 0.15392566 0.0601001
-0.014450042 0.008403535 0.070229374 -0.040321868 0.09623629 0.10163711 -0.024391564 -0.0129521955
-0.0022690126 0.0016884793 -0.056832947 -0.053522874 -0.078855984 0.15404575 0.052050337 -0.10959404
0.021323204 -0.08691111 -0.04393085 -0.10531248 0.053047825 -0.09621384 0.15724833 0.01961974
0.13185133 -0.08285623 0.086001664 0.078352265 -0.14129597 0.08780201 -0.15579788 0.056909196
0.065330096 -0.20624375 -0.15882204 0.1653996 -0.2807724 -0.11985775 0.16633287 0.12673762
-0.030764373 0.02683111 0.04882323 -0.091184445 -0.037568975 -0.17109649 -0.104696825 0.006722199
0.008814203 -0.09803471 0.0900328 0.11879537 0.018248875 0.032940354 0.002000828 0.15601893
0.078044124 0.14252146 0.1665361 -0.08853859 0.10445737 -0.118560776 -0.021008445 0.07564113
-0.00410918 -0.123393275 -0.06732365 0.084721684 -0.06964966 0.13312477 0.10275666 -0.1451872
0.03139851 -0.040807527 -0.009767123 0.109960176 -0.03766228 -0.010622119 -0.03787873 -0.040418524
-0.05708543 0.13054189 0.09854094 0.06792128 0.124510005 0.04778151 0.06951205 0.059825994
-0.116335325 0.04723748 0.09304116 -0.14299391 0.0697355 0.013140425 -0.07278445 -0.05146575
0.013532838 -0.021327805 -0.008730009 -0.0025102552 0.07243868 -0.073241755 0.027318481 0.08512304
-0.1275825 0.15828079 0.06306265 0.17273962 0.061348744 0.07646972 0.10393624 0.14701866
-0.1525989 0.08672641 0.07989148 0.14139564 -0.12477039 -0.027664065 0.12160877 0.028203119
0.03901088 -0.039884448 0.10233871 0.107837886 -0.10862135 0.077905305 0.08483896 -0.002565203
0.080800585 -0.07442377 0.008636955 0.16206136 -0.110085584 0.069571964 -0.07622311 0.025739392
-0.062012758 -0.0062828227 0.02060092 0.07416576 0.12062617 0.076663785 0.12142323 0.036909577
-0.08929545 0.053710837 -0.098654546 0.10292825 0.016824894 -0.11254612 -0.018346388 0.11043156
-0.103314005 -0.030745355 -0.10691998 0.18930589 -0.116625175 0.11937116 0.16134138 0.036416624
0.085590854 -0.072228305 -0.021656621 -0.13121626 0.12378135 0.09725951 0.1396481 -0.022404354
-0.038496345 0.06852749 0.12737615 -0.19094619 0.061409127 -0.11005088 0.075875 -0.033042345
00000000: d238 7dbd 965d 18be 3e22 c5bd b726 babd
00000010: 6264 bebd 8515 893a 180b cb3c b413 aa3d
00000020: ad5e a93d 6f55 573d 9f7a fd3c f316 473d
00000030: e095 883d 7f5d 68bc 3aa1 863d df9c 073e
00000040: 0c6b 673d 8ebe 11bd 5887 b53d 940a 6bbd
00000050: ce32 85bc 7549 023d cc40 bdbd d7c0 ecbd
00000060: a00d 623d 8441 52bc 545f f2bb 5e1d 87bd
00000070: 5a6c 443d f734 f7bd 4606 2a3d 9242 493d
00000080: 51c6 5f3d 3f79 06bd 94e8 11bd 1ffd 173e
00000090: 73f1 acbc 7787 1a3e 25fc 49bd a3da c1bd
000000a0: 1c43 bdbd 7ebe c6bd 5ca4 b73d 664c 25bd
000000b0: ce99 253d 2e33 673c 8694 8d3c 68da 8e3c
000000c0: 7314 78bd 14e7 b9bd 52a6 893d 3fb2 4fbe
000000d0: a457 3d3d 3f92 a63d d282 f33c 327b 173d
000000e0: 07c7 cfbc 4b9f 81bc 41e7 43bd 5d9c 0f3c
000000f0: 6605 3f3d 706c 0e3d c9a9 bdbd 73e2 49bb
00000100: 8a58 37bd 68b2 273d 4b0b 9cbe aac8 d8bd
00000110: 7047 e63d 649f c1bd c945 0a3e 89fe de3d
00000120: 9d59 d53c 0aba 6fbd 998a 83bd 24ea d93d
00000130: ed62 29be 915b 93bd b09e 1d3e 862b 763d
00000140: debf 6cbc fbae 093c 6bd4 8f3d 8b28 25bd
00000150: 8817 c53d 1e27 d03d d1d0 c7bc 7235 54bc
00000160: b7b3 14bb f74f dd3a aac9 68bd cd3a 5bbd
00000170: 3f7f a1bd 2bbe 1d3e bc32 553d d772 e0bd
00000180: 00ae ae3c 74fe b1bd d6f0 33bd 12ae d7bd
00000190: ad48 593d c30b c5bd b505 213e 94b9 a03c
000001a0: 0904 073e 87b0 a9bd a421 b03d 2777 a03d
000001b0: e4af 10be 8ad1 b33d 7b89 1fbe 9e19 693d
000001c0: c9cb 853d 9031 53be 3fa2 22be 835e 293e
000001d0: 66c1 8fbe fb77 f5bd 2a53 2a3e 82c7 013e
000001e0: 9105 fcbc eacc db3c defa 473d e9be babd
000001f0: ede1 19bd eb33 2fbe 4a6b d6bd e445 dc3b
00000200: 7269 103c 6cc6 c8bd 1e63 b83d fd4a f33d
00000210: aa7e 953c 77ec 063d 5320 033b 6dc3 1f3e
00000220: 99d5 9f3d 25f1 113e 7088 2a3e b853 b5bd
00000230: bfed d53d fecf f2bd e719 acbc bde9 9a3d
00000240: 4da6 86bb 9db5 fcbd fbe0 89bd 9082 ad3d
00000250: 7ba4 8ebd dc51 083e 1572 d23d f4ab 14be
00000260: b99b 003d cb25 27bd 4806 20bc cd32 e13d
00000270: c343 1abd 6508 2ebc ba26 1bbd e58d 25bd
00000280: 69d2 69bd c6ac 053e d5cf c93d 501a 8b3d
00000290: 1aff fe3d 8bb6 433d 555c 8e3d 1a0c 753d
000002a0: 3741 eebd 167c 413d 5d8c be3d ff6c 12be
000002b0: 7cd1 8e3d f04a 573c 0410 95bd c0cd 52bd
000002c0: d6b8 5d3c a6b7 aebc 5008 0fbc 1883 24bb
000002d0: bb5a 943d c6ff 95bd 02cb df3c fd54 ae3d
000002e0: fda4 02be 5c14 223e fe26 813d a8e2 303e
000002f0: d248 7b3d 289c 9c3d 86dc d43d 0f8c 163e
00000300: e342 1cbe 9e9d b13d 259e a33d 05ca 103e
00000310: 9e87 ffbd c09f e2bc 050e f93d 3a0a e73c
00000320: dfc9 1f3d e05d 23bd f596 d13d 1cda dc3d
00000330: df74 debd d18c 9f3d 0cc0 ad3d f71c 28bb
00000340: c77a a53d 7d6b 98bd 0482 0d3c 6af3 253e
00000350: 8d74 e1bd bf7b 8e3d dd1a 9cbd 6bdb d23c
00000360: 1701 7ebd 23e0 cdbb 43c3 a83c 38e4 973d
00000370: da0a f73d e701 9d3d beac f83d 7f2e 173d
00000380: 88e0 b6bd e5ff 5b3d 650b cabd 0ccc d23d
00000390: 5cd4 893c 957e e6bd 2a4b 96bc f129 e23d
000003a0: 4b96 d3bd afdd fbbc ddf8 dabd 67d9 413e
000003b0: 2ed9 eebd de78 f43d ad36 253e 9929 153d
000003c0: 424a af3d 6fec 93bd 3a69 b1bc 8e5d 06be
000003d0: 1481 fd3d fe2f c73d e9ff 0e3e 5689 b7bc
000003e0: 58ae 1dbd 2458 8c3d e56e 023e 6687 43be
000003f0: 2388 7b3d 5b62 e1bd 5a64 9b3d 6957 07bd

lstm.weight_hh_l1 f4 [200, 50]
-0.06909811 0.06357488 0.15999922 0.049129665 -0.055630185 -0.05006133 0.013211683 0.015104722
-0.114279695 0.0603507 -0.13154952 0.14318848 0.1320663 0.03622518 0.0718511 -0.11967726
-0.048688017 0.06152801 0.08698506 -0.12282103 0.08035352 0.0073780655 -0.07272776 0.0012751603
-0.108906426 -0.09549473 0.076217614 -0.08187518 -0.06290098 0.08206157 0.000101066806 -0.1715839
-0.087967396 0.030708099 0.08851144 -0.055425543 0.09189843 -0.061502103 -0.12252063 0.10871887
-0.043876678 -0.028463913 0.07864898 0.007577787 0.09256248 -0.15856569 -0.08500916 0.028230183
0.13828242 0.15420087 -0.05298922 -0.03773282 -0.0707585 0.002123438 0.117141925 -0.13801166
-0.1315873 0.17827569 0.11762521 -0.025265913 0.09833353 -0.019457676 0.12599984 -0.025422364
0.07587589 0.09799066 -0.04375401 -0.06395158 -0.10136725 0.102963656 0.23005645 0.12359911
-0.12163779 -0.0863547 0.12829873 0.12838715 0.08674174 -0.082733504 0.080614574 -0.03139009
0.06285429 0.022949131 0.022868467 0.094977915 -0.0886775 -0.0726489 0.003297107 0.10593332
0.07080374 0.11520702 0.12086339 0.10650675 -0.13540602 -0.070006385 0.05332546 0.0074629006
0.020903742 0.1381941 0.13361323 -0.09156647 0.004486518 -0.040902276 -0.09122818 -0.007968515
-0.05134994 0.072192095 -0.07029904 0.044546016 -0.06157876 0.12115104 0.06581454 -0.12847282
0.08007892 0.07886547 0.0741652 -0.019497277 0.045218628 0.05142271 -0.06058971 0.118069164
0.22144766 -0.025263391 -0.0045752716 0.088577114 -0.013277312 0.077696525 -0.11356596 0.11838209
-0.124817275 0.1432959 -0.09311012 -0.077794425 -0.036570415 0.062785454 -0.09222185 0.028318414
0.010136298 -0.16959554 -0.06613356 0.16632146 0.030855441 -0.11888388 0.0022532293 0.022193342
-0.04963474 -0.20523755 -0.10795222 -0.1269186 0.03313702 0.11098795 -0.065056294 0.006100218
0.1338842 0.11866236 -0.11589752 0.11044393 -0.18187173 0.09637508 0.04692712 -0.16394891
-0.042764574 -0.07418615 -0.08791896 -0.023911733 -0.051785126 -0.16417123 -0.109959595 -0.12380836
-0.03126729 -0.1632764 -0.011638527 0.054425955 0.09145623 0.21353135 -0.06684135 0.026987989
-0.00052109925 -0.16568847 -0.09378711 0.010641029 0.008705563 0.108852826 0.15670316 -0.067228936
-0.07932764 -0.1497622 0.034003742 0.08157644 -0.11017054 0.09536737 -0.04358876 0.123878844
-0.0758399 0.12682728 -0.00082880154 -0.11531794 -0.06007701 0.07125279 0.06683166 0.15692349
0.06799341 0.013823275 0.034372713 -0.017140767 -0.16169867 -0.050352875 -0.04506402 0.025194261
-0.008877503 -0.0468535 -0.03124961 -0.023747249 0.075178064 -0.07716337 -0.13056307 -0.008539743
0.004221897 0.044641834 -0.03543904 -0.008040751 0.16159005 -0.039724074 -0.039907034 -0.03515362
-0.0074869716 0.039196845 0.007307442 -0.11743974 0.065297626 -0.10552005 -0.07077306 -0.051192585
0.046045844 -0.1614667 -0.14649421 -0.110756844 0.104666226 -0.11205312 0.07841059 -0.010848101
-0.086672656 0.022467453 -0.02284937 -0.112256296 0.14035502 -0.010031436 0.015917063 -0.13641624
0.10725184 0.01391368 0.044401698 -0.09470208 0.026314719 0.07135901 -0.05771668 -0.041447874
00000000: 4f83 8dbd 8c33 823d d6d6 233e 303c 493d
00000010: 7adc 63bd 1c0d 4dbd d175 583c cc79 773c
00000020: 790b eabd 4c32 773d ebb4 06be 00a0 123e
00000030: 633c 073e db60 143d ab26 933d 5a19 f5bd
00000040: 166d 47bd cb04 7c3d 3925 b23d 9889 fbbd
00000050: 6390 a43d b3c3 f13b 4bf2 94bd 4823 a73a
00000060: 550a dfbd be92 c3bd fb17 9c3d 2dae a7bd
00000070: 3bd2 80bd e50f a83d d4f3 d338 b1b3 2fbe
00000080: 4028 b4bd 8d8f fb3c 7c45 b53d e505 63bd
00000090: 3e35 bc3d a1e9 7bbd 19ec fabd 00a8 de3d
000000a0: 08b8 33bd 272d e9bc b712 a13d 164f f83b
000000b0: 6691 bd3d 0b5f 22be 4819 aebd fc42 e73c
000000c0: e899 0d3e d5e6 1d3e 390b 59bd bb8d 1abd
000000d0: d5e9 90bd 6129 0b3b 1be8 ef3d ee52 0dbe
000000e0: d2be 06be e78d 363e 7ce5 f03d 76fa cebc
000000f0: 1763 c93d b465 9fbc 1a06 013e 9042 d0bc
00000100: d264 9b3d 54af c83d 6837 33bd 0cf9 82bd
00000110: a299 cfbd 9cde d23d eb93 6b3e 8821 fd3d
00000120: 3c1d f9bd bcda b0bd be60 033e ec77 033e
00000130: a7a5 b13d 2f70 a9bd 4119 a53d e592 00bd
00000140: c0b9 803d d1ff bb3c a756 bb3c c883 c23d
00000150: 8d9c b5bd f2c8 94bd 4714 583b 92f3 d83d
00000160: 8d01 913d a8f1 eb3d 3a87 f73d 3620 da3d
00000170: e0a7 0abe 825f 8fbd cc6b 5a3d 598b f43b
00000180: 533e ab3c c182 0d3e e8d1 083e 3487 bbbd
00000190: a403 933b 2589 27bd d7d5 babd 608e 02bc
000001a0: 5154 52bd 73d9 933d f1f8 8fbd e275 363d
000001b0: 033a 7cbd 091e f83d c6c9 863d 618e 03be
000001c0: 6b00 a43d 3884 a13d ede3 973d c1b8 9fbc
000001d0: 2b37 393d 9fa0 523d ea2c 78bd 3fce f13d
000001e0: 2dc3 623e 2cf5 cebc 29ec 95bb eb67 b53d
000001f0: 1589 59bc 5b1f 9f3d 4595 e8bd 4f72 f23d
00000200: 33a0 ffbd 29bc 123e 85b0 bebd af52 9fbd
00000210: dcca 15bd a995 803d cfde bcbd 05fc e73c
00000220: b712 263c 74aa 2dbe 0871 87bd 2c50 2a3e
00000230: 8dc4 fc3c 6479 f3bd eaaa 133b d0ce b53c
00000240: cc4d 4bbd cb29 52be 0e16 ddbd f3f6 01be
00000250: afba 073d a64d e33d 3c3c 85bd 56e4 c73b
00000260: f118 093e 4005 f33d ae5b edbd 6d30 e23d
00000270: 953c 3abe 4c60 c53d a736 403d 39e2 27be
00000280: e829 2fbd e9ee 97bd db0e b4bd 8ae2 c3bc
00000290: a41c 54bd 811c 28be 7f32 e1bd 3d8f fdbd
000002a0: 2112 00bd ee31 27be 85af 3ebc c0ed 5e3d
000002b0: 674d bb3d f6a7 5a3e 1ee4 88bd ea15 dd3c
000002c0: 619a 08ba 3daa 29be 7513 c0bd b657 2e3c
000002d0: c7a1 0e3c 3bee de3d cb76 203e 53af 89bd
000002e0: 8876 a2bd 435b 19be 8247 0b3d 8c11 a73d
000002f0: 18a1 e1bd f84f c33d 218a 32bd 31b4 fd3d
00000300: f351 9bbd 03df 013e ee43 59ba d02b ecbd
00000310: 5013 76bd fcec 913d 0adf 883d 8db0 203e
00000320: 2140 8b3d 057b 623c 67ca 0c3d cb6a 8cbc
00000330: 5694 25be d13e 4ebd 0d95 38bd 3264 ce3c
00000340: f272 11bc 75e9 3fbd 2fff ffbc 9789 c2bc
00000350: f5f6 993d d407 9ebd 53b2 05be 47ea 0bbc
00000360: d757 8a3b 5bda 363d 8728 11bd 5bbd 03bc
00000370: dd77 253e b6b5 22bd 8f75 23bd 3efd 0fbd
00000380: 4555 f5bb df8c 203d 4473 ef3b 3f84 f0bd
00000390: c3ba 853d e51a d8bd 77f1 90bd 51af 51bd
000003a0: 919a 3c3d 8757 25be 9402 16be 7cd4 e2bd
000003b0: 3f5b d63d 1b7c e5bd bb95 a03d 3cbc 31bc
000003c0: 6f81 b1bd aa0d b83c 9a2e bbbc a1e6 e5bd
000003d0: 3ab9 0f3e e45a 24bc 8064 823c b3b0 0bbe
000003e0: daa6 db3d 34f6 633c 8ede 353d 2af3 c1bd
000003f0: f791 d73c ac24 923d 5368 6cbd 3fc5 29bd

lstm.bias_ih_l1 f4 [200]
-0.049618073 0.17669289 0.059497476 0.07513326 0.08197887 0.16156746 -0.009464973 0.08943547
0.116971895 -0.13822661 0.09252792 -0.024026845 -0.0014396221 0.031892255 0.0660633 -0.08153997
0.054389175 -0.10074909 -0.09731187 0.041324276 0.052371137 -0.020968324 0.08748131 -0.11043112
-0.092776015 -0.10925561 0.14153576 -0.049724597 -0.02292947 0.22310817 0.07384536 -0.0772727
0.061913386 -0.03301972 -0.04415474 -0.08390439 0.1323009 -0.06744602 0.02289191 0.06453015
0.029692737 -1.4619367e-05 0.042942923 -0.05061575 -0.09701779 -0.0976446 0.10854514 0.12098934
-0.024650712 0.13086732 0.027058456 -0.10073681 -0.1753935 -0.046810016 0.027728241 0.0006666755
-0.058755662 -0.05026157 0.034351405 0.093055695 0.049852427 0.107196406 0.049272127 -0.006713144
0.12904954 -0.031902015 0.010297369 -0.1044907 0.10537479 -0.008637612 0.115763724 0.035840716
0.14276756 -0.14250682 -0.12506877 0.056193694 0.0852323 0.051067293 -0.082928754 0.04091347
0.06461164 -0.05568933 -0.03465175 0.012228798 0.08678357 -0.0011963457 -0.04024802 0.011729979
0.1318543 0.010267937 0.06174935 0.12682743 0.12227028 0.11253113 -0.043652195 0.06927946
-0.068623506 0.09675162 0.06016589 -0.058417525 0.05383856 0.031929232 0.039867606 -0.0075595933
0.06714562 -0.073490575 0.04841403 0.029097432 -0.07332996 -0.10813134 0.0879214 0.026831716
0.06576178 -0.049909856 0.0128369685 0.016268242 0.1105872 0.005134433 0.015403825 0.08436681
0.07754349 -0.073273875 0.031368136 0.07026 0.0043955664 0.080469094 -0.029840756 -0.07439318
0.08321613 -0.0060458356 -0.020630516 -0.07186823 -0.051704887 -0.11943178 0.0596139 -0.053888362
0.112695396 -0.11273123 0.014684935 0.014629685 -0.03554169 0.0633483 0.07269351 -0.049936663
0.043648202 -0.07652466 0.097659476 -0.08576501 0.047253914 0.065493524 0.11795701 0.17901242
-0.014844033 0.14055939 -0.07722936 0.07291095 0.011936611 0.13954437 0.18503083 -0.046449117
0.02599004 -0.052481316 0.05410827 -0.08307519 0.060359325 -0.0872244 -0.10043941 0.09192808
0.0526426 0.062302545 0.043020386 0.07942253 -0.09753928 -0.056498215 0.09779356 0.1308549
0.062744014 -0.09502851 0.15876144 -0.0023890706 0.13850221 0.12859757 0.07496918 -0.078831986
0.03901493 0.11070641 -0.007521807 -0.1275121 0.14567325 -0.0668433 0.110693455 -0.012406551
-0.047539484 0.14343224 0.059413116 0.016660983 0.020348094 0.10893554 0.08858682 -0.122522995
00000000: 523c 4bbd fbee 343e a0b3 733d 77df 993d
00000010: 8ae4 a73d f171 253e f912 1bbc f229 b73d
00000020: f68e ef3d 478b 0dbe 477f bd3d f2d3 c4bc
00000030: b4b1 bcba 74a1 023d 324c 873d 6efe a6bd
00000040: 2fc7 5e3d 8a55 cebd 724b c7bd a543 293d
00000050: 1e83 563d c3c5 abbc 6729 b33d b629 e2bd
00000060: 5a01 bebd 68c1 dfbd c0ee 103e 05ac 4bbd
00000070: 95d6 bbbc 7876 643e 3c3c 973d 2641 9ebd
00000080: e498 7d3d b03f 07bd 9adb 34bd 11d6 abbd
00000090: e379 073e 2421 8abd d187 bb3c 6228 843d
000000a0: 2f3e f33c b445 75b7 ebe4 2f3d 7652 4fbd
000000b0: 43b1 c6bd e4f9 c7bd ea4c de3d 42c9 f73d
000000c0: 4af0 c9bc 1502 063e b2a9 dd3c 1a4f cebd
000000d0: 5b9a 33be dcbb 3fbd 5626 e33c d6c3 2e3a
000000e0: c7a9 70bd 13df 4dbd 0fb4 0c3d fc93 be3d
000000f0: 0f32 4c3d ca89 db3d 92d1 493d eff9 dbbb
00000100: 9025 043e b0ab 02bd 4cb6 283c 38ff d5bd
00000110: bdce d73d c584 0dbc 8815 ed3d b7cd 123d
00000120: a931 123e 4fed 11be 0712 00be 5c2b 663d
00000130: 468e ae3d f02b 513d 8dd6 a9bd e294 273d
00000140: 1c53 843d 7f1a 64bd feee 0dbd 4c5b 483c
00000150: 96bb b13d b3ce 9cba 1cdb 24bd 192f 403c
00000160: d004 073e d93a 283c e3ec 7c3d 0ddf 013e
00000170: d768 fa3d b976 e63d a5cc 32bd 64e2 8d3d
00000180: 7b8a 8cbd b725 c63d 8270 763d 3747 6fbd
00000190: d285 5c3d 3ac8 023d 374c 233d 77b6 f7bb
000001a0: a583 893d 3a82 96bd ca4d 463d bd5d ee3c
000001b0: 052e 96bd f773 ddbd 2310 b43d 30ce db3c
000001c0: 1dae 863d 476e 4cbd 2652 523c fa44 853c
000001d0: 8b7b e23d bf3e a83b 5360 7c3c 82c8 ac3d
000001e0: 1fcf 9e3d 9d10 96bd e07b 003d 7ae4 8f3d
000001f0: af08 903b fbcc a43d 9a74 f4bc 745b 98bd
00000200: 386d aa3d 251c c6bb 5401 a9bc a72f 93bd
00000210: 81c8 53bd a698 f4bd b42d 743d 0bba 5cbd
00000220: d8cc e63d a2df e6bd 1599 703c 59b1 6f3c
00000230: 2a94 11bd c1bc 813d 56e0 943d 638a 4cbd
00000240: 75c8 323d f6b8 9cbd b101 c83d 91a5 afbd
00000250: 528d 413d 7821 863d 7293 f13d 084f 373e
00000260: 6334 73bc cdee 0f3e 6d2a 9ebd 5652 953d
00000270: c691 433c b8e4 0e3e b978 3d3e 6e41 3ebd
00000280: 10e9 d43c a6f6 56bd a2a0 5d3d 5323 aabd
00000290: 573b 773d b5a2 b2bd 2db3 cdbd ca44 bc3d
000002a0: c49f 573d f430 7f3d 2536 303d 48a8 a23d
000002b0: adc2 c7bd ac6a 67bd fd47 c83d d4fe 053e
000002c0: ef7f 803d 4f9e c2bd 5c92 223e f491 1cbb
000002d0: 86d3 0d3e 15af 033e 7189 993d aa72 a1bd
000002e0: 1fce 1f3d 0bba e23d 7e79 f6bb 8892 02be
000002f0: 5e2b 153e 24e5 88bd 40b3 e23d d944 4bbc
00000300: c3b8 42bd e7df 123e 2b5b 733d 9d7c 883c
00000310: 0cb1 a63c 9919 df3d 026d b53d 56ed fabd

lstm.bias_hh_l1 f4 [200]
-0.006981668 0.08830923 -0.053514026 -0.12844314 0.18118756 -0.07214825 -0.06556927 0.10053602
-0.07111493 0.027580785 0.14371781 0.03568748 0.08444179 -0.017221466 0.15134189 0.0836034
0.13008846 0.13148898 0.08816047 -0.011266868 -0.03904333 -0.05353758 0.03213692 0.09398352
0.007466874 -0.057589497 -0.03657172 -0.10087218 0.11145455 0.008265513 0.057102274 0.14094178
-0.055191334 0.033964332 0.05710497 -0.053852122 0.1664606 -0.072774835 0.03984088 0.019713417
-0.026444606 0.1203357 -0.07892239 0.082641184 0.14769669 0.049290013 -0.053748917 0.0075173853
0.12202114 -0.05165036 0.047406055 -0.029543392 0.08821016 0.030045817 0.09096421 -0.1190894
-0.049214937 0.047888137 -0.082310595 -0.020020744 -0.056746118 0.18242905 -0.025605947 -0.12781231
0.13121411 0.03616008 -0.10563295 -0.13791321 0.01145866 -0.039450772 -0.11831898 -0.10479085
-0.0688276 -0.12105127 0.03771202 0.12992561 -0.05470325 -0.059524376 0.045636225 0.082703136
0.14371763 0.07104235 -0.0871555 0.041238915 0.12385356 0.04967068 -0.015394363 0.09057427
-0.098366834 -0.1162973 0.0855215 0.040482923 0.10157303 -0.044245593 -0.09285664 0.025881821
-0.021499211 0.06313072 0.010075135 0.10303096 -0.045472085 -0.11022096 -0.10368312 0.05547868
-0.10811992 0.112674825 -0.0054534012 0.09467475 0.022560094 0.14153647 -0.11501465 0.058652952
0.023635563 0.030747533 -0.08377562 0.0042298976 -0.077484734 -0.047894783 -0.057769492 -0.057968516
-0.0335831 0.0017786168 0.08737303 -0.0027540515 -0.077745624 0.06930254 -0.07574337 0.033992555
-0.1184549 0.014119121 0.032676514 0.08875334 0.032882243 0.065098315 -0.098715 -0.005556197
-0.047001455 0.09264599 -0.049224377 0.0625359 0.0022570766 0.013502606 -0.0873503 -0.08968215
0.009385948 -0.04199665 -0.12371767 0.011077138 -0.010598232 -0.062841915 0.10332744 0.180445
0.0109154135 0.10146691 0.024732677 0.014224178 -0.03376784 0.004393307 -0.0073836343 -0.013878536
0.031114515 0.027235001 0.06747414 0.08092697 -0.005084673 -0.036796447 -0.061069217 0.040637676
-0.09992524 0.070533544 -0.072766036 -0.06627241 0.018202927 -0.032534923 0.079583265 0.016758941
-0.016727429 0.049700916 0.08170958 0.12805574 0.011634575 0.016359208 0.10531688 -0.00065787043
-0.049687788 -0.10676341 0.09734203 0.10271581 0.112073176 0.06391022 -0.017058235 -0.018639365
0.066195786 0.090120114 -0.033372816 0.07398639 0.15802062 0.13679756 0.09812923 0.10307326
00000000: 7ac6 e4bb 78db b43d 8631 5bbd 9986 03be
00000010: 3b89 393e 76c2 93bd 2e49 86bd d4e5 cd3d
00000020: b4a4 91bd 19f1 e13c c32a 133e 092d 123d
00000030: d1ef ac3d 0814 8dbc 5ef9 1a3e 4238 ab3d
00000040: e935 053e 0ca5 063e 7a8d b43d ab98 38bc
00000050: e6eb 1fbd 394a 5bbd 01a2 033d 6f7a c03d
00000060: aeac f43b f7e2 6bbd 3acc 15bd 1396 cebd
00000070: 4842 e43d 136c 073c 13e4 693d 0b53 103e
00000080: 4f10 62bd 2f1e 0b3d e7e6 693d 0b94 5cbd
00000090: a674 2a3e f90a 95bd 3130 233d 087e a13c
000000a0: 5ca2 d8bc 9072 f63d 10a2 a1bd c83f a93d
000000b0: cd3d 173e 53e4 493d d327 5cbd 6654 f63b
000000c0: 38e6 f93d 548f 53bd da2c 423d fc04 f2bc
000000d0: 87a7 b43d a522 f63c 724b ba3d 25e5 f3bd
000000e0: 9a95 49bd 5a26 443d 7592 a8bd 8b02 a4bc
000000f0: 9e6e 68bd aece 3a3e 90c3 d1bc 3be1 02be
00000100: fe5c 063e 981c 143d 1756 d8bd 1f39 0dbe
00000110: 1abd 3b3c 2297 21bd 3951 f2bd 969c d6bd
00000120: 7cf5 8cbd bae9 f7bd eb77 1a3d 380b 053e
00000130: 8410 60bd d5cf 73bd 0ded 3a3d 4360 a93d
00000140: b72a 133e a77e 913d 957e b2bd 23ea 283d
00000150: efa6 fd3d 7c73 4b3d a338 7cbc 017f b93d
00000160: 8d74 c9bd 472d eebd e525 af3d 6cd1 253d
00000170: 8505 d03d de3a 35bd 9f2b bebd 1d06 d43c
00000180: 1d1f b0bc ae4a 813d 2e12 253c e501 d33d
00000190: f040 3abd 87bb e1bd d157 d4bd 9d3d 633d
000001a0: fa6d ddbd 0fc2 e63d 72b2 b2bb d6e4 c13d
000001b0: f2cf b83c f0ee 103e cd8c ebbd 143e 703d
000001c0: 5e9f c13c 40e2 fb3c 8d92 abbd f49a 8a3b
000001d0: 51b0 9ebd 522d 44bd b49f 6cbd 6570 6dbd
000001e0: 6f8e 09bd 7a20 e93a a2f0 b23d 517d 34bb
000001f0: 1939 9fbd 7dee 8d3d 571f 9bbd c73b 0b3d
00000200: 7c98 f2bd e353 673c cfd7 053d 50c4 b53d
00000210: 88af 063d 4452 853d 172b cabd c210 b6bb
00000220: 9984 40bd 2ebd bd3d 809f 49bd d212 803d
00000230: 76eb 133b 093a 5d3c b7e4 b2bd 46ab b7bd
00000240: 85c7 193c ae04 2cbd b15f fdbd e27c 353c
00000250: 35a4 2dbc 43b3 80bd 569d d33d 93c6 383e
00000260: 90d6 323c e2cd cf3d 2f9c ca3c 870c 693c
00000270: 2650 0abd bbf5 8f3b 6af2 f1bb cd62 63bc
00000280: dee3 fe3c f01b df3c e22f 8a3d 0abd a53d
00000290: 549d a6bb dfb7 16bd b723 7abd b173 263d
000002a0: 9ba5 ccbd e473 903d 5c06 95bd d4b9 87bd
000002b0: 4e1e 953c 5743 05bd 8dfc a23d 0c4a 893c
000002c0: f607 89bc 3093 4b3d 5a57 a73d 0b21 033e
000002d0: f29e 3e3c bf03 863c 60b0 d73d f074 2cba
000002e0: 6c85 4bbd c6a6 dabd 425b c73d ab5c d23d
000002f0: 9f86 e53d 5de3 823d b6bd 8bbc 95b1 98bc
00000300: a891 873d e590 b83d efb1 08bd 2d86 973d
00000310: 28d0 213e a914 0c3e faf7 c83d 1318 d33d

fc.1.weight f4 [1, 50]
0.100807235 0.16558163 0.16074306 -0.12473513 0.10250483 0.15673 -0.12775351 -0.09325279
0.13148952 -0.091350965 -0.12639287 0.07164237 -0.14493392 0.1835147 -0.11232866 -0.1644441
-0.1403885 0.11076623 -0.16421703 -0.093770154 -0.1533402 0.12834647 0.084293865 0.15798219
-0.09489601 -0.09920596 -0.1059716 -0.13407093 0.10328086 0.17435817 -0.09250011 -0.17197691
0.10769151 0.10881842 0.12217608 -0.12887773 -0.121835284 0.1465056 -0.12120977 -0.11680853
-0.12221755 0.12783358 -0.15475914 0.08807052 0.13953052 0.13437164 0.08611519 0.10958813
-0.083298646 0.11908547
00000000: 0674 ce3d 3b8e 293e d499 243e 2275 ffbd
00000010: 0dee d13d d47d 203e d1d1 02be 52fb bebd
00000020: 30a5 063e 3716 bbbd 226d 01be 3cb9 923d
00000030: 8f69 14be 47eb 3b3e 920c e6bd 0964 28be
00000040: 01c2 0fbe 68d9 e23d 8228 28be 910a c0bd
00000050: 3705 1dbe 426d 033e 43a2 ac3d 15c6 213e
00000060: d758 c2bd 7f2c cbbd a307 d9bd e449 09be
00000070: ea84 d33d f38a 323e b370 bdbd b71a 30be
00000080: 5e8d dc3d 31dc de3d 7437 fa3d 86f8 03be
00000090: c784 f9bd 9005 163e d43c f8bd 5039 efbd
000000a0: 324d fabd cee6 023e 2e79 1ebe 515e b43d
000000b0: 17e1 0e3e b898 093e 295d b03d be6f e03d
000000c0: 7b98 aabd 15e3 f33d
