trained-models/last_lstm.pt (torch, 390606 bytes, 27 tensors)

lstm.weight_ih_l0 f4 [200, 4]
000000 ca e3 6d bd 7d 68 2b bc 24 03 69 3c 7a 1e 13 3e
       -0.058078565 -0.010461924 0.01422194 0.14367095
000010 28 97 f5 3d 40 7c e2 3d ec 96 fe 3d ee ed 56 3e
       0.119917214 0.11058855 0.1243113 0.209892
000020 9e e6 13 3e 12 25 76 3c ce 4e 7e bd 9d a1 37 3e
       0.14443442 0.015023487 -0.062086873 0.17932744
000030 38 ca 10 bd e7 df 49 bd 2f ec a5 3c 61 07 b9 3c
       -0.0353491 -0.049285796 0.020254223 0.022586526
000040 17 69 1e 3e 43 d4 37 3d c9 ed 05 3e a4 78 ae 3d
       0.15469776 0.044880163 0.13078989 0.08519104
000050 b0 c6 2c bd 0b b8 d3 3c 5a 22 e4 3c 93 a2 14 3e
       -0.04218167 0.025844594 0.027848411 0.14515142
000060 72 98 2d 3d da 84 e1 bd 80 4d a2 bd 48 b2 9f bd
       0.04238171 -0.110116675 -0.07924938 -0.07797676
000070 ed f2 4d 3e 82 ad 37 3e 91 0f 59 3c 03 9e e5 3d
       0.201122 0.17937282 0.01324834 0.11211779
000080 40 37 c3 bd 98 6f f1 3d d1 9c f1 3d 53 24 63 3d
       -0.095320225 0.11788863 0.117974885 0.055454563
000090 df c4 cf 3c 95 d3 d3 3d ad e6 d0 bd 10 cd d0 bd
       0.02536243 0.103430904 -0.10200248 -0.101953626
0000a0 72 76 fa 3d 18 33 ef 3d 1a e5 9d 3c 38 19 1d 3e
       0.12229623 0.11679667 0.019274283 0.15341651
0000b0 49 0e b8 3c 45 95 8e 3d eb 8b 94 bd 97 16 94 3b
       0.02246775 0.06962065 -0.0725325 0.0045192945
0000c0 7f 44 e3 bd 6f 7a ba 3d 03 d5 5b 3d 90 15 e5 3c
       -0.11097049 0.091053836 0.05366994 0.027964383
0000d0 d9 db cf bd 3a ea c7 3c 01 dc 5e 3d aa 2f 02 3b
       -0.101493545 0.02440368 0.05440903 0.0019864836
0000e0 3f 6e e3 3d 06 b0 29 3e 1f 9d 9c 3a 93 bd c6 3c
       0.11105012 0.16571054 0.0011948681 0.024260318
0000f0 e4 da e1 bc 08 05 12 3e 78 1e 80 3c 83 b5 c8 bc
       -0.027570195 0.14259732 0.015639529 -0.024500614
000100 28 b8 41 3e 0d d0 85 3c 28 df 2a 3e 62 8e 05 bc
       0.18917906 0.016334558 0.1668669 -0.0081516225
000110 67 71 fa 3d 67 5e 7b bd 67 1b 1a 3e 35 5e 53 bd
       0.12228661 -0.061369326 0.15049516 -0.051603515
000120 55 aa 34 bd 79 9b c7 bc 1a 2d 82 bd 08 d3 48 3e
       -0.044107754 -0.024366127 -0.06356259 0.19611752
000130 df 2a a6 bd 05 8c e0 bd 85 b3 78 3c d7 fa f8 3c
       -0.08113646 -0.109642066 0.01517952 0.030393047
000140 11 2f d7 bd 71 e3 08 3e 5f 2b 40 3d ee 78 c1 3d
       -0.10507024 0.13368012 0.046916362 0.09446894
000150 a3 02 fb 3c 30 80 0d 3e 0d bc e2 3d 69 b9 ca bc
       0.030640906 0.13818431 0.11071024 -0.024746614
000160 24 0f 95 bd 47 e8 13 3c 39 93 a2 3d 15 05 71 3d
       -0.072782785 0.009027547 0.07938237 0.058842737
000170 ea 81 fa bd b2 bc 9b bd 2e 8f 60 3c d2 dc 11 3e
       -0.122318104 -0.0760435 0.013706012 0.14244393
000180 e7 41 37 3e 0b 98 b2 3c dc b7 01 3d c8 5a 6e 3e
       0.17896233 0.021801015 0.031669483 0.23276818
000190 22 a3 bd 3d 19 92 79 bd ec b3 ae bd 9b 74 b5 bb
       0.09259631 -0.060930345 -0.08530411 -0.005537582
0001a0 4e ce 2c bd 37 dd 22 3e dc c9 9e 3d 9f 0b 8d 3c
       -0.042188935 0.159047 0.07753345 0.017217455
0001b0 04 d1 cc bc 1c 0c a0 bd e7 9a df 3b e0 2e 6e bd
       -0.02500201 -0.0781481 0.0068238857 -0.058150172
0001c0 5c 71 30 bd 29 1a 42 ba 64 ec d0 3c cb b9 44 3c
       -0.043076858 -0.0007404411 0.025503345 0.012007187
0001d0 19 77 1e 3e a2 79 b5 3d f5 a7 16 3e 28 37 3a 3e
       0.1547512 0.0886109 0.14712508 0.18185103
0001e0 aa 2b 9e bc 7d ff d6 3c c6 03 f0 3c c6 14 37 be
       -0.01930793 0.026244873 0.029298674 -0.17879018
0001f0 6e 08 f4 3d 96 80 96 3d 1b e1 49 3e 6a f4 18 3e
       0.1191567 0.073487446 0.19714777 0.14936987
000200 bb 44 00 be 8f e2 37 3d 5a d5 a4 bd ed 12 48 3d
       -0.12526219 0.044893797 -0.08048506 0.048846174
000210 f1 e4 06 3e ef 4d e9 3a d2 a3 0b 3e ca 13 1a bd
       0.13173272 0.0017799715 0.13636711 -0.03761653
000220 7a 57 98 3b 66 ae 49 3d 6f 29 98 bd 6b ec d9 3b
       0.0046491 0.049238585 -0.07429778 0.0066504977
000230 8f 9b 8c bd 50 e1 88 3d fe 21 f4 bd 63 8f 9a bd
       -0.06865608 0.066836 -0.11920546 -0.0754688
000240 91 70 21 bd 27 d8 29 bd ec 7b 7b 3d 38 54 b5 bd
       -0.039413992 -0.041465905 0.061397478 -0.08853954
000250 13 26 a0 3b 5c 47 b5 bd 13 45 f7 bc 8e 6c 04 be
       0.0048873513 -0.08851501 -0.030184304 -0.12932035
000260 ef c7 9c bd cd aa 0a be 42 2a 2d b8 42 3f 38 bd
       -0.07655322 -0.13541718 -4.128577e-05 -0.044982202
000270 33 1e a7 3d 5e 63 88 3c 5a e3 12 3d af 18 b7 3d
       0.08160057 0.016648944 0.03586135 0.08940255
000280 df ea 10 3e 45 3e 12 bd 29 5c 61 bd f5 57 f5 bc
       0.14152096 -0.035703916 -0.05501953 -0.029949168
000290 07 28 e0 3d 9a a5 4d bd 68 4e 28 3d 40 6e 8f bd
       0.109451346 -0.050206758 0.0410904 -0.070034504
0002a0 bb 6f b5 3d cf 24 ab 3c 3b f3 82 bd ca 15 09 be
       0.088592015 0.020891575 -0.06394049 -0.13387218
0002b0 0d 50 34 bd 8c fb 03 be 7b bf 17 be bc fb ce 3d
       -0.044021655 -0.12888926 -0.14819138 0.10106608
0002c0 03 ea 0c 3e ff 54 82 bd 1c 93 51 bd c4 6a 76 3d
       0.13761143 -0.06363868 -0.051165685 0.060160413
0002d0 eb b7 86 bd 5d fc e4 bd 0c ae 6f bd ba 39 49 3d
       -0.06578048 -0.11180947 -0.058515593 0.049127318
0002e0 45 55 26 3e 73 a3 36 3e 73 53 c8 bd 4d b8 33 3e
       0.16243465 0.17835788 -0.09781542 0.17550774
0002f0 d6 3d 00 be 9c 68 65 3d 6b eb 20 bc 7e 8d 10 3e
       -0.12523589 0.056007966 -0.009821753 0.14116475
000300 d4 24 a7 3d cd 37 01 3e 65 11 10 3e ab 1a 7f bd
       0.08161321 0.12618943 0.14069135 -0.062281292
000310 e6 62 c8 3c f4 6f 22 3d d3 1f 7f bd 82 77 9b 3c
       0.024461221 0.039657548 -0.06228621 0.018977884
000320 20 2b 3f bd 4c 2c ce bd 4b c4 b1 bd 1b 15 75 bd
       -0.046671987 -0.10067043 -0.08680018 -0.05983458
000330 ff 54 b0 bc a7 21 ca 3d 21 7d 51 bd 8e a9 5e bc
       -0.021524904 0.098697 -0.051144723 -0.01359023
000340 ed 4a 56 3d 1d a3 14 3e bf 70 0c 3e e9 da c9 3d
       0.05231755 0.14515348 0.13714884 0.09856207
000350 ca ed b0 bd 85 36 18 be 6e 4d 80 bc 56 a1 ad 3d
       -0.08639105 -0.14864548 -0.015661921 0.08478038
000360 55 c6 92 3c 9c fd 01 bd bf 2e 16 be d6 fc 88 3d
       0.017916838 -0.031736 -0.1466627 0.0668885
000370 a7 1c 8e bc 64 1b a8 3d f7 2a d1 3d ce e8 ca 3d
       -0.017347647 0.08208349 0.10213273 0.09907685
000380 f9 29 31 be 7b 21 0e bd c7 62 46 be 1e 83 50 bd
       -0.17301168 -0.0346999 -0.19373618 -0.050906293
000390 7e 63 91 bd d4 bc a1 bd 73 fb e4 bd d4 34 61 3b
       -0.07099055 -0.07897344 -0.11180773 0.0034363763
0003a0 21 6c 2c be 3a f0 9b 3d 60 af cf bd bd 4a 89 3d
       -0.16838123 0.07614179 -0.10140872 0.06703708
0003b0 5d 5f 8a 3c 3c ed 22 3d 08 fc e0 3d ee 06 ee bd
       0.016891176 0.039777026 0.10985571 -0.116224155
0003c0 c9 46 1b 3e 28 49 07 3b af bd cb 3c 22 0c eb 3d
       0.15163721 0.002064297 0.024870722 0.114769235
0003d0 6b cb 6c be c2 26 bc bc 0a ae 4d be 61 49 3e be
       -0.23124473 -0.0229677 -0.20085922 -0.1858268
0003e0 62 44 a7 bd a2 1f 2b bd 6c 66 bc 3d 4c 6c 5a 3d
       -0.0816734 -0.041778214 0.09199223 0.053325936
0003f0 ef ff 64 bd f7 92 ab bd 9b 51 39 be 53 c0 e2 bc
       -0.05590814 -0.08377641 -0.18097536 -0.027679598

lstm.weight_hh_l0 f4 [200, 50]
000000 2e 4c 8c 3d 00 6f 06 3d 96 e8 07 3d 92 be 55 bd
       0.068504676 0.0328207 0.033180796 -0.052183695
000010 7a d2 65 bd 70 32 cc bd 05 44 8b bd fd e8 9c bd
       -0.05610893 -0.09970558 -0.06800083 -0.076616265
000020 b2 96 e2 bd ad e7 4d bd ab 0f b7 3c e0 05 12 3e
       -0.11063899 -0.05026977 0.022346338 0.14260054
000030 4a 35 9f bb 00 31 b9 bd df 15 20 3e 80 d5 18 3e
       -0.0048586475 -0.09042549 0.15633343 0.14925194
000040 5c 99 a1 3c a9 11 1e 3e b5 56 6a 3d d8 e0 1f be
       0.019726448 0.15436424 0.057211597 -0.15613115
000050 d1 91 02 3d 30 9f bf bc 89 ea ed 3c 90 c0 bd bd
       0.031877343 -0.023391336 0.0290425 -0.09265244
000060 cb c5 98 bd a7 2f 83 bd 68 84 ad 3d 1b 50 14 3e
       -0.07459601 -0.06405573 0.0847252 0.14483683
000070 62 ca 4b 3d f8 60 37 3d ec 5e e1 bd 99 02 89 be
       0.049753554 0.04477021 -0.11004433 -0.26759794
000080 2b e0 30 3e 49 67 91 bc c3 3a e1 bd db 0b 2d 3e
       0.17273013 -0.017749446 -0.10997536 0.16899054
000090 a8 db 45 3e 3c 6f 14 3e 57 a1 43 3e 38 f9 30 bc
       0.19322073 0.14495558 0.19104515 -0.010801606
0000a0 e4 9b 41 bb 82 f6 50 3d b8 83 60 3d 26 a1 24 3d
       -0.002954238 0.05101634 0.054813117 0.040192746
0000b0 ac a3 b5 3d d9 8f 3a be 24 84 03 be 9f a4 70 bd
       0.088691086 -0.18218936 -0.12843376 -0.058750745
0000c0 63 d6 6b 3e 04 87 82 3e 73 0d eb bd 41 cb 57 3b
       0.23031001 0.25493634 -0.114771746 0.0032927545
0000d0 74 4b a2 bc f2 74 cb bb 1c 55 ac bd 1e 30 8a 3c
       -0.01981137 -0.0062090093 -0.08414671 0.016868647
0000e0 0b 25 c0 3c aa 1e 2d bc 28 59 5f 3e 3c c6 34 be
       0.023455163 -0.010566393 0.21811354 -0.17653745
0000f0 22 cb 35 3e 6b 18 3e bd 4a 08 c3 3c 24 bd 65 bd
       0.1775327 -0.046410006 0.023807663 -0.05608858
000100 16 3d c9 3d 36 5d 3b 3e 23 f2 92 3d e1 8e 85 bb
       0.09826104 0.18297276 0.0717509 -0.0040758704
000110 c1 a1 79 3d 9b c2 a3 bc 5f 70 97 3c 91 61 47 be
       0.060945276 -0.019990256 0.0184862 -0.19470812
000120 b0 dc 08 3d 5b 21 56 3e e5 ec 14 3e 86 62 0d 3e
       0.03341359 0.20911162 0.14543493 0.13807115
000130 87 45 79 3d ad 9e 8d bd b6 7d 8d ba 71 1b f1 bc
       0.060857322 -0.06915031 -0.0010794911 -0.02943203
000140 42 c1 92 3d 68 57 60 be 0a 3a 34 39 80 e2 e0 bc
       0.07165767 -0.21908343 0.00017187759 -0.027451754
000150 32 79 24 3e c6 0a 94 3d 60 0c a9 3d 19 e8 0d be
       0.16061857 0.07228617 0.082543135 -0.1385807
000160 9a f7 63 3e 47 29 06 3e 03 b1 7d bc 4b d0 e0 bc
       0.22262421 0.13101684 -0.015484097 -0.027443072
000170 64 38 90 3d c3 fd bd 3d 90 14 0b 3d 66 f9 ea bd
       0.07042006 0.09276917 0.033955157 -0.1147335
000180 36 47 fd 3b ad fe cd 3d 5e e5 75 3e e9 02 08 3e
       0.0077294363 0.10058341 0.24013278 0.1328236
000190 44 39 91 bc 7d e9 4d 3d 38 d3 a3 bd 0e 19 00 be
       -0.017727502 0.0502715 -0.07999271 -0.12509558
0001a0 ca e3 41 bc 48 69 d4 bc 43 ef 94 3b c3 7b 26 3e
       -0.011834094 -0.025929108 0.004545124 0.16258149
0001b0 77 a6 24 3e 8e 03 8f bd 11 a9 28 be 83 43 4c 3d
       0.16079126 -0.069831 -0.16470744 0.04986907
0001c0 31 66 a2 3b 58 df 78 bd f2 20 50 3d 43 86 9d 3d
       0.00495603 -0.060759872 0.05081267 0.07691624
0001d0 9e 47 28 bd 4a b2 8f bd 20 e0 9e b8 4d b3 34 be
       -0.041083924 -0.07016428 -7.5757736e-05 -0.17646523
0001e0 c9 ed f7 3d 0f ad ac 3a b1 04 03 3d 63 90 de 3d
       0.12105901 0.0013174134 0.031986896 0.10867383
0001f0 3f 92 c5 bd 12 e3 4c 3d a7 cc b9 3d e6 61 57 bd
       -0.09647035 0.05002124 0.090722375 -0.052583598
000200 5b 73 02 bd 54 07 85 3d 52 28 7d 3d e5 04 bd bd
       -0.031848293 0.06495538 0.06180603 -0.09229449
000210 71 72 28 bc 81 24 b8 3d 1a 6f fa bd c7 ae 01 be
       -0.010281191 0.089913376 -0.12228222 -0.12664329
000220 b3 c1 56 bd 8a 41 dd 3d 68 ed e9 bc 54 94 8d bd
       -0.05243082 0.10803516 -0.028555587 -0.06913057
000230 3e 2c f4 3d 4b 5d 04 be e0 4b 14 be da 0d ba bc
       0.11922501 -0.12926213 -0.14482069 -0.022711683
000240 32 7a e9 3d 8b 97 1f be 27 60 a5 bd 3c a6 4e bd
       0.1140026 -0.15585153 -0.0807498 -0.050451502
000250 03 b8 4f 3d 9f e4 44 bd e6 3e e4 3d 48 e8 44 bd
       0.050712597 -0.048069593 0.111448094 -0.048073083
000260 79 47 9b 3b 10 a0 37 3e 42 4a 4a 3d 64 72 fe bd
       0.004738745 0.17932153 0.049387224 -0.12424162
000270 b3 de b3 bd 6b 05 ea bd 16 9f 48 3c c8 ae 4b bd
       -0.08782711 -0.11426815 0.01224496 -0.04972723
000280 20 65 11 3e 63 20 0b 3d c0 27 5c bd 9b 2d d6 bd
       0.14198732 0.033966433 -0.053748846 -0.10457917
000290 86 09 c0 bc 7f 9c d3 bc 16 34 36 3d 76 d5 9f 3d
       -0.023442041 -0.02583146 0.044483267 0.07804386
0002a0 ac f5 08 3d b9 8c e1 bc cc ff 1a 3d aa 31 31 be
       0.033437416 -0.027532922 0.037841603 -0.17304102
0002b0 d0 df 0c 3e ac af 78 3d 40 12 da 3d f3 b8 4b be
       0.13757253 0.06071441 0.10648012 -0.19894771
0002c0 d8 52 2d bd 44 36 f0 3d 84 de 78 3d 3a d2 b4 3b
       -0.042315334 0.117291 0.060759082 0.005518225
0002d0 8b 41 9b 3b 06 a8 f6 bd 0e 21 9a bc 46 91 09 3e
       0.004738038 -0.12043767 -0.01881459 0.13434324
0002e0 52 06 06 3e 80 5b d3 ba b0 d8 68 3c 63 6b da 3d
       0.13088349 -0.0016125292 0.014211819 0.10665014
0002f0 fc 5f 0f 3e 80 c5 4a 3d e6 4c 19 be b9 0f 25 3e
       0.14001459 0.049504757 -0.1497074 0.16119279
000300 8d a8 39 3d 19 c3 1e 3e ed 93 0d bd 35 13 8b bd
       0.04532676 0.15504111 -0.0345649 -0.06790773
000310 49 7e 0e 3e 5c e9 7e bd 52 16 7f 3e 75 cd e4 3c
       0.13915361 -0.062234268 0.24910858 0.02793
000320 1d 40 0b bd 70 b6 99 bd b9 d9 e7 3c d1 8b 17 be
       -0.03399669 -0.075055 0.02830206 -0.1479943
000330 17 fa 86 bd 91 9e 0a be fe 21 2b bc ec 86 05 bd
       -0.065906696 -0.13537051 -0.010445116 -0.032599375
000340 83 31 1d 3e 04 aa 4a 3d 58 84 9e bd e0 82 f8 3d
       0.15350918 0.049478546 -0.07740086 0.121343374
000350 f4 1e 1b 3e de 1b 33 bc ea 1f 03 bd 24 5a 91 bd
       0.15148526 -0.010931937 -0.032012857 -0.07097271
000360 a2 6e 82 3d 18 ea c4 bd 3d fc 67 3d 00 b4 12 bd
       0.06368758 -0.09614962 0.056637038 -0.035816193
000370 47 c2 48 bd df af 19 be 28 43 99 3d ff 96 10 3d
       -0.049013402 -0.15008496 0.07483512 0.03530025
000380 dd b1 1c bb a9 55 a0 bd 0f b7 e5 bc f8 b6 d6 bb
       -0.0023909726 -0.078288384 -0.02804139 -0.0065525733
000390 70 b6 0f bd e3 5a 9c 3d 1c e3 0d 3d 3c 24 72 3d
       -0.035086095 0.07634523 0.034640417 0.059116587
0003a0 3f 14 2d 3e 2b 53 01 be 05 11 1b bc 8e 4c 0b bd
       0.16902255 -0.12629382 -0.009464507 -0.034008555
0003b0 06 f7 a9 3d 14 f7 b8 bd 40 2d f4 3d b1 e0 a5 3d
       0.08299069 -0.090315014 0.11922693 0.08099497
0003c0 94 2d 0d be 43 d0 18 3c 80 03 c2 bb d7 4d 8f 3a
       -0.13786918 0.009326997 -0.0059208274 0.0010933232
0003d0 98 a9 8c 3d 9a eb 9a bd bb fb d0 bd a0 7e 7e bd
       0.06868285 -0.07564469 -0.10204264 -0.062132478
0003e0 7f 48 e7 3d da 65 0c 3e 64 0f 9b 3d 7f 6f ff 3d
       0.112931244 0.13710728 0.07571295 0.12472438
0003f0 c1 4d c0 bd 5a 8e da 3d c4 d5 a1 bd 8e 96 3f bd
       -0.093898304 0.10671683 -0.07902101 -0.04677444

lstm.bias_ih_l0 f4 [200]
000000 56 e8 4e 3e 04 35 ac 3e 01 c5 04 be c8 a8 e3 3d
       0.20205817 0.33634198 -0.12965776 0.11116177
000010 db ad 1e 3e 42 10 43 bc 12 18 3d bc 90 af 43 3e
       0.15496008 -0.011905732 -0.011541383 0.1910994
000020 8d 3f 58 3f 8d 18 e9 bd 74 ba 3b 3e 64 ec 1f bd
       0.8447197 -0.11381636 0.18332845 -0.0390438
000030 43 7a f3 3d 1b 65 2d 3e f9 ff b8 bd fc 1e 6b bd
       0.11888554 0.169331 -0.09033198 -0.057402596
000040 5f 2c 21 bd 01 7b 28 3e bc b0 b4 3d eb 9a 1d 3e
       -0.039348956 0.16453172 0.08822772 0.15391128
000050 49 28 bd 3c 57 83 a0 3d fc 08 f4 bc ba 7a ad 3d
       0.023090499 0.07837551 -0.02978944 0.08470674
000060 da 11 9e 3e 2b 43 3a 3e c2 b0 41 bd 65 e7 32 3e
       0.30872995 0.18189685 -0.04728771 0.17471083
000070 3a 94 97 3e a3 2c ed 3d 58 9a d4 ba ed c0 1a 3e
       0.29605275 0.115807794 -0.0016220314 0.15112658
000080 16 82 44 bd f5 7f 55 3e 5b 2c 36 bc ec 4c f2 3d
       -0.047975622 0.20849593 -0.011118974 0.11831078
000090 ca 1c ad 3d 9d 21 a0 3d 01 0f 42 3e ef 30 ae bb
       0.08452757 0.07818911 0.18951036 -0.005315892
0000a0 1b 8d e2 3d 3e 14 84 3e 58 c8 57 3d 57 10 29 3d
       0.1106207 0.25796694 0.052681297 0.04127535
0000b0 82 c3 5c 3d 8e 68 57 bd 26 16 8e bb b7 26 63 b8
       0.05389739 -0.052589945 -0.0043361364 -5.4157073e-05
0000c0 1c 53 2d 3e fb 70 9d 3d c6 f6 6d be d0 b2 8f be
       0.16926235 0.07687565 -0.23238668 -0.2806611
0000d0 94 83 e3 bc 68 da 17 be d7 74 c6 bc 69 f9 d3 bd
       -0.027772702 -0.14829409 -0.024225635 -0.103503056
0000e0 26 85 50 be 6e 25 83 bd e1 2b 42 be 99 91 02 be
       -0.20363292 -0.064036235 -0.18962051 -0.12750854
0000f0 03 a0 3b 3e c8 a6 80 bd fb 2b cd bd 58 e0 9a bd
       0.18322758 -0.06281811 -0.10018154 -0.075623214
000100 7b 9d 64 be 43 73 43 be 40 a5 08 3d 38 79 2e be
       -0.22325699 -0.19086938 0.03336072 -0.17038429
000110 03 3e 36 3d 4f dc b3 bd 5d 90 59 be 8b f5 bb bd
       0.044492733 -0.08782255 -0.21246476 -0.09177693
000120 b9 c3 49 be d9 4b 9e bb 14 2b 8a be bf c3 02 be
       -0.19703569 -0.004830819 -0.2698599 -0.12769984
000130 b2 eb bf bc 58 98 4f be d4 7d a7 be 78 83 07 be
       -0.023427818 -0.20272958 -0.32713187 -0.13233745
000140 2c 7e 19 be b2 02 a0 3d a2 83 11 be 2d 62 18 be
       -0.14989537 0.07813014 -0.1421037 -0.14881201
000150 d0 bf 12 be 24 89 37 3d 0a 70 02 be c5 20 09 3d
       -0.14330983 0.044808522 -0.12738052 0.033478517
000160 aa 97 57 be 5d 9b 61 bd 26 ab 72 be ad 78 20 be
       -0.21053949 -0.055079807 -0.236981 -0.15671034
000170 b4 8c b9 bd ba bd 94 bd 6a fd 95 bd 4f fd 08 bd
       -0.0906004 -0.0726275 -0.073237255 -0.0334447
000180 6d fb 26 be 4e ff 81 bd 6b e0 9d bc 0d 9f ff bd
       -0.16306849 -0.06347524 -0.01927205 -0.124815084
000190 43 e7 91 bd 95 87 2a bd d7 ec 91 bd 82 69 ca 3c
       -0.07124188 -0.041633207 -0.07125252 0.024708513
0001a0 10 30 69 3d 6e f0 fa bc fa 40 bc bd 24 40 ca 3d
       0.0569306 -0.030632224 -0.09192081 0.09875515
0001b0 7c 6a 0e 3d 53 af f4 3c 52 22 32 3a 51 d9 6e 3d
       0.03476952 0.029868757 0.0006795275 0.058312718
0001c0 01 fc 86 3d 9c 22 f4 3c 47 c5 1f be 8f ce ef 3c
       0.06591035 0.02980166 -0.15602599 0.0292733
0001d0 31 4d 31 3e 04 fb e0 3c ba 06 eb 3c a1 f0 79 bd
       0.17314602 0.027463444 0.02868973 -0.061020497
0001e0 8b 61 ae 3d 38 ac a8 3c 76 66 45 bc 98 a7 85 3d
       0.085146986 0.020589933 -0.012048354 0.065261066
0001f0 17 16 34 be d5 cd 39 3d 34 66 28 3c 4a bd 9e bd
       -0.17586552 0.045362312 0.010278273 -0.07750948
000200 86 67 10 bd c8 59 46 3d 8a c2 79 bd c4 74 9b bd
       -0.035254978 0.048425466 -0.060976543 -0.07590631
000210 84 b4 7a bc 30 1c 9b 3c 23 85 99 3c 05 4d 4a 3d
       -0.015301827 0.01893434 0.018740242 0.049389858
000220 e1 eb cd 3d 28 85 02 be 51 9a 6c 3d ba 17 0c 3c
       0.10054756 -0.12746108 0.057764355 0.008550579
000230 88 c9 54 3d 7a 45 4c bd 5c 6d 78 3d fd b1 9a bd
       0.051950008 -0.049870946 0.06065117 -0.0755348
000240 49 99 30 3d a2 89 29 bd 05 45 f0 bd 5c 94 50 3d
       0.043114934 -0.041391023 -0.117319144 0.050922737
000250 6f 13 06 3e 25 23 a5 3d e9 52 6d 3e 9a 9d 8e 3e
       0.13093351 0.08063344 0.23176159 0.27854615
000260 a8 ab e2 3d 1a 83 e1 3d ac d2 92 3e 9b 0f c4 3d
       0.11067897 0.11011334 0.28676355 0.09573289
000270 f7 6a 9c bd 06 4d c1 3d 34 3b 21 3f 9d 99 31 bd
       -0.076375894 0.09438519 0.6298096 -0.043359388
000280 53 d3 71 3d 38 9e 35 bd f4 6a 15 3e af be f7 3d
       0.059039425 -0.044340342 0.1459158 0.12096917
000290 ce 96 22 3e dd 93 8a bc 4e cb c1 3d b3 32 ac 3e
       0.1587784 -0.01691621 0.094626054 0.3363243
0002a0 d9 76 1c 3d a6 58 30 3e f8 a2 d8 3c a2 2a 11 3e
       0.03819928 0.17221317 0.026444897 0.1417642
0002b0 26 b6 cb 3b 42 fa d8 bc 5b 99 b8 3e e8 42 be bd
       0.006216782 -0.02648652 0.360545 -0.09290105
0002c0 6a 4f 46 bb 17 fb 23 3e f3 70 52 3e 7e 59 2c 3e
       -0.0030259737 0.16013752 0.20550899 0.16831014
0002d0 c0 db ae 3d cf 89 2a 3d e8 f2 a7 3d a6 89 46 3e
       0.08538008 0.04163533 0.082006276 0.19388446
0002e0 87 b7 3f 3e eb 63 9b 3d 4d d9 0f bd 1b 49 fa 3c
       0.18722354 0.07587417 -0.035119344 0.030552438
0002f0 af 9f 44 bb cc 23 61 bd 34 2e 57 bd cd 60 e4 3d
       -0.0030002405 -0.05496578 -0.052534297 0.11151276
000300 bf 36 13 3e c7 6d 65 3e 09 9a 0d bd 6d 3d 4f 3e
       0.14376353 0.22405158 -0.034570727 0.20238276
000310 57 b6 0d bd b2 2e 10 3e 02 23 78 3d 46 7e d8 bc
       -0.03459772 0.14080313 0.06058026 -0.0264274

lstm.bias_hh_l0 f4 [200]
000000 75 41 b8 3d c9 d8 a6 3e bf 18 a3 3c 72 1a 5e 3e
       0.0899686 0.3258727 0.01990926 0.21689776
000010 3e d1 b6 3d 72 4a 8e 3d c2 53 4d 3d 56 ed 1a 3e
       0.089266285 0.06947793 0.050128706 0.15129599
000020 73 e1 4d 3f f9 28 e0 bd 4c ee 52 3e d5 38 94 bd
       0.80422133 -0.10945315 0.20598716 -0.07237402
000030 26 69 89 3d 04 8f 89 3d 08 7a dd 3d 85 fc 87 3d
       0.067095086 0.06716731 0.10814291 0.06639961
000040 cb 11 03 bb 6d 6d b2 3e a6 b3 a2 3d 34 46 aa bb
       -0.001999962 0.3484911 0.079444215 -0.005196357
000050 72 4d 6e 3d d7 68 d2 bc af 7e a0 3b a4 0f 87 3d
       0.058179326 -0.025684757 0.0048979144 0.0659478
000060 d1 92 af 3e fd 1e 22 3d d6 2a 8c bd d1 22 54 3e
       0.342917 0.039580334 -0.06844108 0.20716406
000070 b2 36 85 3e 43 63 3d 3e 58 40 8c 3d a9 5e 86 bc
       0.26018292 0.18494897 0.0684821 -0.01640256
000080 68 45 b5 3d 07 a0 4c 3e 93 90 7b 3d 6e 78 81 3e
       0.08851129 0.1998292 0.061417174 0.25287193
000090 23 d6 e9 bd 09 cf a2 3d cc 77 f0 3d 4e a2 8e bd
       -0.114177965 0.07949645 0.117415994 -0.06964551
0000a0 5b e0 5d 3e 31 94 32 3e 52 af c0 bc 4b 01 25 3e
       0.21667616 0.17439343 -0.0235211 0.16113774
0000b0 90 45 20 3c c6 f4 48 3c 7a 6e 34 3e 00 23 da 3d
       0.00978221 0.01226539 0.17620268 0.10651207
0000c0 bf 0e 83 bc 09 bb 13 be b2 d0 8a be 56 b8 4f be
       -0.015998242 -0.14426817 -0.27112347 -0.20285162
0000d0 5e 32 af bc 5d f4 a5 bd 54 01 87 be 3a d6 7b be
       -0.021386322 -0.08103249 -0.263682 -0.2459344
0000e0 36 c1 7f 3b 8e a7 1b bd 5d 3b 85 be f2 ab 0f bc
       0.0039025075 -0.03800159 -0.26021853 -0.008769022
0000f0 ca 94 e0 3d 5b 7d 23 be 2f 58 48 be 17 52 cc bd
       0.10965879 -0.15965788 -0.1956489 -0.09976595
000100 cc 51 82 be df 34 7d bd 83 af 40 be 09 9e f5 bc
       -0.2545303 -0.061818 -0.18816952 -0.029982584
000110 53 6d 86 bd 09 1e 31 be 3a c3 e1 3c 3b 74 12 3d
       -0.06563821 -0.17296614 0.027558912 0.035755377
000120 d0 a8 68 be 8d a8 ab 3d 6d 02 17 be a0 30 1b be
       -0.22720647 0.08381758 -0.14747019 -0.15155268
000130 77 c9 b7 3c c7 14 61 be a0 86 9f be fa 32 37 be
       0.022434933 -0.21980582 -0.31157398 -0.1789054
000140 32 51 f1 bc 29 05 46 3d 47 33 25 be 89 6e c7 bd
       -0.029457662 0.048344765 -0.16132842 -0.0973788
000150 33 8b 09 be 88 32 e6 bd c2 93 1f bc ba 87 3b bd
       -0.13432007 -0.11240107 -0.009739818 -0.045783736
000160 af 8f 67 be e7 b9 86 3c 3a d5 18 3d 99 14 06 be
       -0.22613405 0.016446067 0.037312724 -0.13093795
000170 be f3 63 bd 7e 16 1b bd ef 00 0f be 59 f7 ef bc
       -0.055652373 -0.037863247 -0.139652 -0.02929275
000180 48 86 74 be 22 d1 41 be 0d 80 d6 bd 84 e5 45 be
       -0.23879349 -0.18927434 -0.104736425 -0.19325835
000190 a9 4e e7 3d 1b 36 18 3e 5c 08 0d 3e da a9 3f bd
       0.112943 0.1486439 0.1377272 -0.046792842
0001a0 6c 69 68 bd f6 43 07 bd b8 9a 5f bd 45 e1 e1 bd
       -0.056741163 -0.033023797 -0.05459091 -0.11029295
0001b0 08 8e 9b bd 39 98 8a bd 3f d0 77 3d 11 bc 8b bd
       -0.0759545 -0.067673154 0.060501333 -0.0682298
0001c0 62 22 55 bd 06 19 ab bd 3e b9 f9 3c 9f fc 59 bd
       -0.052034743 -0.08354382 0.030483838 -0.053219434
0001d0 b2 3b eb bc a8 5c 42 3c 2f d1 17 bd 7c 94 ea bc
       -0.028714988 0.011862911 -0.037064727 -0.028635256
0001e0 ec a0 80 bd 1a 65 6b 3c a6 ff 17 3d 49 44 c5 3d
       -0.062806934 0.014367366 0.03710904 0.09632165
0001f0 93 89 5c 3d 28 a0 52 bd 25 63 ac bd 83 93 d4 3d
       0.05384214 -0.05142227 -0.08417348 0.10379698
000200 98 f8 f9 bd 22 a4 6a bc a5 ed 3e bd b5 03 bc bd
       -0.122056186 -0.014321359 -0.046613354 -0.091803946
000210 1e c0 c7 3d aa 0b 5a bd ea f3 fb bb 42 73 a7 bc
       0.0975344 -0.05323378 -0.007688989 -0.020440701
000220 47 47 d4 bd f6 3f b3 bd 7f cf 47 3d b4 b2 64 3d
       -0.103651576 -0.08752434 0.048781868 0.055834487
000230 02 88 c8 bd 03 24 de 3d b3 ff 86 bc d7 e4 d8 3d
       -0.097915664 0.108467124 -0.016479349 0.10590523
000240 0a d5 01 be 5e 84 a1 bd 4c 09 b2 3c 50 4a 74 3d
       -0.12678924 -0.07886575 0.021732949 0.059641182
000250 68 19 c1 3c 2c 2b 8a 3d ef 72 f0 3d b2 8b 61 3e
       0.023571685 0.06746516 0.11740672 0.22025946
000260 37 eb fb 3c 27 04 46 3e 1f 4f d5 3d eb 0f 65 3e
       0.030751808 0.19337521 0.10415482 0.22369353
000270 28 d1 45 3b 26 b3 37 3d 8d 00 26 3f ab 40 3d 3d
       0.0030184481 0.044848584 0.6484459 0.04620425
000280 36 a5 33 3e ef 93 16 bb 81 10 a5 bd dd 0f e7 3d
       0.17543492 -0.002297636 -0.080597885 0.112823226
000290 77 0d ab bd 7b 3c 3a 3e 2e 5e 06 3e df 66 b8 3e
       -0.083521776 0.18187134 0.13121864 0.36015984
0002a0 08 1d 91 3d f3 7a a5 bd ed 5d 04 bd 54 c3 8c bd
       0.070856154 -0.08080091 -0.032316137 -0.068731934
0002b0 4e 41 77 bd d4 33 1b 3d bb e4 c0 3e bc 4d 86 3d
       -0.060365014 0.037891224 0.37674507 0.065577954
0002c0 01 24 59 3d cb 80 23 3e 15 db 88 3e bf 90 a5 3d
       0.05301285 0.159671 0.26729646 0.08084249
0002d0 31 d3 bb 3d 3d a5 b8 3d fd b4 c5 3c 9a a3 4d 3d
       0.09171141 0.09015892 0.024134154 0.05020485
0002e0 0b 4c 5e 3e e9 e2 1a 3d ed e6 bc 3d a5 c1 03 3e
       0.21708696 0.037814055 0.09223733 0.12866838
0002f0 a4 fa 0b 3e 70 87 86 3c 97 69 79 3d e9 02 9c 3e
       0.1366983 0.016422004 0.060891714 0.3047097
000300 c6 51 65 bd b5 fb c7 3d 43 ee a1 3d a3 03 00 bd
       -0.05598619 0.09764806 0.07906773 -0.03125347
000310 1e 52 71 3e 1b 3b 8c 3d 2d 7f 97 3c 34 1e e9 bd
       0.23566481 0.06847211 0.01849326 -0.11382714

lstm.weight_ih_l1 f4 [200, 50]
000000 e0 35 c4 3d b4 a6 59 3d e4 68 ae 3d b8 2b b9 3d
       0.09580588 0.053137496 0.085161 0.09041542
000010 41 5f 8c 3d 21 27 ec 3d 24 54 a6 3d 57 66 9a be
       0.06854106 0.11530901 0.08121517 -0.30156204
000020 9d 0b a4 3b 17 cc 15 be 9b 75 cd bc ec f0 c9 bd
       0.005006267 -0.14628635 -0.025080493 -0.09860405
000030 44 54 d8 3d ed 0a dc 3d 34 4d e2 3d 7d 61 83 3d
       0.105629474 0.107442714 0.110498816 0.06415079
000040 87 a2 3f be 83 30 bf bc 41 45 6f 3d d9 c1 61 3c
       -0.18714343 -0.023338562 0.058415655 0.013779127
000050 87 94 ec bc 0f 0c 84 3d e6 2d 98 3c 2e f0 38 bc
       -0.028879417 0.064476125 0.018576574 -0.011287732
000060 02 51 28 bd 00 2f 79 bd a4 b5 bc bd e6 a2 87 3e
       -0.04109288 -0.06083584 -0.09214333 0.2649147
000070 17 01 ec 3d b3 68 f3 bd 3d 38 a4 bc 85 68 46 3d
       0.11523645 -0.11885204 -0.020046348 0.04843952
000080 eb 36 9e 3d dc ef 63 bc e1 01 3b bd 4f 0c cd bc
       0.077253185 -0.013912167 -0.04565609 -0.025030283
000090 7d 8c 96 3d 31 35 fe 3d 11 33 14 3e 2a ff 1a be
       0.07351015 0.12412489 0.14472605 -0.151364
0000a0 1d 4c d6 bd 8f 85 9c 3d 93 b1 bf 3d 49 37 9c bd
       -0.10463736 0.07642662 0.093600415 -0.07627732
0000b0 5e c5 13 be 5e 8b 36 3d 3c 45 ca 3d 06 75 a0 bd
       -0.14430758 0.044566505 0.09876487 -0.078348204
0000c0 cc b8 7e 3d e7 a9 00 3d a5 6c d5 bd fe 7e b0 bd
       0.062187955 0.03141203 -0.10421113 -0.08617972
0000d0 62 be 73 3c 8e b7 be bd de e4 d9 bc 07 65 57 bd
       0.014876934 -0.09312354 -0.02659839 -0.05258658
0000e0 19 71 ec 3c 9f 4b 57 bd ee 7a 93 3c 2a c6 bf bd
       0.028862523 -0.052562352 0.018002953 -0.09363969
0000f0 d9 0c da 3d ac 53 de bd f7 72 b1 bd 34 f6 94 bb
       0.10646982 -0.10855803 -0.08664506 -0.0045459513
000100 1f cb 49 3d 85 ca ed 3d f1 c8 ca bd e8 c6 7a be
       0.049265977 0.11610893 -0.09901608 -0.24489939
000110 2e c1 a7 3d b9 f6 29 3e cc 93 02 3e e5 eb 64 bd
       0.08191143 0.16598023 0.12751693 -0.05588903
000120 48 02 c3 3d a0 89 15 3d 8f fe 2f 3e e6 0c 89 bc
       0.095219195 0.036508203 0.1718695 -0.016729783
000130 31 32 16 3e 67 ff 07 be 16 e5 78 3e b8 3d 87 bd
       0.14667584 -0.13281022 0.2430614 -0.06603569
000140 be 88 37 3e 79 cc e4 3d 30 e3 2c be f4 33 bc 3d
       0.17923257 0.111718126 -0.1688354 0.09189597
000150 49 3f ac ba ad 1f 11 be df 8c 0f bd b6 89 0c 3d
       -0.0013141419 -0.1417224 -0.035046455 0.03431102
000160 af 64 ea bb 08 1a 45 3d ee de 65 3e 6a 32 02 be
       -0.0071531157 0.04812053 0.22448322 -0.12714544
000170 db 8b 5f bd 6c 0c 0a be ef 2a 1d 3e e7 fc 26 3e
       -0.054576736 -0.13481301 0.15348409 0.16307412
000180 27 4d 27 3e 70 26 bb 3d 9e a2 9d bd 89 14 4c bc
       0.16338025 0.09138191 -0.076970324 -0.012456068
000190 f6 5e 1f 3d 27 2e 5b 3d c3 3a 11 be c0 f5 af bc
       0.03890892 0.05351081 -0.14182572 -0.021479487
0001a0 83 36 9f bd 82 8d ce 3d 55 ff 06 3c c0 24 7a bd
       -0.07774069 0.10085584 0.008239587 -0.061070204
0001b0 52 c7 30 bd 17 57 a4 bd d6 c2 21 bd 45 e6 3d 3c
       -0.043158837 -0.080244236 -0.03949245 0.011590545
0001c0 32 af d0 bd c5 30 84 3c dd 1d 48 3d 56 76 5f bd
       -0.10189666 0.016136536 0.048856605 -0.054556213
0001d0 ef 45 85 bd 9a ff 1b be 00 1c f8 3c 7e d1 ab bc
       -0.065074794 -0.15234223 0.030286789 -0.020973917
0001e0 05 9f 15 be 62 b7 a0 3d 75 06 d8 bd a1 cc 0a 3e
       -0.14611442 0.078474775 -0.105481066 0.13554622
0001f0 fd e0 15 3e aa dd 6c 3d cc 7e 74 3d de 7c c8 bd
       0.14636607 0.057828583 0.059691235 -0.097894415
000200 36 10 c3 3d de ae bd bd 05 3b 36 bd 64 ed 35 ba
       0.09524576 -0.09261869 -0.04448988 -0.0006939976
000210 b4 e7 eb 3c 80 04 cf bd 21 3e 1e 3b c2 8c c9 3d
       0.028797008 -0.1010828 0.0024145918 0.098413005
000220 fd ad d1 3d d1 be 2b 3e c9 29 83 3d ad a8 9d bd
       0.10238264 0.1677201 0.06404454 -0.07698188
000230 6e f7 2d 3d db 30 79 3d d9 5f 2d bd 86 51 26 3e
       0.042472295 0.060837608 -0.042327736 0.16242036
000240 5f 53 07 3e 73 bf 32 bc 3c 05 20 3c 4e f9 b5 3d
       0.13215397 -0.010909903 0.009766873 0.08885442
000250 03 83 b2 3b 67 2e aa 3c a0 ef a2 3c d5 f1 76 bc
       0.0054477467 0.02077408 0.019889653 -0.015072306
000260 eb ea a4 3c d2 75 05 3e ae a3 cb bd 01 ff 15 3e
       0.020131549 0.13033226 -0.09943329 0.14648058
000270 f1 f7 0a be af ad fc ba b2 94 a1 3d c6 ec 5d bd
       -0.13571145 -0.0019277836 0.078896895 -0.054180883
000280 7a 2d b7 bd 35 02 cc bc ea 81 7e bd ce c5 32 3e
       -0.08944221 -0.024903396 -0.062135614 0.17458269
000290 7f ff 59 3d 52 8a 3c 3d a6 3e 4f be 17 20 b9 3b
       0.053222176 0.04603035 -0.20238742 0.0056495774
0002a0 19 05 83 3d 98 ad 3f 3d 1f 43 da 3b 29 10 b6 bd
       0.06397457 0.04679641 0.0066608335 -0.08889801
0002b0 be 5c 5f bd 7a e2 57 bd 9f 45 13 3e 0c 08 3c bd
       -0.054531805 -0.05270622 0.14382027 -0.04590611
0002c0 d9 9a c1 bd 5d 2f 9a bd 83 90 ab bb 81 84 e1 bb
       -0.09453363 -0.07528565 -0.005235733 -0.006882251
0002d0 86 c3 90 3c 24 12 da bd 88 92 79 3b 6f d9 9c 3c
       0.017671358 -0.10647991 0.0038081724 0.01914665
0002e0 53 13 9e bd 9c 61 86 3d 7e c0 ef 3d 33 e4 83 3d
       -0.077185296 0.06561586 0.11706637 0.0644001
0002f0 8d c2 3b 3c 65 6a 96 bd a2 e7 d3 3c e1 8d cb bd
       0.011459959 -0.07344512 0.025867287 -0.09939171
000300 7d ad 01 bd a2 47 1e 3d 91 7a 0d 3e 74 82 56 bd
       -0.031659592 0.038642533 0.13816287 -0.052370504
000310 ea ae 56 3e 15 19 dc 3d ab b8 93 3c 8c 73 a7 bd
       0.20965162 0.107469715 0.018032392 -0.08176336
000320 55 60 ec bc 98 07 2e be 4a 92 c1 3c c5 15 72 3d
       -0.028854528 -0.16995084 0.023629326 0.059102792
000330 08 3d b1 3d 22 85 92 bd de 9e 41 bd b3 7d 5d bc
       0.08654219 -0.07154299 -0.04727065 -0.013518739
000340 6e 01 60 bd 63 69 46 3d a9 4a 3b 3e 18 93 08 bd
       -0.054688863 0.04844035 0.182902 -0.033343405
000350 9e 55 e5 bc 7e dc ec 3c 7a 35 8f 3d cd f3 05 be
       -0.027994927 0.028913733 0.06992622 -0.13081284
000360 b8 f8 8c 3b ba 87 58 3c a1 e9 a3 3d e8 a6 d6 3d
       0.0043021105 0.0132159535 0.080035456 0.104810536
000370 6c 86 14 bc 82 d7 85 bd f2 72 5b bc cd 64 d9 3d
       -0.009065252 -0.065352455 -0.013394104 0.10614929
000380 9a 81 72 bd 8a 8d ee bd a3 d5 76 3d d3 79 f1 3c
       -0.05920563 -0.1164809 0.060262334 0.029477036
000390 41 2f bb bd 56 b7 34 bc b5 6f 0c 3e 48 c7 1d bd
       -0.09139872 -0.011030039 0.13714488 -0.038520128
0003a0 b7 ef ca 3d 21 17 8c bd fb d1 14 be d2 21 1a 3e
       0.09909003 -0.06840349 -0.14533226 0.15051964
0003b0 5e c5 bf 3d 2a d4 76 3d ad 91 bd 3d 45 a5 41 be
       0.09363817 0.06026093 0.09256301 -0.18910702
0003c0 44 10 bb bd ee 63 b6 bc 50 bb 16 3d a1 95 91 bd
       -0.09133962 -0.022264447 0.03679973 -0.071086176
0003d0 0c ca 20 bd 8b 80 20 3d 74 da 30 bd aa c6 03 bd
       -0.039255187 0.039185088 -0.043177083 -0.032171883
0003e0 7c cf be bc 32 bc 55 bd f2 0b 07 3e 8b 8c 2f be
       -0.023292296 -0.05218143 0.1318815 -0.17143457
0003f0 8f 76 06 bd 05 d5 4c 3a 9c f4 5f be df 60 73 3d
       -0.03282791 0.0007813725 -0.21870655 0.059418555

lstm.weight_hh_l1 f4 [200, 50]
000000 f9 a3 cf bd 9f 5d d2 3c 58 5b d3 3d 49 3a 1f 3d
       -0.10138697 0.025679408 0.10320157 0.038873944
000010 a9 3e c6 bb d2 35 be 3b d7 45 b4 bd a8 8c 8f bd
       -0.00604995 0.0058047557 -0.088023834 -0.0700925
000020 0c 3f a9 3d 45 ff d0 bd 91 83 5f bc b4 c3 fc bc
       0.08263978 -0.10204939 -0.013642208 -0.030855037
000030 1c 7f a0 bd 14 18 85 3d 28 27 c3 3b 14 3d 1f 3e
       -0.07836744 0.06498733 0.0059555955 0.15550643
000040 45 57 93 bd 3a 34 03 3e 05 0a ab ba 19 44 3c bd
       -0.0719438 0.12812892 -0.0013049251 -0.04596338
000050 e5 5f d8 bd b4 7d 88 bc 26 0f 34 be 03 11 d2 3d
       -0.105651654 -0.016661502 -0.17583904 0.10257151
000060 17 67 86 3d 52 8c ee 3d 50 cd 90 bd fa 05 b9 bc
       0.065626316 0.11647858 -0.0707041 -0.022585858
000070 00 d4 34 be 4a 90 1f bc e2 2b 90 3d a0 ae fe 3d
       -0.17658997 -0.009738991 0.0703962 0.12435651
000080 7b 10 f5 bd 38 52 36 be 58 18 83 3b 97 37 e7 bd
       -0.11966034 -0.17804801 0.0040007047 -0.112899
000090 cd e8 30 3d 1e 10 41 3e 53 16 e1 3c fe 57 b6 bd
       0.043190766 0.18853804 0.027476465 -0.08903502
0000a0 e5 18 9e bc a8 47 4e bd 08 a6 23 be 13 73 42 be
       -0.01929898 -0.050361305 -0.15981305 -0.1898921
0000b0 0b b8 f8 bc 0d 7c 61 bd a4 c2 07 3e 62 c2 d2 3b
       -0.030361196 -0.055049945 0.13257843 0.0064318636
0000c0 76 b5 36 3e 58 64 17 be 4b f5 33 3e ee 8b 4e bd
       0.1784266 -0.14784372 0.1757404 -0.050426416
0000d0 91 1a 1d 3d 92 ea 04 be d0 d3 03 bd a0 86 d4 3b
       0.038355414 -0.12980106 -0.032184422 0.006485775
0000e0 64 7b c1 bd a8 c5 dc 3d a7 87 4f be 49 9d c7 bd
       -0.09447363 0.107798874 -0.20266591 -0.09746797
0000f0 db d2 b2 bd 1b a1 3b bd bc e4 03 3e d0 26 e0 bb
       -0.08731624 -0.04580794 0.12880224 -0.0068405643
000100 c7 20 0b 3e 59 67 58 bc b9 9c 05 bd 2f 48 0f 3d
       0.13586722 -0.013208234 -0.032620165 0.03498095
000110 c5 16 06 bd 61 68 c7 3c f0 69 93 3d e9 92 bb 3c
       -0.03273656 0.024341764 0.0719794 0.0228972
000120 7a 41 a5 3d 48 38 4f 3d c0 41 23 bb 96 a3 d7 bd
       0.08069129 0.050590783 -0.0024911016 -0.105292484
000130 ea 79 be bc 18 27 4b 3d 71 cc c6 bd 43 43 62 3e
       -0.023251493 0.04959783 -0.09706963 0.22095971
000140 87 37 81 bc eb af ab bd a4 ed 50 bd fd a5 a0 3d
       -0.015773548 -0.08383163 -0.05100788 0.0784416
000150 f6 00 b4 bd f1 eb e6 3c f8 ee df bc f5 90 64 3c
       -0.08789246 0.028188678 -0.027335629 0.013950576
000160 40 13 e3 bc e4 b1 41 bd f1 78 62 3e 54 63 2d be
       -0.02771914 -0.04728879 0.22116448 -0.16932422
000170 3f fb db bb b8 d0 68 3d a7 21 e8 bd d9 c8 0d be
       -0.0067133005 0.056839675 -0.11334544 -0.13846149
000180 ea 5e a6 3d 94 72 33 3d c2 67 16 bd bd 8e ff bd
       0.08123572 0.043810442 -0.036720045 -0.12478397
000190 77 3e ca 3d 14 69 77 3d 55 a4 61 bc 9e 86 81 bd
       0.098751955 0.060402945 -0.01377209 -0.06324504
0001a0 2e d7 55 3d 23 6d 53 3d 81 1f c3 bd f8 65 37 3c
       0.052207164 0.051617753 -0.09527493 0.011193745
0001b0 0e 4f 4c 3a 92 be e0 3b 4a cd 02 3e 00 d4 73 3d
       0.00077937625 0.0068586553 0.12773624 0.05952835
0001c0 66 e0 c1 3d 3f dc a7 bd 3c e0 0a 3d f1 66 66 3d
       0.09466629 -0.081963055 0.033905253 0.056250516
0001d0 6f 88 04 be a7 0e 85 3c ed 91 68 bd eb 7c 00 be
       -0.1294267 0.016242338 -0.05677979 -0.12547652
0001e0 60 8d d0 3d 22 98 b6 bd 85 ad 0b be 2a 63 a7 3d
       0.10183215 -0.08915736 -0.13640411 0.08173211
0001f0 fb e3 7d bd 1d 41 89 3d b3 78 ee bd f9 4e b2 3d
       -0.061984997 0.067018725 -0.11644115 0.08706469
000200 51 57 28 be 2b 88 03 3e ec ea 12 be 3f 4e e0 3c
       -0.16439559 0.12844913 -0.14347428 0.02738106
000210 b4 9a 10 bb 20 a1 43 bb 21 d9 0b be a5 6f 12 3e
       -0.0022064866 -0.0029850677 -0.13657047 0.14300402
000220 0a 2a 9f bc 81 cf 21 3d 20 30 40 bb fa 35 df bc
       -0.019429225 0.03950453 -0.002932556 -0.027247418
000230 45 56 03 3e 3f 1f aa 3c 88 52 15 bc 4c 37 ff 3c
       0.12825878 0.020766852 -0.009113915 0.031154297
000240 2b 07 b6 3d 6b f0 0b be 3e 33 df bd 7e b4 ab 3d
       0.08888086 -0.13665931 -0.108984455 0.083840355
000250 a8 cc db bd ee b4 f4 bd 95 42 02 3e a7 77 8b 3d
       -0.107323945 -0.11948572 0.12720712 0.06809931
000260 71 51 b6 3d 27 f0 01 be 9b 48 5a 3d 32 f3 2a 3e
       0.089022525 -0.12689267 0.0532919 0.16694334
000270 87 2f 69 bd 5a 80 ec 3d 3f 69 00 3d 30 9a 23 be
       -0.05693009 0.115479186 0.03135037 -0.15976787
000280 a1 e0 4a 3d e4 ef 69 3b 2b db a9 bc 08 63 0c be
       0.04953063 0.0035695964 -0.02073439 -0.13709652
000290 21 9e 88 bd b2 5f d8 3d 2f 43 a2 3d d0 d1 b6 bb
       -0.06670786 0.105651274 0.079229705 -0.005579211
0002a0 df 77 50 bc 07 42 5b bb ea d5 b1 3d 7c c0 97 3d
       -0.012723892 -0.0033456103 0.08683379 0.0740976
0002b0 92 45 94 bc d4 87 cc bd ab c8 f4 bd f3 db ac bd
       -0.01809958 -0.09986845 -0.11952337 -0.084403895
0002c0 66 70 80 3d 5b f4 3d 3d 1f 4f 3c 3d d9 74 ff 3d
       0.06271438 0.046375614 0.045973893 0.12473459
0002d0 80 00 83 bd 03 9e 96 bc 5f ae 6f 3d 4e 8d e2 bd
       -0.0639658 -0.018385893 0.058515903 -0.11062108
0002e0 37 41 b5 bd 18 e1 6f bd 3c c8 41 be 0c 7c ce bd
       -0.08850329 -0.058564276 -0.1892404 -0.10082254
0002f0 f6 c5 b8 3c 2c 33 3c 3d e6 65 12 3d bc e3 98 3b
       0.022555333 0.04594724 0.03574171 0.00466582
000300 5b b6 05 3e 6b 1f c3 3d c3 e8 c1 bd a7 d8 d1 bd
       0.13057844 0.09527477 -0.09468224 -0.10246401
000310 da ff a3 3d 28 3c ae bd 2b 00 19 be 6a e6 04 bd
       0.08007784 -0.08507568 -0.1494147 -0.032446302
000320 ca 67 f9 3d 2b 7b d7 bc 1e a1 dd 3d 58 58 46 3d
       0.12177999 -0.026303848 0.10821746 0.048424095
000330 80 cd 37 bd 24 9d 2a be 4b af 29 3d 2f 1d 04 be
       -0.044873714 -0.16661507 0.041426938 -0.12901758
000340 6e 11 a9 bd 10 75 84 bc 85 f2 2b 3e 75 ff 48 bc
       -0.082552776 -0.016169101 0.16791733 -0.012267937
000350 ae d0 5e bd 1d ad 4f be 01 2e 0f be 79 4a b8 3d
       -0.05439823 -0.20280881 -0.13982393 0.089985795
000360 0a 85 3e be 96 29 05 be 36 e8 4f 3d d3 16 ef bc
       -0.18605438 -0.13004145 0.050758563 -0.029185688
000370 b6 93 a9 bd d7 1d 9c 3d b0 0d b6 bd 72 8a 3f 3e
       -0.08280127 0.07622879 -0.088893294 0.18705156
000380 62 66 16 3e c0 72 b6 bd c8 7d 49 3d 81 c9 49 3e
       0.14687493 -0.089086056 0.04919222 0.19705774
000390 5d 0f 1c 3b 92 8e 0c be 7f 0d c1 3d f5 db 22 3e
       0.0023812868 -0.13726261 0.09426402 0.1590422
0003a0 03 09 4c 3d 10 cd 2b be ac a4 80 3d 15 25 b1 3d
       0.04981328 -0.16777444 0.06281409 0.08649651
0003b0 63 dd 05 3e 34 36 0b 3d 0b a6 0d be fc 82 ff 3d
       0.13072734 0.03398724 -0.13832872 0.12476155
0003c0 14 48 cc bb 48 59 2b 3d c2 98 c2 3d 60 03 66 be
       -0.0062341783 0.041833192 0.095017925 -0.22462225
0003d0 55 b7 0f 3e 66 a2 bb ba f0 f5 54 bd f0 31 46 bd
       0.1403478 -0.0014315366 -0.051992357 -0.048387468
0003e0 b5 02 a9 3d 2d d3 78 bc f1 da e8 3d ce f0 09 be
       0.082524695 -0.015187067 0.11369885 -0.13470766
0003f0 11 37 73 3d 85 06 12 3e 08 97 e7 3d 41 47 1a 3e
       0.059378687 0.142603 0.11308104 0.15066244

lstm.bias_ih_l1 f4 [200]
000000 24 6d 9d 3d 7b b2 92 bd 68 f3 58 3d 08 fd 0b 3e
       0.076868325 -0.07162949 0.052966505 0.13670743
000010 bf 65 7c 3d 69 e9 ce 3d 8f 52 3e 3d 3b 6b 04 3e
       0.06162047 0.10103113 0.046465453 0.1293153
000020 93 7a b5 3d 05 5a e2 bd 42 58 12 3e ab af d2 3d
       0.0886127 -0.11052326 0.1429148 0.10287412
000030 18 6f 81 3d 8d bc 24 3b 42 8f 8a ba a1 17 9e 3b
       0.063200176 0.00251368 -0.0010571259 0.004824594
000040 5f b2 b2 3d 2f 68 f5 3d b7 f7 8c 3d 1c 53 85 3d
       0.08725428 0.11982762 0.06883185 0.065099925
000050 e8 33 33 3e 1b d9 f3 bd a4 eb fa bd 97 5f f4 3c
       0.1750027 -0.11906644 -0.12251976 0.029830737
000060 45 7f f9 bd 96 97 7a 3d 7f ca 0b 3e f4 59 84 3c
       -0.12182478 0.06117972 0.13651465 0.016156174
000070 f8 92 1a bc 03 59 03 be a6 83 62 3c 55 23 f0 3d
       -0.009434454 -0.12826924 0.013825333 0.11725489
000080 61 50 29 3d 2e e7 3f bd fa 78 3e 3e 02 e1 88 bd
       0.04133642 -0.04685133 0.18600836 -0.06683542
000090 15 9d 9a bd 99 c2 3d 3e b2 5b 0c 3d 0b 4f 24 3c
       -0.07549492 0.18531264 0.034267135 0.010028611
0000a0 77 c8 68 3b 6b bf f3 3d 7f 17 f2 3d a7 b3 2f be
       0.0035519877 0.119017445 0.11820888 -0.17158376
0000b0 e7 0f 42 3a 79 2b ba bb c5 07 1f bd 93 f7 ec 3d
       0.00074028823 -0.005681452 -0.03882577 0.115706585
0000c0 15 14 b4 3d 9f 31 39 3d 21 d9 fd 3d 4b 9a 3d 3d
       0.08792893 0.045213338 0.1239493 0.046289723
0000d0 3c 07 0b 3e ed 38 cf bd 2a 38 e5 3d de c9 1f be
       0.13576978 -0.101182796 0.11192353 -0.1560435
0000e0 7d 95 a4 3d cf 95 00 be 53 82 69 bd 47 b2 a5 bd
       0.08036325 -0.12557147 -0.057009052 -0.08090644
0000f0 2f 01 54 3d 52 15 c6 bd 53 6d c6 bd 7d 32 b1 bd
       0.05175894 -0.09672035 -0.09688821 -0.08652208
000100 02 0c 53 3d cb 90 1e be 63 ea 17 bd fe 4e 0a 3b
       0.051525123 -0.15484922 -0.037088763 0.0021104212
000110 55 4f 63 3c 91 33 59 bd 84 d6 8b 3d 97 88 bf 3d
       0.013873895 -0.053027693 0.06828025 0.09352224
000120 e1 c7 18 bd 8f df 95 bd ca c7 18 be 6e 99 96 3d
       -0.037299994 -0.07318031 -0.14919963 0.07353483
000130 e0 44 bd bc 66 89 81 3c 0d 61 91 3d 95 7b 2e bc
       -0.023104131 0.015812587 0.07098589 -0.010649581
000140 3b 58 bd 3d 0d eb 5a bc a5 b1 b4 bd f1 7e 00 be
       0.09245344 -0.013361705 -0.088229455 -0.12548424
000150 bb ea 71 be 9c 3a 8e 3c 56 14 1f be 49 4c 70 3d
       -0.23624699 0.017361932 -0.15535101 0.0586665
000160 ae e7 1c be ef 67 88 bd d9 86 3f bd ae a4 35 be
       -0.15322754 -0.06660449 -0.04675946 -0.17738602
000170 3b 6f a2 3b a3 c4 9e 3d c4 bd 75 3d b9 ec db bd
       0.0049571074 0.07752349 0.059995428 -0.10738511
000180 14 ce 2d bd d0 05 3f 3d 75 ba 0d be 3a 77 5a 3d
       -0.04243286 0.046636403 -0.13840659 0.05333636
000190 e6 f5 87 bc 7a 13 d2 3d 53 46 87 bd a3 7b ee bd
       -0.016596746 0.10257621 -0.0660521 -0.116446756
0001a0 cd 54 b7 3c 2c f8 0e bd bb 7e 49 3d 60 86 e4 3c
       0.022379303 -0.034904644 0.049193125 0.027896106
0001b0 da 39 fc bc 29 53 a5 bc 97 66 88 3b 47 d5 9e bd
       -0.030789305 -0.020181255 0.0041626203 -0.07755523
0001c0 c9 83 c6 bc 5c 10 80 bb 50 7d 66 3d 2c 38 d4 3d
       -0.024232762 -0.0039082 0.05627185 0.103622764
0001d0 cf 87 96 bc c2 21 34 3c 11 3e 27 3d f4 37 7f bd
       -0.018375305 0.010994377 0.040830676 -0.06230922
0001e0 34 f4 89 3d 3c 91 0a be 21 d4 db bc bb 92 d9 3d
       0.06736031 -0.13531965 -0.02683455 0.1062369
0001f0 87 b7 14 3e de e1 88 bc 7e 86 50 bd 4b 49 b4 bc
       0.14523135 -0.016709264 -0.05090951 -0.022007605
000200 29 b9 e8 bd a5 c2 7b bd 97 1a b2 bd 15 f8 80 3d
       -0.113634415 -0.061464924 -0.08696478 0.06297318
000210 cb 5c 15 be c0 39 61 bd bf ab 8c 3c 72 3f 92 3d
       -0.14586179 -0.054986715 0.017171739 0.071410075
000220 5a 4b 59 3d 21 57 1a 3d a7 b5 4b 3d 33 b8 1b 3d
       0.053050376 0.03768075 0.049733784 0.038017463
000230 59 8f 00 bd d1 4d dd ba ae 0a 2f 3c fc 93 81 bd
       -0.031386707 -0.0016884153 0.010683699 -0.06327054
000240 9c 7c a5 3c ef 78 9f 3d 8e d0 41 bc 3b 59 d6 bd
       0.02020102 0.07786738 -0.0118295085 -0.10466238
000250 7d 66 09 3d 48 c5 c6 bd 74 bc a2 bd 95 c9 a8 3c
       0.033545006 -0.09705597 -0.07946101 0.020603934
000260 26 ac 9f 3c 17 30 ba 3d c1 8a 24 3d 2d bb c7 bd
       0.019491266 0.09091204 0.04017139 -0.09752498
000270 57 e0 15 bd ae 81 fe 3d bc 42 00 bc 55 9b 27 3d
       -0.0365909 0.12427078 -0.007828411 0.04091962
000280 c9 5e f5 3d e5 d7 0e 3d 92 72 d0 bd 9e 38 d1 3d
       0.119809695 0.03487386 -0.101781026 0.10215877
000290 e6 83 1a 3e 24 ec 95 3d d8 30 67 bd d9 14 c8 3d
       0.15089378 0.07320431 -0.056443065 0.097696014
0002a0 e3 e0 ca bc 04 90 0c 3e 1d b9 0d 3e 19 8d 80 3d
       -0.024765437 0.13726813 0.13840146 0.06276912
0002b0 41 23 e2 3d 74 bf b2 3d 7f 8a b1 bd 00 de c5 3c
       0.110418804 0.08727923 -0.08668994 0.02415371
0002c0 81 d7 f3 bd 8f 7d 10 be 1b 88 0b bc f0 54 f7 bd
       -0.119063385 -0.14110397 -0.008516337 -0.120767474
0002d0 c3 20 97 bc 67 f3 cb bd db bb e1 bd 03 ce ea bd
       -0.01844824 -0.09958535 -0.11022159 -0.11465075
0002e0 e7 f6 b0 bd 70 af 6b 3c 6e 64 e9 3b bf d8 d3 3d
       -0.08640843 0.014385089 0.007122568 0.103440754
0002f0 80 12 1e bc 84 10 bc 3d 66 a8 0b be 65 9c 23 be
       -0.009647965 0.091828376 -0.13638458 -0.15977629
000300 50 fa a8 3d c5 8c b8 3d 6b 59 67 bd c7 4a b9 3b
       0.08250868 0.09011225 -0.05648176 0.005654666
000310 9a 76 fa bd 0e 4a 1b bd 70 24 15 be 6a 4e b6 3d
       -0.12229653 -0.03791242 -0.14564681 0.08901675

lstm.bias_hh_l1 f4 [200]
000000 e4 da 1f 3e 2c 19 eb 3d 97 94 28 3e b6 36 d9 3d
       0.15610844 0.114794105 0.16462933 0.106061384
000010 19 52 e3 3d 1d 97 0b bd 78 4b 17 3e b5 f6 f6 3c
       0.11099643 -0.03407966 0.14774883 0.030146936
000020 8d 00 bc bd 9e 25 f3 3d 35 0b f5 bd ba ae 1b 3e
       -0.091797926 0.11872409 -0.11965028 0.15203372
000030 69 96 32 3d 2b c6 19 3e ce db a1 3d 30 02 ca bb
       0.043600474 0.15017001 0.079032525 -0.0061648116
000040 57 df b4 3c 64 06 f4 3d 0b 6f 9c 3c 4e 42 8c 3d
       0.022079153 0.119152814 0.019095918 0.06848584
000050 4c fe cd bd 5e 33 44 3c 6e e1 59 bd 3a 6e 88 bd
       -0.10058269 0.0119751375 -0.053193502 -0.06661649
000060 c2 26 ce 3d 1b e5 a1 bd 52 07 4a 3c 3a ed da bc
       0.10065986 -0.079050265 0.012330847 -0.026724447
000070 ea 9d 1f 3d 18 79 9d bd 0a cb 08 bc 9d 4f 6a bd
       0.038968958 -0.076891124 -0.00834919 -0.05720483
000080 34 5d d8 3d 8f 6c 35 bd 19 b1 9f 3d fe ce 0d 3e
       0.10564652 -0.044292983 0.077974506 0.13848493
000090 f8 bc 3e 3d 05 56 2f bd d6 df 78 3d 79 f0 68 bd
       0.046566933 -0.042806644 0.06076034 -0.056869958
0000a0 f8 4a 8a 3c 8c c2 0e be e3 94 9f 3d db f3 85 bd
       0.016881451 -0.13941401 0.0779207 -0.06540652
0000b0 41 a4 9b bd b9 44 26 3e 63 b5 de bd b0 c4 01 3e
       -0.07599688 0.16237153 -0.108744405 0.12672687
0000c0 73 06 ed bd f5 c4 8e 3d b2 5a 2d 3d ce d0 6d 3a
       -0.11573496 0.0697116 0.042322822 0.0009071947
0000d0 f4 94 ae 3d 9c 14 28 bd 8d b6 d1 bd a0 47 d7 bd
       0.08524504 -0.04103528 -0.10239897 -0.10511708
0000e0 dc 95 d5 bb cd 95 e5 bc 38 1a d4 3c 8d e4 9c bd
       -0.006518109 -0.028025532 0.025891408 -0.0766078
0000f0 2b 82 f4 3c 60 36 81 bd db 53 0c be c2 d0 fc bd
       0.029847225 -0.06309199 -0.13703863 -0.12344505
000100 55 7c 62 3d 72 75 b1 bb 18 1f 8d bd e4 80 02 3d
       0.055294354 -0.005415612 -0.06890696 0.0318612
000110 e4 37 cd 3c aa 40 50 bd 67 3a 84 3d 59 6e 4a 3d
       0.025051065 -0.05084292 0.06456452 0.049421642
000120 a6 df 91 bd 43 df b5 3c aa f3 99 ba 0d 41 18 bd
       -0.07122736 0.022201186 -0.0011745591 -0.037171412
000130 d0 f1 41 3a 70 82 02 bd 3a 94 b6 bd bb b8 d6 3c
       0.00073983986 -0.031862676 -0.08914991 0.026211133
000140 63 a0 2d 3e 18 4c 21 bc f2 f6 b0 bb a8 c1 9f bc
       0.16955714 -0.009844802 -0.005400532 -0.019501522
000150 26 7c b2 bd 63 31 d9 ba 84 34 dc 3a 3f 90 80 3d
       -0.08715086 -0.0016570505 0.0016800319 0.06277513
000160 af ae 01 be 9e 96 da 3d 4a 1b a3 bd 1a 45 0f 3d
       -0.12664293 0.10673259 -0.07964189 0.03497801
000170 52 a0 fd 3d 1f b8 e6 bd f7 a8 dc bb 6f 94 d9 bc
       0.12384094 -0.11265587 -0.0067340094 -0.026560036
000180 c0 4d 1e be fa 40 33 be b9 01 ce bd 0f e1 1f 3b
       -0.15459347 -0.17505255 -0.10058922 0.002439562
000190 62 e9 95 3d f6 8a f7 3c 61 c7 8e 3c f9 a7 0c 3d
       0.07319905 0.030217629 0.017429056 0.03433988
0001a0 9d 95 8b 3c da b2 a3 bb 67 a6 31 bd be e7 83 bd
       0.017039115 -0.004995686 -0.043371584 -0.06440686
0001b0 cc ba 57 bb a5 5e 12 3d eb 1e cb 3d 99 62 d3 3b
       -0.0032917736 0.03573479 0.099180065 0.0064509627
0001c0 cf 5e e6 bd ee ee ad bd 76 96 60 bb 6c 17 7a bb
       -0.11248552 -0.08492838 -0.003426937 -0.0038160933
0001d0 d1 82 76 bd f5 c2 e6 3c ba 95 97 3d e3 be 05 3e
       -0.06018335 0.028169135 0.07401605 0.13061099
0001e0 6c e2 0d be 53 b1 0f 3d 52 79 56 bd b8 d3 60 bd
       -0.13855904 0.03508122 -0.052361794 -0.05488941
0001f0 57 49 4e bd e2 c6 c2 3c 64 53 f6 3d 41 d3 dc 3d
       -0.05036291 0.023776475 0.12027624 0.10782481
000200 92 2e c2 bc 5a 1b 08 3d aa be dc 3c e3 52 1b 3d
       -0.023703847 0.03322921 0.026946384 0.037920844
000210 47 c7 b6 3d e1 16 4e bd 5b b8 2c 3d ea f1 7b bc
       0.08924728 -0.050314788 0.042168003 -0.015377501
000220 be 85 be bb 13 c3 10 3d c4 79 06 be 56 2f ef ba
       -0.005814283 0.035342287 -0.13132387 -0.001824836
000230 aa 39 e9 bc 22 d2 06 3c 05 a9 9f bd 65 89 48 bd
       -0.02846988 0.0082288105 -0.0779591 -0.048959155
000240 0b 4a 9b 3c 97 69 5c bd 09 f3 b2 3d 66 70 7c bd
       0.018956205 -0.053811636 0.087377615 -0.06163063
000250 d0 73 b8 bc 5e a7 78 bd 08 f5 ed bd b8 d1 cf bd
       -0.022516161 -0.06070649 -0.116190016 -0.101474226
000260 d3 0a 9b 3d 21 99 0b bc 64 4f 45 bd d0 7a 1d be
       0.07570424 -0.0085203955 -0.048171416 -0.1537888
000270 d8 53 fe 3d e7 dc db bc 2e a2 dc bd 89 03 bf bd
       0.12418336 -0.026838733 -0.10773121 -0.09326846
000280 12 c3 af bd 1f fb c9 bd 39 b1 d6 3d 3a 5d c1 3d
       -0.085821286 -0.09862351 0.10483021 0.0944161
000290 e6 5d a7 bd 83 5d 02 bc 93 0d b1 bd c6 98 3e 3a
       -0.081722066 -0.007956865 -0.08645167 0.000727069
0002a0 17 0c 88 3d c9 03 58 3c 65 dd c4 bc f0 57 1a 3e
       0.06642931 0.013184496 -0.02403135 0.15072608
0002b0 ba 07 c5 bb 69 91 3f 3d 4f 60 78 3d a1 6a d9 ba
       -0.006012884 0.046769533 0.060638722 -0.0016587564
0002c0 7e 42 a9 3d 57 ae c5 3d 99 38 d4 bd af 12 60 3d
       0.082646355 0.09652393 -0.10362358 0.054705318
0002d0 53 8d 03 3e 14 25 d0 bd a9 f9 c9 bd 8d d8 f2 bd
       0.1284688 -0.10163322 -0.09862072 -0.1185771
0002e0 ae 41 f2 3d 12 4f 23 bc c8 45 73 bd 04 9a d8 3d
       0.11828934 -0.009967582 -0.05939272 0.10576251
0002f0 44 7b d4 bd 4a 03 a6 bc de 22 a7 bd 72 c1 a0 bd
       -0.103750736 -0.02026524 -0.08160947 -0.07849397
000300 34 bb 30 3d 75 2e 82 3c c9 86 c4 bd 2b 8f fe bd
       0.04314728 0.015891293 -0.09596021 -0.12429651
000310 7f 92 97 bd 44 8c 09 3d 86 6e 81 bd 2f fa 7a bb
       -0.07400989 0.033581033 -0.06319909 -0.0038296094
